final-project-agar/store/nets/dqn_model.pt (torch, 13007 bytes, 8 tensors)

fc1.weight f4 [32, 9]
0	0xbe97532e	-0.2955565
1	0x3e832189	0.25611523
2	0x3e0942ae	0.13404343
3	0xbd138dc8	-0.036023885
4	0x3dc68ce4	0.096948415
5	0x3ea9fe8b	0.33202013
6	0x3d873aac	0.06602988
7	0x3e76dbe2	0.24107316
8	0xbe940734	-0.28911746
9	0x3e712e8b	0.23552911
10	0xbcd45bda	-0.025922704
11	0x3db51815	0.08842484
12	0xbea4b9c6	-0.32172984
13	0xbc71ebb3	-0.014765668
14	0xbe3c0c3e	-0.18364045
15	0xbe45eefe	-0.1932945
16	0x3dfb22c6	0.12262492
17	0xbc1f96b3	-0.009740519
18	0xbe0c4943	-0.13699822
19	0x3dfbc460	0.12293315
20	0x3e7ec14a	0.24878421
21	0x3e9bfd7b	0.30466828
22	0xbe0cc5db	-0.13747351
23	0x3d97876c	0.073988765
24	0xbe8fc4e2	-0.28079897
25	0xbcb12e30	-0.02162847
26	0xbe551ff3	-0.20812969
27	0x3d93dbd6	0.07219665
28	0xbe0c48ad	-0.13699599
29	0xbe27e34e	-0.16395304
30	0xbe67277b	-0.22573654
31	0xbd12d3a5	-0.03584637
32	0xbd629d2d	-0.055325676
33	0xbe66ec5b	-0.225511
34	0x3e9b21f1	0.30299333
35	0xbde42594	-0.1113998
36	0x3e68c631	0.22731854
37	0x3e8a239b	0.2698029
38	0xbe637113	-0.22211103
39	0x3dd42102	0.10357858
40	0x3e6746d9	0.2258562
41	0xbe98204a	-0.29712135
42	0x3ea2f6af	0.3182883
43	0xbe81c5dc	-0.25346267
44	0x3e8b3c8f	0.2719464
45	0x3e70b46b	0.23506324
46	0x3e841e3d	0.2580432
47	0xbd90e24b	-0.07074412
48	0xbd654fc5	-0.055984277
49	0x3d95b63e	0.073101506
50	0xbe796021	-0.24353077
51	0x3e113ffb	0.14184563
52	0x3d0421eb	0.03225891
53	0xbe7463d3	-0.23866205
54	0x3d472335	0.04861756
55	0xbea33e24	-0.31883347
56	0x3e86f4c5	0.2635862
57	0x3e05f2ce	0.13080904
58	0xbe8d6fb9	-0.276243
59	0xbe8456c2	-0.2584744
60	0xbe80f291	-0.25185063
61	0xbe7fc78b	-0.24978463
62	0xbe8b6a6c	-0.2722963
63	0x3e06fbc9	0.13181986
64	0xbdca5660	-0.09879756
65	0xbdef1d85	-0.11675552
66	0x3d0ab64d	0.03386526
67	0x3de35ffa	0.111022905
68	0x3e4c0585	0.1992398
69	0xbe49a62b	-0.19692294
70	0x3b896626	0.0041930852
71	0x3e642695	0.22280343
72	0x3e894ed9	0.26817968
73	0xbe140542	-0.1445513
74	0xbe451392	-0.19245747
75	0x3d9fe90d	0.07808123
76	0xbd6caf95	-0.057784636
77	0x3e314fa6	0.1731554
78	0xbdaed835	-0.08537332
79	0x3e7f3e1e	0.2492604
80	0x3e12d25e	0.14338061
81	0xbe3a797b	-0.18210404
82	0xbe7815a6	-0.24227008
83	0x3e12b0c8	0.14325249
84	0xbe562eae	-0.20916244
85	0xbe1ef3ce	-0.15522692
86	0x3e98980f	0.29803512
87	0xbcd73250	-0.026269108
88	0xbe4ba670	-0.1988771
89	0x3ce883c0	0.028383136
90	0x3e6d7e33	0.23192672
91	0x3e536be2	0.20646623
92	0xbd08fb5b	-0.033442836
93	0xbe257fc7	-0.16162024
94	0xbea27698	-0.31731105
95	0x3ea41ba3	0.32052335
96	0xbe414dbb	-0.18877308
97	0x3cc44824	0.02396018
98	0x3e5fba79	0.21848477
99	0x3c7ef26e	0.015560729
100	0x3e1aa26b	0.1510102
101	0xbd4bf14e	-0.049790673
102	0xbce3b76b	-0.027797421
103	0x3e4c7f5f	0.19970463
104	0xbd8ed6b2	-0.06974544
105	0x3e8d437b	0.27590546
106	0x3e26da9f	0.16294335
107	0xbda834d6	-0.08213203
108	0x3e9beaa7	0.30452463
109	0x3e92d47f	0.28677747
110	0xbe3e99bd	-0.18613334
111	0xbdc50374	-0.09619799
112	0x3db26ae8	0.08711797
113	0xbe8e435c	-0.27785766
114	0xbea60064	-0.32422173
115	0x3d0acdd3	0.033887696
116	0xbd3ae0d1	-0.045624558
117	0xbd88ff7c	-0.06689355
118	0x3e76c726	0.24099407
119	0xbd87a94c	-0.06624088
120	0x3e964345	0.29348198
121	0x3e44e93a	0.19229594
122	0xbe42a098	-0.19006574
123	0xbdb2f480	-0.08738041
124	0x3e7b7692	0.2455695
125	0x3e58d9ba	0.21176806
126	0x3e1b8d0d	0.15190525
127	0x3e9a9bff	0.3019714
128	0xbe2bad7a	-0.16765395
129	0xbe41562d	-0.1888053
130	0x3e8d9d9d	0.27659312
131	0x3e792f99	0.24334563
132	0x3e702835	0.23452838
133	0x3e385015	0.17999299
134	0xbe5b1e1d	-0.21398206
135	0xbe090e6b	-0.13384406
136	0xbdb1a9ac	-0.086749405
137	0x3dee3130	0.116304755
138	0xbe1830b3	-0.14862327
139	0x3e8c4f6d	0.27404347
140	0x3e829fb7	0.25512478
141	0x3e847ef1	0.258781
142	0xbdd46bc0	-0.10372114
143	0xbd663a58	-0.056207985
144	0xbe1c6348	-0.15272248
145	0x3e1aeb4a	0.15128818
146	0x3dbd509c	0.09243891
147	0x3ea23735	0.31682745
148	0xbe6c24ee	-0.23060963
149	0x3e2b5fa2	0.167357
150	0xbda944f0	-0.08265102
151	0xbe415bde	-0.18882701
152	0xbe63ce26	-0.22246608
153	0x3dbb5ec2	0.09148933
154	0x3ea3e375	0.32009473
155	0xbe010e8c	-0.12603205
156	0xbd9ae815	-0.075637974
157	0xbe421d87	-0.18956576
158	0x3e240225	0.16016443
159	0x3e0b5ce1	0.13609649
160	0x3e4d061d	0.20021863
161	0xbe5045bd	-0.20339103
162	0x3def3142	0.11679317
163	0xbdf75ba6	-0.120780274
164	0x3d2e1bed	0.0425071
165	0xbe28a7bb	-0.16470234
166	0x3e615c1d	0.22007795
167	0x3e33a3b1	0.17542912
168	0xbe670d1d	-0.22563596
169	0xbe69a0cb	-0.22815244
170	0xbe07785d	-0.13229509
171	0xbe5e9a08	-0.21738446
172	0x3e93a81d	0.28839198
173	0x3e62c5da	0.22145787
174	0xbddd1d40	-0.107965946
175	0x3d122368	0.035678297
176	0x3bb495c0	0.0055110157
177	0x3ea9aef7	0.331413
178	0x3e1062f6	0.1410025
179	0xbe64a540	-0.22328663
180	0x3dfdcf06	0.12393002
181	0xbdfa65b6	-0.12226431
182	0xbe33ffc4	-0.17578036
183	0x3ba0fa4a	0.0049126493
184	0xbe98ac60	-0.29819012
185	0xbd68cde5	-0.05683698
186	0x3dfca34e	0.123358354
187	0x3cdff8f6	0.027340394
188	0x3e3630a3	0.17791991
189	0xbc751912	-0.0149595905
190	0x3e7c71e7	0.24652825
191	0xbe8b1a75	-0.27168623
192	0x3e81c871	0.25348237
193	0xbea80775	-0.3281819
194	0x3e9c6fff	0.30554196
195	0x3e6beae7	0.23038827
196	0x3ea8c637	0.32963726
197	0x3e111b3f	0.1417055
198	0x3dadd656	0.08488147
199	0xbe82af2d	-0.25524274
200	0xbe7f734f	-0.2494633
201	0x3e90a21f	0.2824869
202	0xbe506fc1	-0.2035513
203	0xbe0020fb	-0.12512581
204	0xbe63658e	-0.22206709
205	0xbdbf673d	-0.09345863
206	0xbe01d82e	-0.12680122
207	0xbe68bf5e	-0.22729251
208	0x3e0da97a	0.13834181
209	0xbe8ba122	-0.27271372
210	0x3db5ae0c	0.088710874
211	0xbd88e9c4	-0.06685212
212	0x3df5b8e4	0.11998156
213	0x3de93440	0.11386919
214	0x3e81e087	0.25366613
215	0x3ea6685b	0.32501492
216	0xbcfb0070	-0.030639857
217	0xbdb56f0c	-0.08859071
218	0xbcbb3930	-0.022854418
219	0x3e53a232	0.20667341
220	0x3e77c63a	0.24196711
221	0x3ea422a9	0.32057694
222	0x3d8dc094	0.06921497
223	0xbe06b6a3	-0.13155608
224	0x3e65f59a	0.22456971
225	0xbe3cf466	-0.18452606
226	0xbe20771b	-0.15670435
227	0xbe654feb	-0.22393768
228	0x3dd2e6b4	0.102979094
229	0xbe009870	-0.1255815
230	0x3e046fa8	0.12933218
231	0xbea79c7b	-0.32736573
232	0x3e3d3f82	0.18481258
233	0xbe5da5eb	-0.21645324
234	0xbe98c530	-0.29837942
235	0x3e467d96	0.19383845
236	0x3e964515	0.2934958
237	0xbe834947	-0.25641844
238	0x3c950db0	0.018195003
239	0xbea6bd16	-0.32566136
240	0xbd3f2648	-0.046667367
241	0xbd0f5740	-0.034995317
242	0x3e8fd631	0.28093103
243	0xbc362700	-0.011117697
244	0x3e5f60ea	0.21814314
245	0x3cf77c50	0.030210644
246	0x3e09cc66	0.13456878
247	0xbd13c720	-0.036078572
248	0x3ddb4f70	0.10708511
249	0xbe1b1d00	-0.15147781
250	0xbde8bd50	-0.113642335
251	0xbcede090	-0.029037744
252	0x3e2040f6	0.1564978
253	0x3cf820dd	0.030289108
254	0xbe93258d	-0.28739586
255	0xbe01a8f4	-0.12662107

fc1.bias f4 [32]
0	0xbd86e9a4	-0.06587532
1	0xbea7a3b0	-0.3274207
2	0x3c061ee0	0.008186072
3	0xbcb8054b	-0.022463461
4	0xbea72406	-0.3264467
5	0xbdc961a2	-0.09833075
6	0xbeaae339	-0.33376482
7	0xbbbc42db	-0.0057452745
8	0xbe2aa77c	-0.16665453
9	0xbbdb4840	-0.0066919625
10	0x3e671608	0.22566998
11	0x3e0fbb1b	0.14036219
12	0xbe06ab3f	-0.13151263
13	0xbde98b00	-0.11403465
14	0xbd1271ab	-0.035752933
15	0xbe9f1b24	-0.31075394
16	0xbe2e0156	-0.16992697
17	0x3af9399e	0.0019014364
18	0x3d175c85	0.036953468
19	0xbe5618d3	-0.20907907
20	0x3e6096ef	0.21932577
21	0xbd2f01d5	-0.042726357
22	0x3e1bfbcb	0.1523277
23	0xbdc6fbb6	-0.09715979
24	0x3e65d86a	0.22445837
25	0x3e92dd65	0.28684536
26	0xbd181198	-0.037126154
27	0xbe417d43	-0.1889544
28	0xbd75ae40	-0.05998063
29	0x3e87c05b	0.26513943
30	0xbe83dd7b	-0.25754914
31	0x3e6864e9	0.22694744

fc2.weight f4 [32, 32]
0	0xbd054f7c	-0.032546505
1	0x3c3fb780	0.011701465
2	0x3c8aec10	0.016958266
3	0x3c6dee80	0.014522195
4	0xbd7f2d9e	-0.062299363
5	0x3d6e5040	0.058182
6	0xbe2a4747	-0.16628753
7	0x3cc0df50	0.023543984
8	0xbda665b7	-0.08124869
9	0x3baa4f20	0.0051974207
10	0xbddad84d	-0.10685787
11	0xbb760040	-0.003753677
12	0xbe0474b0	-0.12935138
13	0x3e2b449b	0.1672539
14	0xbdecb4aa	-0.115578964
15	0x3d8b7f1c	0.068113536
16	0x3e2d6307	0.16932307
17	0x3df634d6	0.120217964
18	0xbdc55087	-0.096345
19	0xbe1d145a	-0.15339795
20	0x3da08ece	0.07839738
21	0x3e162ca1	0.14665462
22	0x3e29901d	0.16558881
23	0xbc541bf0	-0.012946114
24	0x3e0e0fad	0.13873167
25	0x3e1cd145	0.15314205
26	0xbdff147e	-0.124550804
27	0xbd2d7b4c	-0.042353913
28	0x3de8768a	0.113507345
29	0x3d3df6b0	0.046377838
30	0xbd9d9d37	-0.07696002
31	0xbc7c5b40	-0.015402615
32	0x3dc1a70a	0.09455688
33	0x3db8535c	0.090002745
34	0x3e345031	0.17608716
35	0x3ded49fc	0.11586377
36	0xbdcfc15a	-0.10144301
37	0x3e018f66	0.12652358
38	0x3c6ac14d	0.014328313
39	0x3e284bb6	0.16435131
40	0x3d08dae3	0.03341187
41	0x3cbac998	0.022801206
42	0x3e3117de	0.17294261
43	0xbdc6a8cf	-0.097001664
44	0x3e310f12	0.17290905
45	0xbd6744e6	-0.05646219
46	0xbdaf68fd	-0.08564947
47	0xbe05d170	-0.13068175
48	0x3dbe3bf2	0.092887774
49	0xbe3053a0	-0.172194
50	0x3d7f0f37	0.06227037
51	0xbc670fa0	-0.014102846
52	0xbd243175	-0.04008623
53	0x3cd8019e	0.026367959
54	0xbd9ba188	-0.07599169
55	0x3c85baa0	0.016324341
56	0xbe1c567c	-0.15267366
57	0xbca91d30	-0.0206438
58	0x3e02dd19	0.12779655
59	0x3e10f559	0.14156093
60	0xbdb7a92f	-0.08967816
61	0xbdbf2e97	-0.09335058
62	0xbd9d48d0	-0.076799035
63	0x3dbfdc34	0.09368172
64	0x3e065acd	0.13120575
65	0x3cfd30d8	0.03090708
66	0xbdb61c77	-0.08892148
67	0xbe1b45e7	-0.15163384
68	0x3dd08292	0.10181154
69	0xbdfff363	-0.12497594
70	0xbd4d54cc	-0.050129697
71	0xbda92bb1	-0.082602866
72	0xbe0ee5bd	-0.13954826
73	0x3d735814	0.05941017
74	0x3d936cf6	0.07198517
75	0x3d1af9a0	0.037835717
76	0x3d8699cc	0.06572303
77	0x3d6003a8	0.054690987
78	0xbd86cd49	-0.06582124
79	0xbd9b5470	-0.075844646
80	0xbdb11221	-0.08646036
81	0x3d2da648	0.042394906
82	0xbda66379	-0.08124442
83	0xbdf18d2c	-0.117945045
84	0xbdaf0939	-0.08546681
85	0x3df6fd96	0.120600864
86	0xbc985af0	-0.01859805
87	0x3df167ca	0.11787374
88	0xbe0a6c24	-0.13517815
89	0xbcdb18b8	-0.026745185
90	0x3dee92da	0.116491035
91	0x3d71b904	0.059014335
92	0xbdc4c77b	-0.096083604
93	0xbe1f17ce	-0.15536425
94	0xbc974608	-0.01846601
95	0x3dc86ef2	0.09786786
96	0xbe26de3f	-0.16295718
97	0xbcc304c8	-0.02380599
98	0x3d614e1c	0.05500613
99	0xbdcb57cc	-0.09928855
100	0xbd2ba140	-0.041901827
101	0xbda63ad8	-0.08116692
102	0xbcd23ba8	-0.025663212
103	0x3e3430fb	0.1759681
104	0xbe2e37bd	-0.1701345
105	0xbc274ee0	-0.010211676
106	0x3b5db380	0.0033828914
107	0xbceeb440	-0.029138684
108	0xbe16311a	-0.14667168
109	0x3d193a38	0.037409037
110	0xbde3d0e2	-0.111238256
111	0xbdce99ad	-0.10087905
112	0x3b854b60	0.0040678233
113	0xbdfb3504	-0.12265971
114	0xbe31486b	-0.17312782
115	0xbcf8f7e8	-0.030391648
116	0xbcf954b8	-0.030435905
117	0xbc698260	-0.014252275
118	0x3e17c441	0.14820959
119	0xbc813820	-0.015773833
120	0xbd1ef960	-0.03881204
121	0x3cd47358	0.025933906
122	0xbdbbe69e	-0.09174846
123	0x3e340db1	0.17583348
124	0xbe04a4d4	-0.12953502
125	0xbde70cd4	-0.11281744
126	0xbe03563c	-0.12825865
127	0x3ddd4d36	0.108057424
128	0xbe2d1aa5	-0.16904695
129	0xbe19419f	-0.14966439
130	0xbdba59e0	-0.090991735
131	0x3db1e300	0.08685875
132	0x3ddb2214	0.10699859
133	0xbd156ea3	-0.036482465
134	0x3c912481	0.017717602
135	0x3ca05749	0.01957287
136	0xbd484a6f	-0.04889911
137	0xbd8bcfc7	-0.0682674
138	0x3dec3384	0.11533263
139	0xbe17f31b	-0.14838831
140	0x3e28dbae	0.16490051
141	0x3e25961f	0.16170548
142	0x3dc41a4c	0.09575328
143	0xbd9f2981	-0.07771588
144	0xbddab86d	-0.10679708
145	0x3e0f1f16	0.13976702
146	0xbd45485b	-0.048164707
147	0xbd87d777	-0.066328935
148	0x3d20c5c5	0.039251108
149	0x3d058501	0.032597546
150	0x3df082b8	0.117436826
151	0x3e20ce15	0.15703614
152	0x3ce7e660	0.028308094
153	0x3e16f4f5	0.14741881
154	0xbe026a25	-0.12735803
155	0xbdfc5050	-0.12320006
156	0xbd85c852	-0.06532349
157	0x3dc172bc	0.09445712
158	0x3d7c26fc	0.061560616
159	0xbd0232c7	-0.031786706
160	0x3c834b68	0.016027167
161	0x3dd7aba4	0.10530785
162	0x3d384834	0.044990733
163	0x3e33d5e4	0.17562062
164	0x3e19bdea	0.15013853
165	0x3e0029aa	0.12515894
166	0xbe172b35	-0.14762576
167	0xbd58825d	-0.0528587
168	0xbdb03079	-0.086029954
169	0xbbb26ea0	-0.0054453164
170	0x3d1eefcf	0.038802918
171	0x3e001f88	0.12512028
172	0xbcb9ad09	-0.022665517
173	0xbd84a2d0	-0.064763665
174	0xbdb20dcd	-0.086940385
175	0xbde8cdd2	-0.11367382
176	0x3e2ed307	0.17072688
177	0x3d814874	0.063126475
178	0xbdad4f3f	-0.084623806
179	0xbe192c9c	-0.14958423
180	0x3d5f1787	0.054465797
181	0xbdc6f344	-0.09714368
182	0xbd3c1e3d	-0.045927275
183	0xbe112476	-0.14174065
184	0xbd7e314a	-0.062058724
185	0x3da886f2	0.08228864
186	0x3da90226	0.08252363
187	0x3e04c67b	0.1296634
188	0xbdcac9fa	-0.09901805
189	0x3e213e1c	0.15746349
190	0xbe06c8f8	-0.13162601
191	0xbe05ce83	-0.13067059
192	0xbdb1390b	-0.08653458
193	0xbd48ec63	-0.04905356
194	0xbd17b680	-0.03703928
195	0xbe1930ba	-0.14959994
196	0x3d4ce035	0.050018508
197	0x3dc06c1c	0.0939562
198	0xbdf805c2	-0.12110473
199	0x3e02b8a0	0.12765741
200	0xbded099e	-0.115741
201	0x3c8fe0d8	0.017563269
202	0xbba3e35c	-0.0050014686
203	0xbd4cf05b	-0.05003391
204	0x3e29f032	0.16595533
205	0x3e0b8bb9	0.13627519
206	0xbded6fd4	-0.11593595
207	0xbdda547e	-0.10660647
208	0xbe3464df	-0.17616604
209	0x3dec9394	0.11551586
210	0xbd7a1469	-0.06105462
211	0xbe1cea7e	-0.15323827
212	0xbe19cefe	-0.15020368
213	0xbc816d8e	-0.01579931
214	0x3dcd8aec	0.10036263
215	0xbd3556f8	-0.044272393
216	0xbe202aff	-0.15641402
217	0x3b755380	0.0037433803
218	0x3cff0700	0.031131268
219	0x3d339488	0.043842822
220	0x3d824ade	0.06361936
221	0xbd6fcf85	-0.058547515
222	0xbd24a2e0	-0.040194392
223	0x3e295276	0.16535363
224	0x3e0011c5	0.12506779
225	0x3d2e2e38	0.042524546
226	0x3d82174e	0.06352101
227	0x3da84d86	0.082179114
228	0x3d414a78	0.04719016
229	0xbd7ecc30	-0.062206447
230	0x3dffd976	0.12492649
231	0xbc8626e8	-0.016375974
232	0xbce6ae78	-0.028159365
233	0x3dcb274e	0.09919606
234	0xbe1d489c	-0.1535973
235	0xbdb3f45c	-0.08786842
236	0xbd5b8ee0	-0.053603053
237	0xbdbff0cb	-0.093720995
238	0xbe2371cd	-0.1596138
239	0x3ca853a8	0.020547703
240	0x3c4ae100	0.012382746
241	0x3d1435d8	0.036184162
242	0x3ded776e	0.11595045
243	0x3dc04d8a	0.093897894
244	0xbdb7e19c	-0.089785784
245	0xbd96bb1b	-0.07359906
246	0x3e0d4e39	0.13799371
247	0xbb39a080	-0.0028324425
248	0xbdd9cee2	-0.10635163
249	0xbd676a1c	-0.05649768
250	0xbd0b11a8	-0.033952385
251	0xbc038f40	-0.008029759
252	0x3d25f900	0.040520668
253	0x3c66c040	0.014083922
254	0x3ddc6896	0.10762136
255	0x3d0822e8	0.033236414

fc2.bias f4 [32]
0	0xbe0e87cb	-0.13918988
1	0xbd619951	-0.055077855
2	0xbd027f38	-0.031859607
3	0x3df972be	0.121800885
4	0xbd887e50	-0.06664717
5	0xbe2c03c2	-0.16798308
6	0x3da0aa48	0.078449786
7	0x3dd9128a	0.10599239
8	0x3dbcb5eb	0.092143856
9	0x3d825660	0.06364131
10	0x3d87a03e	0.06622361
11	0x3da984b0	0.08277261
12	0x3dfa0698	0.12208289
13	0xbd60d267	-0.054888155
14	0xbe0c3122	-0.13690618
15	0x3d727264	0.059191123
16	0xbd2ea387	-0.04263642
17	0xbb43b94a	-0.002986508
18	0x3e2e5b4e	0.17027017
19	0xbd4b0849	-0.04956845
20	0x3e207ee9	0.15673412
21	0x3db0d655	0.086346306
22	0x3d39cf1f	0.04536354
23	0xbe0f5a3a	-0.13999262
24	0xbbc03c3a	-0.0058665546
25	0xbce65a5f	-0.028119264
26	0xbe29351b	-0.16524164
27	0xbe00f9f7	-0.12595354
28	0x3de6072a	0.11231835
29	0xbd509b9f	-0.05092966
30	0x3e1edbc5	0.15513523
31	0xbdde5079	-0.10855193

fc3.weight f4 [32, 32]
0	0xbdaf46b8	-0.085584104
1	0x3cc81ca8	0.024427727
2	0x3de04ff2	0.10952748
3	0xbe0048aa	-0.12527719
4	0xbe28642a	-0.1644446
5	0xbdbf90c5	-0.093537845
6	0xbe0c15e8	-0.13680232
7	0xbe11b167	-0.1422783
8	0xbda4b8a5	-0.08043031
9	0x3e0777ab	0.13229243
10	0x3e307e53	0.17235689
11	0xbe002340	-0.12513447
12	0x3d8ed4ee	0.06974207
13	0xbdd3a636	-0.103344366
14	0xbdfa36a3	-0.122174524
15	0x3d0d5b6c	0.034511015
16	0x3d96991a	0.073534206
17	0xbd9b26cb	-0.075757585
18	0xbe22dc6b	-0.15904395
19	0x3d7de340	0.0619843
20	0xbe117240	-0.14203739
21	0xbccb6480	-0.024828196
22	0xbc91a6d8	-0.017779753
23	0xbe2459ac	-0.16049832
24	0xbd9b31db	-0.075778686
25	0x3e17ad53	0.14812212
26	0x3d44a9d4	0.048013523
27	0x3d92521e	0.07144569
28	0x3dd0162a	0.101604775
29	0xbe2da5e3	-0.16957812
30	0x3d109b40	0.035304308
31	0xbe1691b7	-0.14704023
32	0x3e04c47d	0.1296558
33	0xbe109a99	-0.14121474
34	0x3d8cc2e2	0.068731084
35	0x3dcb9dde	0.0994222
36	0xbe2d85a4	-0.16945511
37	0x3dc6573e	0.09684609
38	0xbd99f191	-0.07516778
39	0xbda28a07	-0.07936483
40	0x3e2837f3	0.16427593
41	0xbd9e613d	-0.077333905
42	0x3e2e9f8b	0.17053048
43	0x3e046593	0.12929372
44	0xbd8d7bd8	-0.06908387
45	0x3e236b49	0.15958895
46	0xbde5c8f9	-0.11219973
47	0x3e26a549	0.16273989
48	0x3e129db9	0.14317979
49	0xbd72a1c8	-0.059236318
50	0x3dc5168a	0.096234396
51	0xbda9bd1d	-0.082880236
52	0xbe03a6a6	-0.1285654
53	0x3d43563c	0.04768966
54	0x3c4b4c60	0.012408346
55	0xbdc0f727	-0.094221406
56	0x3d77336c	0.060351774
57	0xbdc08fb7	-0.094024114
58	0xbe31ca42	-0.17362311
59	0x3dae7fee	0.085204944
60	0x3cf3bdb8	0.02975355
61	0x3dfca1a2	0.123355165
62	0x3e052a43	0.13004403
63	0x3da2b1b2	0.07944049
64	0x3c904170	0.017609328
65	0x3e108155	0.14111836
66	0xbd89335d	-0.0669925
67	0xbd804d63	-0.0626476
68	0xbcd6edf0	-0.026236504
69	0xbe293bb5	-0.16526683
70	0xbcf81de8	-0.030287698
71	0xbe130132	-0.14355925
72	0x3ca5e928	0.02025278
73	0x3e312831	0.17300488
74	0x3d3c9c18	0.0460473
75	0x3e1d509b	0.1536278
76	0xbdd28bfa	-0.10280605
77	0x3e14a401	0.14515688
78	0xbe05f14c	-0.13080329
79	0x3e27a1d3	0.16370325
80	0xbdc0f2bc	-0.09421298
81	0xbe2600ca	-0.16211239
82	0x3df5080e	0.11964427
83	0xbccc4340	-0.024934411
84	0xbd1cb810	-0.038261473
85	0xbdcb42c3	-0.09924843
86	0x3dc96072	0.098328486
87	0x3d0d5150	0.034501374
88	0x3e2ef67b	0.17086212
89	0xbe1253a6	-0.14289722
90	0xbe02da9c	-0.12778705
91	0x3d1d7da8	0.038449913
92	0xbe19ee70	-0.15032363
93	0xbd56a0d4	-0.05239947
94	0x3ce420a0	0.027847588
95	0xbce7d5d0	-0.028300196
96	0xbca4bc60	-0.020109355
97	0xbd0d440b	-0.03448872
98	0x3e0743a1	0.13209392
99	0xbe151685	-0.14559372
100	0x3e1d4a74	0.15360433
101	0x3d369765	0.044577975
102	0x3e066ffe	0.13128659
103	0x3de7b86e	0.11314474
104	0x3d199990	0.037499964
105	0x3d880f3e	0.06643532
106	0xbe26a41b	-0.16273539
107	0x3c5d9e43	0.013526502
108	0x3e0fcc5f	0.14042805
109	0x3def988d	0.116990186
110	0xbdb42f3f	-0.08798074
111	0xbc9c6998	-0.01909332
112	0xbc2d549c	-0.0105792545
113	0xbe278979	-0.16361035
114	0xbe32e5d2	-0.17470482
115	0x3a35172e	0.0006908056
116	0xbdda971d	-0.10673354
117	0xbe1b5444	-0.15168864
118	0xbe0a6e68	-0.13518679
119	0xbd35ae98	-0.04435596
120	0xbc72816b	-0.014801363
121	0x3e06ecfc	0.1317634
122	0x3e1c8fd5	0.15289243
123	0xbd94e479	-0.0727014
124	0xbd5ddc7a	-0.05416534
125	0xbd9c15c7	-0.07621341
126	0xbdfc036e	-0.12305342
127	0xbddbf0c8	-0.10739285
128	0xbdc0ff76	-0.09423725
129	0x3ddfdebc	0.10931155
130	0xbe066a01	-0.13126375
131	0xbe22ef9e	-0.15911719
132	0x3c39e7e2	0.011346789
133	0xbdb04ddb	-0.086086
134	0x3d5cf3f9	0.053943608
135	0xbdd91c21	-0.10601068
136	0xbdce39bf	-0.10069608
137	0x3db22de5	0.0870016
138	0xbe005cac	-0.12535352
139	0xbdfad302	-0.12247278
140	0xbdc4a980	-0.09602642
141	0xbd43a26f	-0.04776233
142	0xbd7f7558	-0.062367767
143	0x3ce1f8f0	0.027584523
144	0x3ddeda64	0.108814985
145	0x3d1c2f71	0.03813118
146	0xbc0b0db8	-0.0084871575
147	0xbdb59ab4	-0.08867398
148	0x3d7a552c	0.061116382
149	0xbe20c13d	-0.15698715
150	0x3cf908ca	0.030399699
151	0xbd1b1528	-0.037861973
152	0x3e065c6e	0.13121197
153	0x3df07c58	0.11742467
154	0x3dc1e856	0.09468143
155	0xbd8dd2e6	-0.06924991
156	0x3c936468	0.017992213
157	0x3ddbad84	0.10726455
158	0x3d51dfe4	0.05123891
159	0xbc90aae8	-0.01765962
160	0xbd9a70f2	-0.07541074
161	0x3e1fda78	0.15610683
162	0x3cc36ce0	0.023855627
163	0x3db0a49a	0.08625145
164	0x3e270234	0.16309434
165	0x3e1b5a0a	0.15171066
166	0xbdbec44e	-0.09314786
167	0x3d4df758	0.050284714
168	0xbe27a650	-0.16372037
169	0xbdfc58b9	-0.1232161
170	0x3e20f9d5	0.15720303
171	0xbdcbadcf	-0.09945261
172	0xbc89000a	-0.016723651
173	0xbe2b32c5	-0.16718586
174	0xbdcbae57	-0.09945362
175	0xbdd4be94	-0.103879124
176	0x3e2ffa1a	0.1718525
177	0xbd1a3a5d	-0.037653316
178	0xbe091002	-0.13385013
179	0xbdc30efe	-0.09524344
180	0xbdfee93d	-0.124468304
181	0x3e084782	0.13308528
182	0xbd366255	-0.04452737
183	0xba1f0f00	-0.0006067604
184	0x3d3ef3a3	0.04661907
185	0xbe2c80af	-0.16845964
186	0x3cafeef0	0.021476239
187	0xbd90cbd1	-0.07070125
188	0xbe23a47c	-0.15980715
189	0x3e27d4ca	0.16389766
190	0xbbfc5b40	-0.0077013075
191	0x3dece5a6	0.115672395
192	0xbe07d38d	-0.13264294
193	0x3a565600	0.0008176267
194	0xbc9bb420	-0.019006789
195	0xbdb4f543	-0.088358425
196	0xbc6a52a0	-0.014301926
197	0x3e2aa9fb	0.16666405
198	0x3e2a1da9	0.16612877
199	0xbca7a7d8	-0.020465776
200	0xbda642d0	-0.08118212
201	0xbd8bcea9	-0.06826527
202	0xbdd88510	-0.10572255
203	0xbe3373f1	-0.17524697
204	0x3deebe6a	0.11657412
205	0x3e007a3b	0.12546627
206	0xbd83ddb8	-0.06438774
207	0x3d7589a8	0.059945732
208	0xbb900340	-0.0043949187
209	0xbe20cf14	-0.15703994
210	0x3d0a228c	0.033724353
211	0xbdbebf26	-0.093138024
212	0xbcca25c8	-0.024676219
213	0xbcb11c58	-0.02161996
214	0xbdc8f059	-0.09811468
215	0xbd860e77	-0.06545728
216	0xbcb588a8	-0.02215989
217	0x3d0177c8	0.031608373
218	0x3e10badf	0.14133786
219	0x3d658d48	0.05604294
220	0xbd1abdac	-0.03777854
221	0xbdd6b281	-0.10483266
222	0xbe019e08	-0.1265794
223	0x3d89f6a8	0.06736499
224	0xbc3d40d0	-0.011551097
225	0xbd6c9c13	-0.05776603
226	0x3d9f693a	0.07783742
227	0xbdc9afe9	-0.09848005
228	0xbda0e972	-0.07857026
229	0x3dd02ffe	0.10165404
230	0x3dcde300	0.100530624
231	0xbe10de64	-0.14147335
232	0xbda5619b	-0.080752574
233	0xbbf561ee	-0.007488481
234	0xbd00d950	-0.031457245
235	0x3e0062fa	0.12537757
236	0xbe0cab60	-0.1373725
237	0x3d30c199	0.04315338
238	0x3e14eb69	0.14542927
239	0x3dc68a1a	0.096943095
240	0xbe242f62	-0.160337
241	0xb9b1978c	-0.00033872982
242	0x3d92052b	0.07129892
243	0xbcead4ce	-0.028665926
244	0x3d086c28	0.03330627
245	0xbd06f80b	-0.032951396
246	0xbd5e72f7	-0.054308858
247	0xbe24fba0	-0.16111612
248	0x3e250b18	0.16117513
249	0x3dda345c	0.10654518
250	0xbd2f80a8	-0.042847306
251	0x3d8347b4	0.06410161
252	0x3dc8552e	0.09781872
253	0xbda4b316	-0.080419704
254	0x3def500e	0.11685191
255	0x3da55fee	0.08074938

fc3.bias f4 [32]
0	0xbd911471	-0.07083977
1	0x3d32faec	0.04369633
2	0x3d337814	0.043815687
3	0xbd3e3fe3	-0.046447646
4	0x3d8982ca	0.06714399
5	0xbcb630c9	-0.02224006
6	0x3d291348	0.041278154
7	0x3e251c3a	0.16124049
8	0x3d94309c	0.07235834
9	0x3d30dfc9	0.04318217
10	0x3e1e8dc0	0.15483761
11	0xbd281878	-0.04103896
12	0x3e2c9829	0.1685492
13	0xbd4c74a4	-0.049915925
14	0x3d167211	0.036729876
15	0xbdf18c5a	-0.11794348
16	0x3cceb088	0.025230661
17	0x3d0afa6f	0.03393024
18	0xbd6faa1b	-0.058511835
19	0xbdbfbcc9	-0.0936218
20	0x3d8ead36	0.06966631
21	0x3ca88317	0.020570321
22	0x3dbe0716	0.09278695
23	0x3dfab27c	0.122410744
24	0x3d9a1608	0.075237334
25	0x3e23d69c	0.15999836
26	0xbe3214a7	-0.1739069
27	0x3dba1dd4	0.090877205
28	0xbd873dd9	-0.066035934
29	0x3d9ef498	0.07761496
30	0x3e0e9db3	0.13927345
31	0xb89c7930	-7.4612326e-05

fc4.weight f4 [8, 32]
0	0xbdd50312	-0.10400976
1	0xbe165c3c	-0.14683622
2	0xbe2ce808	-0.16885388
3	0x3d6fbffb	0.058532696
4	0xbc197362	-0.009365888
5	0xbc4b46b2	-0.012406992
6	0x3de752ae	0.11295067
7	0x3e1cd7c4	0.15316683
8	0xbdba943b	-0.09110304
9	0x3d7398eb	0.059472006
10	0xbd4fc37d	-0.05072354
11	0x3dedbdfe	0.11608504
12	0x3d8da99e	0.069171175
13	0x3cd21e98	0.025649354
14	0x3c761ace	0.015021039
15	0xbe1f0848	-0.15530503
16	0x3db8eb4a	0.09029253
17	0x3e088dda	0.13335362
18	0xbdd63b00	-0.10460472
19	0xbd34f70d	-0.04418092
20	0xbe14e55e	-0.14540622
21	0x3b3ab8b6	0.0028491444
22	0x3dbed43a	0.09317823
23	0x3d3cc3fb	0.04608534
24	0xbdd319d3	-0.1030766
25	0x3db78930	0.08961713
26	0x3d94b88e	0.072617635
27	0x3ddf36ac	0.108991
28	0x3e1ec179	0.15503491
29	0xbe0ebcbe	-0.13939187
30	0x3e2342bd	0.15943427
31	0x3e08ef60	0.13372564
32	0x3d876eba	0.06612916
33	0x3e032b71	0.1280954
34	0xbb47f800	-0.003051281
35	0xbc860a5a	-0.016362358
36	0x3c3bbdce	0.011458827
37	0x3d84587c	0.064621896
38	0xbd11afec	-0.035568163
39	0xbdcd73c5	-0.10031847
40	0xbddfb23b	-0.10922667
41	0xbd5c206f	-0.05374187
42	0x3dc61144	0.09671262
43	0xbe24b9e6	-0.1608654
44	0xbe309e60	-0.17247915
45	0x3cda4c80	0.026647806
46	0xbda2dd41	-0.07952357
47	0x3e12cb23	0.14335303
48	0x3cff7900	0.031185627
49	0xbdf284c4	-0.11841729
50	0x3e30a692	0.17251042
51	0x3cc5ce8f	0.024146346
52	0x3d4e683b	0.05039237
53	0x3e108d5c	0.14116424
54	0x3d246aa8	0.040140778
55	0x3df88bdc	0.12136051
56	0xbde3172e	-0.110884055
57	0xbe336610	-0.17519403
58	0x3c82dad8	0.015973493
59	0x3de502f0	0.11182201
60	0xbda09a94	-0.078419834
61	0x3db1306c	0.08651814
62	0xbc7a1bc0	-0.015265405
63	0x3db13bbc	0.086539716
64	0x3de6dd26	0.112726495
65	0xbdcc03b6	-0.09961645
66	0x3da43ace	0.080190286
67	0x3d97f91d	0.074205615
68	0xbe1deba4	-0.15421921
69	0xbdb6ccd5	-0.08925787
70	0x3e1d4ff5	0.15362532
71	0x3d9976f8	0.074933946
72	0xbe089ecf	-0.1334183
73	0xbd969e52	-0.07354416
74	0x3d84d9d4	0.0648686
75	0x3dc1314a	0.09433229
76	0x3d8d9b24	0.06914356
77	0xbd3a1bec	-0.045436785
78	0x3df72e68	0.12069398
79	0x3d0c704c	0.034286782
80	0x3c937078	0.017997965
81	0xbe0cf01e	-0.13763472
82	0xbc06b2f2	-0.008221375
83	0x3d8cdde8	0.06878263
84	0x3ddc5a2c	0.107593864
85	0x3df2119c	0.11819765
86	0xbcde1358	-0.027108833
87	0x3e1ee0f6	0.15515503
88	0xbdd4640b	-0.10370644
89	0x3e0d04c4	0.13771349
90	0x3de0b1da	0.109714225
91	0xbe0c5f61	-0.13708259
92	0xbd2c5098	-0.042069048
93	0xbd951bff	-0.072807305
94	0xbe058d36	-0.13042149
95	0x3daaefb0	0.08346498
96	0x3ba38240	0.0049898922
97	0xbdcdf3a9	-0.1005624
98	0xbd98e11f	-0.074648134
99	0x3d05a853	0.03263123
100	0xbe23f615	-0.16011842
101	0xbdb1987a	-0.08671661
102	0xbcb51588	-0.022104993
103	0xbc8d4441	-0.01724446
104	0x3b7fabb7	0.0039012262
105	0xbb4b938a	-0.0031063282
106	0x3ca3cdff	0.019995688
107	0xbe095c11	-0.13414027
108	0xbe08bf77	-0.13354288
109	0xbe0bb54d	-0.1364338
110	0x3e2638ca	0.16232601
111	0xbe02d69a	-0.12777176
112	0x3d903b4e	0.070425615
113	0x3cf795c7	0.030222787
114	0x3a1056da	0.0005506106
115	0xbd9a8f62	-0.07546879
116	0xbcb3fc19	-0.021970795
117	0x3d909f98	0.0706169
118	0x3ba09f80	0.0049018264
119	0xbe000dc7	-0.12505256
120	0xbe0ff517	-0.14058338
121	0xbe2a5476	-0.16633782
122	0xbd882a88	-0.06648737
123	0x3dfb7758	0.122786224
124	0x3c68bd30	0.014205262
125	0xbddf6276	-0.10907452
126	0x3d34a768	0.044104964
127	0x3e2d83fc	0.1694488
128	0x3d5643b0	0.052310646
129	0x3d56bf80	0.052428722
130	0xbe183381	-0.14863397
131	0xbda21f38	-0.07916111
132	0x3d7b268b	0.061316054
133	0x3d8319de	0.06401418
134	0xbe3200d9	-0.17383136
135	0xbdfcc6e6	-0.12342624
136	0x3d735ca7	0.059414532
137	0x3ca4b777	0.020107014
138	0x3c06e11e	0.008232383
139	0x3e29daf7	0.16587435
140	0xbe22cc33	-0.15898208
141	0xbb734440	-0.0037119538
142	0xbe2e4aa0	-0.17020655
143	0xbe09dc66	-0.13462982
144	0x3da58fde	0.08084081
145	0x3e012e6a	0.12615362
146	0x3d41e717	0.047339525
147	0x3d3f79cf	0.046747025
148	0x3d5245eb	0.05133621
149	0x3df813b8	0.12113136
150	0xbe00bf9b	-0.12573092
151	0x3d24ddaf	0.040250476
152	0x3cf1fa97	0.029538436
153	0xbd5772f3	-0.05259986
154	0x3d39c2a0	0.045351624
155	0x3daf731c	0.08566877
156	0xbc287550	-0.010281876
157	0x3ce072d7	0.02739851
158	0xbdb49617	-0.0881769
159	0x3d32d8af	0.043663677
160	0x3cad6088	0.021164194
161	0xbddbd09b	-0.10733148
162	0xbc451820	-0.012029678
163	0x3e2e6de5	0.17034109
164	0xbc5db7d0	-0.013532594
165	0x3e1cd55f	0.1531577
166	0x3df623de	0.1201856
167	0xbd55c13a	-0.05218623
168	0x3d2ac738	0.041693896
169	0xbd939d7d	-0.07207773
170	0x3e23b50d	0.15987034
171	0x3d8a1250	0.06741774
172	0xbe0f5b72	-0.13999727
173	0x3e32c093	0.17456274
174	0x3d948592	0.07252039
175	0x3d83f286	0.06442742
176	0xbc7c18f0	-0.015386805
177	0x3c815670	0.015788287
178	0xbd78f61e	-0.06078159
179	0xbc8eeab0	-0.017445892
180	0xbde7817b	-0.11303993
181	0xbd9a69d8	-0.07539719
182	0x3ddcc2ee	0.107793674
183	0xbc925360	-0.017862022
184	0x3d248604	0.04016687
185	0xbba3c6a0	-0.004998043
186	0x3e0c26cf	0.1368668
187	0xbc20a700	-0.009805441
188	0xbe0dd0b5	-0.13849147
189	0xbd6b4f98	-0.057448953
190	0x3e05feef	0.1308553
191	0x3d7b096c	0.061288282
192	0xbdb8c98e	-0.090228185
193	0x3e116aa1	0.14200832
194	0xbe128baa	-0.1431109
195	0xbddd9f36	-0.10821383
196	0x3dca5a73	0.09880533
197	0xbd8ae071	-0.0678109
198	0x3e15e7bb	0.1463918
199	0x3e2febba	0.17179766
200	0xbdcdf7fd	-0.10057066
201	0x3d611c63	0.054958712
202	0x3e15f762	0.1464515
203	0x3dc58b36	0.09645693
204	0xbd96799c	-0.07347414
205	0x3ccc7bf8	0.024961457
206	0xbd815c89	-0.06316478
207	0xbdaf90cd	-0.085725404
208	0xbd1abb60	-0.03777635
209	0x3e326920	0.17422915
210	0x3e089ad6	0.13340315
211	0x3e241004	0.16021734
212	0xbe0c93f9	-0.13728322
213	0xbdf1ad5f	-0.11800646
214	0x3c1d67d0	0.00960727
215	0x3e342e74	0.17595845
216	0x3e327f70	0.17431426
217	0xbbb9a545	-0.0056654536
218	0x3e27359f	0.16329049
219	0xbd0dd4bd	-0.03462671
220	0xbe20e534	-0.15712434
221	0x3dadde50	0.08489668
222	0xbdb7974a	-0.08964403
223	0xbdf8e1f6	-0.12152474
224	0xbc558310	-0.013031736
225	0xbce13d08	-0.027494922
226	0x3de8b1d2	0.113620415
227	0x3dc266c1	0.09492255
228	0xbdd4319d	-0.103610255
229	0xbe30f6bb	-0.1728162
230	0xbd19fa04	-0.03759195
231	0xbd1e634b	-0.038668912
232	0x3e164f70	0.1467874
233	0x3ca7ce89	0.020484226
234	0xbe04b362	-0.12959054
235	0x3c874730	0.016513437
236	0xbd138d84	-0.03602363
237	0xbdb0a0cb	-0.08624419
238	0x3e329d24	0.17442757
239	0xbda17a48	-0.078846514
240	0x3e1d011b	0.15332453
241	0x3d1180c1	0.03552318
242	0x3dd9f0dc	0.106416434
243	0xbdf1f149	-0.118135996
244	0x3e126d0e	0.14299414
245	0x3e05ebf6	0.13078293
246	0xbd93a730	-0.07209623
247	0x3cfdc641	0.030978324
248	0xbbf5fabc	-0.0075066965
249	0x3e199ffa	0.15002432
250	0xbda8eb7b	-0.08248039
251	0xbdc7c9be	-0.09755276
252	0xbccf3f10	-0.025298625
253	0xbcd7af5f	-0.02632874
254	0x3d17a474	0.03702207
255	0x3dae9a74	0.08525553

fc4.bias f4 [8]
0	0xbdcf383b	-0.10118147
1	0x3e0c727c	0.13715547
2	0xbd5db8e5	-0.054131407
3	0xbe1d332d	-0.15351553
4	0xbd795227	-0.060869362
5	0x3df61d8a	0.12017353
6	0x3d8e16e6	0.06937961
7	0xbe28de5e	-0.16491076
