final-project-agar/store/nets/dsarsa_model.pt (torch, 13007 bytes, 8 tensors)

fc1.weight f4 [32, 9]
0	0xbe9f35e8	-0.31095815
1	0xbd1d3758	-0.038382858
2	0x3e8e701b	0.27819905
3	0xbc915390	-0.017740041
4	0xbe038928	-0.1284529
5	0x3e60cfee	0.21954319
6	0x3e54f402	0.20796207
7	0xbe65a298	-0.22425306
8	0x3e9f4d7d	0.31113806
9	0x3e8b8b93	0.27254924
10	0x3ea98f79	0.33117273
11	0xbd36f5e5	-0.044668097
12	0xbd92a4c3	-0.07160332
13	0xbe9432b8	-0.28944945
14	0xbe6f771e	-0.23385283
15	0x3ded337d	0.11582086
16	0x3dd10086	0.10205178
17	0xbe00ece1	-0.12590362
18	0x3e5c87d1	0.21536185
19	0x3ea9ee9b	0.33189854
20	0x3e4bae41	0.19890691
21	0x3d76b4ad	0.0602309
22	0x3e1d3869	0.1535355
23	0xbe96a1cc	-0.29420316
24	0xbe0ee108	-0.1395303
25	0x3ea22a21	0.31672767
26	0xbe92effa	-0.28698713
27	0x3e6c2bad	0.23063536
28	0xbe3f5f73	-0.18688755
29	0x3e928f53	0.28624973
30	0x3be69b2b	0.0070375404
31	0x3e30dde5	0.17272146
32	0xbdaf6815	-0.08564774
33	0x3e0e78a1	0.13913204
34	0xbe97771c	-0.2958306
35	0x3e66ef1d	0.22552152
36	0x3e5f01cd	0.2177803
37	0xbd1c3f9b	-0.038146596
38	0x3e28b5c1	0.16475584
39	0x3bbeec28	0.005826492
40	0xbe8f4c72	-0.2798801
41	0x3e642169	0.2227837
42	0x3d108f6e	0.035293035
43	0xbe950dba	-0.29112035
44	0xbe3f4678	-0.18679225
45	0x3c71986e	0.014745815
46	0xbdf348fc	-0.11879155
47	0xbe0cc199	-0.13745727
48	0xbe9917f1	-0.29901078
49	0x3e8b962b	0.27263007
50	0x3ea4ba97	0.32173607
51	0x3dbf2f5b	0.09335204
52	0xbcb103da	-0.021608282
53	0xbd881a2a	-0.066456154
54	0xbea174af	-0.31534335
55	0xbd890ce0	-0.06691909
56	0xbe1cc318	-0.15308797
57	0xbea0dcef	-0.3141856
58	0x3e9ae69d	0.3025407
59	0x3d3fd620	0.046835065
60	0x3d72df40	0.05929494
61	0xbe9df86e	-0.308536
62	0xbe0de0a6	-0.13855228
63	0xbdd8dcc6	-0.10588984
64	0x3e34e402	0.17665103
65	0x3e3b1456	0.18269476
66	0x3e674ed2	0.22588661
67	0xbe61c9b8	-0.22049606
68	0x3c070900	0.008241892
69	0xbd402cf8	-0.046917886
70	0xbe07a83e	-0.13247773
71	0x3e2254d2	0.15852669
72	0xbe95843f	-0.29202458
73	0xbbea7bc0	-0.0071558654
74	0xbce39ec0	-0.027785659
75	0xbd9285a4	-0.07154396
76	0xbe728b5b	-0.23685972
77	0x3e7c8f3a	0.24664012
78	0x3d8c3750	0.068464875
79	0xbe77063e	-0.24123475
80	0x3d5bede0	0.053693652
81	0xbea08fff	-0.3135986
82	0x3d890274	0.06689921
83	0x3cf23690	0.029567033
84	0x3e268ae8	0.16263926
85	0x3e621caa	0.22081247
86	0xbe98b63c	-0.29826534
87	0xbe04b3b6	-0.1295918
88	0x3c8fd6d0	0.017558485
89	0x3e1ff4d8	0.15620744
90	0xbe231a60	-0.1592803
91	0xbe9046a3	-0.28178892
92	0xbe5e9318	-0.217358
93	0x3e3bd6fa	0.18343726
94	0x3e86d2e1	0.26332763
95	0xbe9f3070	-0.31091642
96	0x3e9939bd	0.29926863
97	0x3e82b5bd	0.2552928
98	0xbd94c9e4	-0.0726507
99	0xbea905fa	-0.33012372
100	0xbe1dd978	-0.15414989
101	0xbe110330	-0.14161372
102	0x3dff1330	0.124548316
103	0x3db03394	0.08603588
104	0x3e3e915a	0.18610135
105	0xbe40384b	-0.18771474
106	0xbe92ed5e	-0.28696722
107	0xbe9dc8db	-0.30817303
108	0xbe803418	-0.25039744
109	0xbe5571c6	-0.20844182
110	0xbe269550	-0.16267896
111	0xbdfd21bc	-0.1235995
112	0xbe40a4ab	-0.18812816
113	0xbe88fb73	-0.2675434
114	0x3dce8da0	0.100856066
115	0x3e8a8703	0.2705613
116	0x3e6d0c1a	0.23149148
117	0xbe6bbe36	-0.23021778
118	0x3c051480	0.008122563
119	0xbea3d553	-0.3199869
120	0x3ea08fc9	0.313597
121	0xbda1c3a0	-0.07898641
122	0x3c540120	0.012939721
123	0xbea02d28	-0.3128445
124	0xba817900	-0.000987798
125	0xbe3f3a6b	-0.18674628
126	0x3e486f51	0.19573714
127	0x3e001709	0.12508787
128	0xbe7b6d40	-0.24553394
129	0xbdd3d28a	-0.103428915
130	0xbda1311e	-0.078706965
131	0x3d772ae5	0.06034364
132	0x3ea62cd3	0.32456073
133	0xbd41dbab	-0.047328632
134	0x3e92faff	0.2870712
135	0x3dacae12	0.08431639
136	0xbc3e382b	-0.011610071
137	0x3ea12bb9	0.3147867
138	0xbd997759	-0.07493467
139	0x3e0f55ed	0.13997622
140	0xbe2aa7ab	-0.16665523
141	0x3cd6faeb	0.026242694
142	0x3e9ecb7f	0.3101463
143	0xbcd310f5	-0.025764922
144	0x3e416bc5	0.18888767
145	0xbe3d090b	-0.18460481
146	0xbdf72f1a	-0.12069531
147	0xbdaf6476	-0.08564083
148	0xbdb14a9a	-0.08656807
149	0xbe63e6ed	-0.2225606
150	0xbe840134	-0.25782168
151	0xbe07c46b	-0.13258521
152	0xbd9e666a	-0.07734378
153	0x3cb84877	0.022495491
154	0xbe1bca0e	-0.15213796
155	0xbe34df2a	-0.17663255
156	0x3d21dc8a	0.039516963
157	0xbe7268c4	-0.23672777
158	0xbe77d209	-0.24201216
159	0xbcb15a88	-0.021649614
160	0xbd342ce5	-0.043988127
161	0xbe77ea5e	-0.24210498
162	0x3e906497	0.28201744
163	0xbe8213ca	-0.25405723
164	0xbdf759d0	-0.12077677
165	0x3de523c2	0.11188461
166	0x3e2ddba1	0.16978313
167	0x3e90c6a5	0.28276554
168	0x3e8cb59d	0.2748231
169	0x3e863529	0.26212433
170	0x3e8ce69f	0.275197
171	0xbdda34f0	-0.10654628
172	0x3e86bd13	0.26316127
173	0xbc5ffee0	-0.013671607
174	0x3e8dc07d	0.2768592
175	0xbe85382c	-0.26019418
176	0x3e9b965d	0.30388156
177	0xbdf2aa26	-0.118488595
178	0xbe8f30b8	-0.27966857
179	0xbe241df6	-0.16027054
180	0xbdc88590	-0.097911
181	0xbdb24250	-0.08704054
182	0x3d099418	0.0335885
183	0x3e4cfd66	0.20018539
184	0xbe8f2ed8	-0.27965426
185	0xbded66b0	-0.11591852
186	0xbb988300	-0.0046542883
187	0xbded4980	-0.11586285
188	0xbe141de0	-0.14464521
189	0x3ea875b7	0.3290231
190	0x3dce574d	0.10075245
191	0xbea5f2ad	-0.3241171
192	0xbdb2e95c	-0.08735916
193	0xbcbf9210	-0.023385078
194	0x3e9983c6	0.29983348
195	0x3e53d2d9	0.20685901
196	0xbe96b3ce	-0.29434055
197	0x3e18021b	0.14844553
198	0x3e7fd239	0.24982537
199	0x3d0569ad	0.032571483
200	0xbe2d975d	-0.16952272
201	0xbe5f9fbb	-0.21838276
202	0x3d8c2813	0.06843581
203	0x3d148125	0.036255974
204	0xbe35f510	-0.17769265
205	0x3e3d1461	0.18464805
206	0xbe1a8055	-0.15088017
207	0x3e8f22d7	0.27956268
208	0xbddde720	-0.10835099
209	0xbdbf702a	-0.093475655
210	0x3e550079	0.20800962
211	0xbe8d20ec	-0.2756418
212	0xbe1fd0f0	-0.15607047
213	0x3d6798cd	0.056542207
214	0xbe1f5df5	-0.15563186
215	0xbea42931	-0.32062677
216	0xbe9b1c63	-0.30295095
217	0x3d8eae80	0.06966877
218	0xbe7ee786	-0.24893007
219	0x3e473cda	0.19456807
220	0x3e4b0252	0.19825104
221	0x3bb38840	0.0054788888
222	0xbd8bf7b0	-0.06834352
223	0xbe56c033	-0.20971756
224	0xbdc2b160	-0.09506488
225	0x3e34491f	0.17606018
226	0xbe10c4cb	-0.1413757
227	0xbe2572a9	-0.1615702
228	0xbe757f73	-0.239744
229	0x3c6ea5cd	0.014565897
230	0xbcfee71a	-0.031116057
231	0xbe9cb7fd	-0.30609122
232	0xbe9ba32c	-0.30397928
233	0x3dca09f6	0.09865181
234	0x3e015643	0.12630562
235	0xbc48932d	-0.012242121
236	0xbea8d151	-0.32972196
237	0x3ea51271	0.32240632
238	0x3e2a5da1	0.16637279
239	0x3e57f2b9	0.21088685
240	0x3e05ca19	0.13065375
241	0x3ea7fc01	0.3280945
242	0x3e9988bf	0.2998714
243	0xbb22b336	-0.0024826056
244	0x3d82a837	0.06379741
245	0xbce367f6	-0.027759533
246	0xbdf068d9	-0.11738748
247	0x3deb5a7a	0.114918664
248	0x3e85fe2f	0.2617049
249	0x3cb88411	0.022523912
250	0xbcabce69	-0.020972447
251	0x3ea99b37	0.33126232
252	0x3d37bc5b	0.044857364
253	0xbd15e395	-0.036593992
254	0xbe133149	-0.1437427
255	0xbd835a27	-0.064136796

fc1.bias f4 [32]
0	0xbd92efa4	-0.07174614
1	0x3e63668f	0.22207092
2	0xbd03bd4b	-0.032162946
3	0xbc93f0e6	-0.018059205
4	0x3e6440b5	0.22290309
5	0x3e5679c7	0.20944892
6	0x3e9178df	0.2841253
7	0x3e596c62	0.21232751
8	0xbdc0ae7c	-0.0940828
9	0xbe0b5c33	-0.1360939
10	0x3dafee74	0.08590403
11	0x3d0228b8	0.031777114
12	0xbe2d31fe	-0.16913602
13	0xbe3ca323	-0.18421607
14	0xbe1e6138	-0.15466774
15	0x3e89ec85	0.26938263
16	0x3c5481d3	0.012970406
17	0x3e0a973d	0.13534255
18	0xbe2b5d1b	-0.16734736
19	0xbd0428c8	-0.032265455
20	0x3e8df6f9	0.27727488
21	0xbe36093e	-0.17776963
22	0xbe1d9155	-0.15387471
23	0x3ea15227	0.3150799
24	0x3e731a22	0.23740438
25	0x3d46651b	0.048436265
26	0x3ea7e361	0.32790664
27	0x3e6cb7c1	0.23116972
28	0x3e901d53	0.28147373
29	0x3e5e9d29	0.2173964
30	0xbea2ae4e	-0.3177361
31	0xbe6b0be0	-0.22953749

fc2.weight f4 [32, 32]
0	0x3d2f07b4	0.042731956
1	0xbbdf97e4	-0.0068235267
2	0x3d73385b	0.059379917
3	0xbd86579b	-0.06559678
4	0xbde24e98	-0.11050147
5	0xbc3b4bd3	-0.011431652
6	0x3d870be8	0.06594068
7	0x3db52cae	0.088464126
8	0x3e32fd3f	0.17479418
9	0xbc67a8c0	-0.014139354
10	0xbd41a550	-0.047276795
11	0x3d909cf0	0.070611835
12	0x3d613780	0.05498457
13	0xbe048392	-0.12940815
14	0xbd3c7cd9	-0.0460175
15	0xbd7725e1	-0.06033886
16	0x3ccde39f	0.025132952
17	0x3e12a694	0.14321357
18	0x3d1376fb	0.03600214
19	0xbdb6bba2	-0.08922507
20	0x3cf00bf8	0.029302582
21	0x3d2654af	0.040608104
22	0xbba2ee45	-0.0049722516
23	0x3e2c424c	0.16822165
24	0x3e2f2581	0.1710415
25	0x3dc1f25c	0.094700545
26	0x3daa8db0	0.08327806
27	0xbda721f5	-0.08160774
28	0x3e321e00	0.17394257
29	0x3d8f88ce	0.07008515
30	0xbb0bb640	-0.0021318346
31	0xbcc691e0	-0.02423948
32	0x3da595ee	0.080852374
33	0xbd71fea9	-0.059080753
34	0x3df8adf0	0.12142551
35	0xbd1b669b	-0.03793965
36	0x3dcdf640	0.10056734
37	0xbe1b62e2	-0.1517444
38	0xbe084f50	-0.13311505
39	0x3e1359d1	0.14389731
40	0xbde14083	-0.10998633
41	0xbde9c6fa	-0.11414905
42	0xbdc59956	-0.09648387
43	0x3dee785a	0.11644049
44	0x3e14b0ed	0.14520617
45	0x3e11a865	0.14224394
46	0x3e2ac986	0.16678438
47	0x3df4af00	0.11947441
48	0xbde50480	-0.11182499
49	0x3e0b6b9a	0.13615265
50	0xbaba13ec	-0.0014196611
51	0x3bfa8200	0.0076448917
52	0x3dd06ad2	0.10176624
53	0x3da41dc4	0.0801349
54	0x3dc9d4b4	0.09855023
55	0x3d77a199	0.060456846
56	0x3e04c075	0.12964042
57	0x3e130eaa	0.14361063
58	0x3e0fed2a	0.14055315
59	0xbca4be75	-0.020110348
60	0xbc39250d	-0.0113003375
61	0xbdcb53e9	-0.09928114
62	0xbdfb1e23	-0.122616075
63	0xbdbb029f	-0.09131359
64	0xbb9058c0	-0.004405111
65	0xbc48f610	-0.012265697
66	0x3c8e86f0	0.017398328
67	0xbdcfc8c5	-0.101457156
68	0xbe2c4bc9	-0.16825785
69	0xbdf6ebcc	-0.120566934
70	0xbdec1985	-0.11528305
71	0xbba93c60	-0.005164668
72	0xbcf30ea8	-0.029670075
73	0xbe0e0e96	-0.13872752
74	0x3dae84fa	0.08521457
75	0x3d2de750	0.042456925
76	0xbd58fc46	-0.05297496
77	0x3d8dc5f2	0.06922521
78	0xbe26fbfb	-0.1630706
79	0xbe33ab67	-0.17545854
80	0x3c129e90	0.008948937
81	0x3b4bf400	0.0031120777
82	0xbdb5416b	-0.08850368
83	0x3e185261	0.14875175
84	0xbe1eb4bf	-0.15498637
85	0x3d81dec2	0.06341316
86	0xbc225f40	-0.009910405
87	0xbd47a3f8	-0.048740357
88	0x3c6af440	0.01434046
89	0x3dd44c7a	0.10366149
90	0xbac3f080	-0.0014948994
91	0x3d50aadc	0.050944194
92	0xbdbdea16	-0.09273164
93	0xbdb2f211	-0.08737577
94	0xbd9d315e	-0.07675432
95	0x3d39c1a4	0.045350686
96	0xbdffeda1	-0.12496496
97	0x3e17f61e	0.1483998
98	0xbde62ddc	-0.11239216
99	0x3c4f4c51	0.012652473
100	0x3da4112a	0.08011086
101	0x3e233225	0.15937097
102	0x3dcffb8a	0.10155399
103	0x3e225749	0.15853609
104	0xbc7eee50	-0.015559748
105	0x3e27fa17	0.16403995
106	0xbdfe17ba	-0.12406869
107	0x3d373520	0.0447284
108	0xbe218470	-0.15773177
109	0xbdb41510	-0.0879308
110	0x3dc8d593	0.09806361
111	0x3e191253	0.14948396
112	0xbd65f50b	-0.056141894
113	0x3d6b2c23	0.05741514
114	0xbdd3350e	-0.10312854
115	0xbd92bf83	-0.07165434
116	0x3e27f32d	0.16401358
117	0x3e166c04	0.14689642
118	0x3d792777	0.060828652
119	0xba88c5da	-0.0010434941
120	0xbd9f039e	-0.07764362
121	0x3e19f43c	0.15034574
122	0xbe22b5a7	-0.15889607
123	0x3cabd27a	0.020974386
124	0xbc8cc9df	-0.017186103
125	0xbdb47725	-0.088117875
126	0x3dfac696	0.122449085
127	0xbc8704f0	-0.016481847
128	0xbb7c5f40	-0.0038508922
129	0xbdbf1bc5	-0.093314685
130	0x3da9f590	0.082987905
131	0x3cad3f61	0.021148385
132	0x3e02d72e	0.12777397
133	0xbd9eddfa	-0.077571824
134	0x3e0ac03f	0.13549899
135	0x3e0969a9	0.13419212
136	0xbd9676ec	-0.07346901
137	0x3defb9aa	0.117053345
138	0x3da5b1ce	0.08090554
139	0xbdd26083	-0.102723144
140	0x3ced32f0	0.028954953
141	0x3df87e92	0.12133516
142	0x3d860ccc	0.065454096
143	0x3de5157c	0.111857384
144	0x3c809aa1	0.015698733
145	0xbe0f601b	-0.14001505
146	0x3d0b535d	0.03401505
147	0xbdcdc402	-0.10047151
148	0xbdd2728e	-0.10275756
149	0xbdb5add1	-0.088710435
150	0x3d5635f1	0.052297536
151	0x3d152cdd	0.036419738
152	0x3e068da7	0.13139974
153	0xbe0e79a5	-0.13913591
154	0x3da6db2c	0.081472725
155	0xbdf1bfff	-0.118041985
156	0xbcb75c9f	-0.022383032
157	0x3c87d9a9	0.01658328
158	0xbe043ade	-0.12913081
159	0xbe20c28c	-0.15699214
160	0x3de79f0a	0.11309631
161	0x3df6178e	0.120162115
162	0xbd333724	-0.043753758
163	0xbe226b70	-0.15861297
164	0xbe34bbae	-0.17649719
165	0xbda5c670	-0.080944896
166	0xbdeaf45e	-0.114723906
167	0xbd921634	-0.07133141
168	0xbd4ba864	-0.049721137
169	0xbdd6a613	-0.10480895
170	0xb9555800	-0.00020346045
171	0x3d6ee9a0	0.05832827
172	0xbdb807dc	-0.08985874
173	0xbdbcd57d	-0.09220407
174	0xbe3377d2	-0.17526177
175	0xbde57353	-0.11203637
176	0xbd9a21c9	-0.07525975
177	0x3dd1762e	0.10227619
178	0x3c977990	0.018490583
179	0xbdafb022	-0.085785165
180	0xbd34e8b4	-0.044167235
181	0x3c826068	0.01591511
182	0x3e19c219	0.15015449
183	0xbe2e5dfa	-0.17028037
184	0x3cba7e58	0.022765324
185	0xbbbad8c0	-0.005702108
186	0x3e287cb3	0.16453819
187	0x3e246849	0.16055407
188	0x3d482d04	0.048871055
189	0xbcb85148	-0.022499695
190	0xbd845768	-0.06461984
191	0x3e044b1f	0.12919281
192	0xbe3427f6	-0.17593369
193	0xbcbd6340	-0.023118615
194	0x3e0ca3b7	0.13734327
195	0xbe0e0f91	-0.13873126
196	0x3ca1cbe0	0.019750535
197	0xbd8cf24f	-0.06882154
198	0xbdcf0fb8	-0.1011042
199	0x3dd5e77e	0.10444544
200	0xbd1f8090	-0.038940966
201	0x3c32e1a0	0.010918051
202	0x3dfa59fe	0.12224196
203	0xbde4bab2	-0.11168422
204	0xbd560afc	-0.05225657
205	0xbcf06c08	-0.029348388
206	0xbe2715f7	-0.16316973
207	0x3d292008	0.041290313
208	0xbd46e3b0	-0.048556983
209	0x3cee8048	0.029113904
210	0xbd259f14	-0.04043491
211	0x3df91dae	0.12163864
212	0x3e026be9	0.12736477
213	0xbd410484	-0.047123447
214	0x3decce12	0.11562742
215	0x3cba2710	0.022723705
216	0x3e18ffdb	0.14941351
217	0xbe291bb8	-0.1651448
218	0xbe212ffa	-0.15740958
219	0xbdebd7d4	-0.11515775
220	0x3d386c9c	0.045025453
221	0xbd7fe2f2	-0.06247229
222	0xbd837a97	-0.064198665
223	0xbd52a8cc	-0.05143051
224	0x3e32988f	0.17441009
225	0x3de4353e	0.11142968
226	0xbd88a9e9	-0.06673033
227	0x3e2691e7	0.16266595
228	0xbde225e1	-0.11042381
229	0x3d8de60e	0.06928645
230	0xbd60e974	-0.05491014
231	0xbe061dae	-0.1309726
232	0xbe1168a0	-0.14200068
233	0xbc9384f0	-0.018007725
234	0xbd8f5a96	-0.069997
235	0x3d29f2f0	0.04149145
236	0x3d9751aa	0.07388623
237	0x3de95b5a	0.11394377
238	0xbdc918d5	-0.098191895
239	0xb8826800	-6.2182546e-05
240	0xbdfa55c6	-0.12223391
241	0xbd9bb4d6	-0.07602851
242	0x3e151c35	0.14561541
243	0xbdbdf01c	-0.09274313
244	0x3dcb7882	0.099350944
245	0x3c18d4d0	0.009328082
246	0xbc0052c0	-0.007832229
247	0xbd609444	-0.054828897
248	0x3e1da23f	0.15393923
249	0xbdb95527	-0.09049445
250	0xbe2113a2	-0.15730146
251	0xbe08d0d6	-0.13360915
252	0xbb191d00	-0.0023363233
253	0x3a3ea700	0.000727281
254	0xbe07cebd	-0.13262458
255	0xbdc7bd2d	-0.09752879

fc2.bias f4 [32]
0	0xbe213620	-0.15743303
1	0xbd49b9c3	-0.04924942
2	0xbd2f0338	-0.04272768
3	0x3d77f67f	0.06053781
4	0xbcd14ed6	-0.025550287
5	0x3e23ec61	0.1600814
6	0x3e11938f	0.14216445
7	0x3db4403e	0.08801316
8	0xbcf640fe	-0.030060288
9	0xbd996b4c	-0.074911684
10	0x3db0a06c	0.08624348
11	0x3aa73317	0.0012756315
12	0xbd4dbe2c	-0.05023019
13	0x3db8795c	0.090075225
14	0x3e2b5703	0.16732411
15	0xbd3cf7a7	-0.046134617
16	0xbe2cd1d6	-0.16876921
17	0x3d2f6fc0	0.042831182
18	0xbd900c04	-0.07033542
19	0x3c2c4172	0.01051365
20	0x3d8b6d74	0.06807986
21	0xbe1443c9	-0.14478983
22	0x3d4861e3	0.048921477
23	0xbe2bd141	-0.16779043
24	0x3cccdc82	0.02500749
25	0xbe2a3202	-0.16620639
26	0xbdd3fc88	-0.10350901
27	0x3e3373ef	0.17524694
28	0x3e33bba4	0.17552048
29	0xbd3c35b4	-0.045949653
30	0x3d6e8d9b	0.058240514
31	0xbd003d8f	-0.031308707

fc3.weight f4 [32, 32]
0	0x3d454308	0.04815963
1	0x3dee8be2	0.11647774
2	0x3e1daa5f	0.15397023
3	0x3dd634a6	0.10459261
4	0xbd53eec0	-0.05174136
5	0xbc0a33c0	-0.00843519
6	0x3c1c3b90	0.009535685
7	0xbd8dec57	-0.06929844
8	0xbd262b40	-0.04056859
9	0xbdaa6088	-0.08319193
10	0x3c6173f0	0.013760552
11	0xbe2cf3c6	-0.16889867
12	0xbe1de90c	-0.15420932
13	0xbda66eff	-0.081266396
14	0xbe0b104e	-0.13580438
15	0xbdd94844	-0.10609487
16	0x3d540794	0.05176504
17	0x3e144d47	0.14482604
18	0x3e2c4eb1	0.16826893
19	0xbd0377d0	-0.032096684
20	0x3dcd9802	0.10038759
21	0xbc97fc28	-0.018552855
22	0x3e09576b	0.13412254
23	0xbc1ce340	-0.009575665
24	0x3d367018	0.044540495
25	0x3e173d53	0.14769487
26	0x3c386660	0.011254877
27	0xbde4c117	-0.111696415
28	0xbd4bc990	-0.04975277
29	0x3d4c20a0	0.0498358
30	0xbd134d8c	-0.035962626
31	0x3ddcda3e	0.10783814
32	0xbe30a77c	-0.1725139
33	0x3e0a78a4	0.13522583
34	0xbe225d99	-0.15856017
35	0x3d6cc075	0.05780073
36	0xbe2c237e	-0.16810414
37	0x3cba3998	0.022732541
38	0xbd9fb774	-0.07798663
39	0xbccf9f00	-0.025344372
40	0x3dcfb528	0.10141975
41	0x3dbdd068	0.09268266
42	0x3dedada0	0.11605382
43	0x3d883c16	0.066520855
44	0xbda358d0	-0.07975924
45	0x3ccfdab1	0.025372835
46	0xbd2e5ad0	-0.042567074
47	0x3e016db6	0.12639508
48	0xbe2fa0c4	-0.17151171
49	0x3e0b64c5	0.1361266
50	0x3c1993d0	0.00937362
51	0xbe0b6a85	-0.13614853
52	0x3df60c72	0.120140925
53	0x3d08984d	0.03334837
54	0xbe278405	-0.16358955
55	0x3c833289	0.016015308
56	0x3dbaf980	0.091296196
57	0xbe200455	-0.15626653
58	0x3dd0b12c	0.10190043
59	0x3e2dd09b	0.16974108
60	0xbdc68abd	-0.09694431
61	0x3d7a2f90	0.061080515
62	0xbd33ceff	-0.04389858
63	0x3d6594b5	0.05605002
64	0xbd43ef20	-0.04783547
65	0xbe34b454	-0.17646915
66	0xbd91d2be	-0.07120274
67	0xbe1b7739	-0.15182199
68	0xbe178703	-0.14797597
69	0xbcf82120	-0.030289233
70	0xbd3b7804	-0.045768753
71	0xbd30dd48	-0.04317978
72	0xbe2a2486	-0.16615495
73	0xbe3420d7	-0.17590652
74	0x3de41d2a	0.11138375
75	0xbdd24e0a	-0.10268791
76	0x3e253c6b	0.16136329
77	0x3dab3842	0.0836034
78	0xbe2604c8	-0.16212761
79	0x3d9fe782	0.078078285
80	0x3e038a17	0.12845646
81	0xbdb9d7d3	-0.09074368
82	0xbc329e10	-0.010901943
83	0xbdf809f4	-0.121112734
84	0xbe222659	-0.15834941
85	0xbd8fd3a0	-0.07022786
86	0xbddef4c6	-0.108865306
87	0x3da27bf2	0.07933797
88	0x3c9dad88	0.019247785
89	0x3d59c0b4	0.05316229
90	0xbd7e3c34	-0.062069133
91	0x3de30aa6	0.110860154
92	0xbd52c6fc	-0.051459298
93	0xbe06948a	-0.131426
94	0x3dacdd32	0.08440627
95	0xbd8b7137	-0.068087034
96	0xbe2d503f	-0.16925143
97	0xbc9ba2a7	-0.018998457
98	0xbd942431	-0.072334655
99	0xbca25d47	-0.019819869
100	0x3dc36dec	0.0954245
101	0x3e3198cf	0.17343448
102	0x3d71c94c	0.059029862
103	0x3c18e120	0.009331018
104	0x3d2a6ab9	0.041605685
105	0xbd25575f	-0.040366527
106	0x3deccf74	0.11563006
107	0x3e336844	0.17520243
108	0x3e1a07d5	0.1504205
109	0xbdb9d9ac	-0.09074721
110	0xbcfddec0	-0.030990005
111	0x3e31bf4c	0.1735813
112	0x3cc8d0d1	0.024513634
113	0xbde677f6	-0.112533495
114	0xbd1c41b0	-0.038148582
115	0xbbdff51c	-0.0068346392
116	0x3de1f3f2	0.11032857
117	0x3d0f8705	0.035040874
118	0x3e27cf9a	0.16387787
119	0x3dbe1669	0.09281618
120	0x3d58746d	0.052845407
121	0x3e03bfec	0.12866181
122	0x3c755962	0.014974924
123	0x3d92faee	0.07176767
124	0xbdecf369	-0.11569864
125	0x3d5a6c8c	0.053326175
126	0xbe21a6ed	-0.15786333
127	0x3e209640	0.15682316
128	0xbdb8998f	-0.09013664
129	0xbda714b9	-0.081582494
130	0xbbcba0a0	-0.0062142164
131	0xbd1ccc5c	-0.03828083
132	0xbe187b24	-0.14890724
133	0xbe122d12	-0.14275005
134	0xbcc36990	-0.023854047
135	0xbdb8851e	-0.09009765
136	0xbe15f62e	-0.14644691
137	0x3dbbe30e	0.091741666
138	0x3d86d754	0.06584039
139	0xbcb0e768	-0.021594718
140	0xbddeb5d5	-0.108745255
141	0xbe32e822	-0.17471364
142	0x3c1494c0	0.009068668
143	0xbd4fd980	-0.050744534
144	0x3d5fd7dc	0.05464922
145	0x3e2d6be7	0.16935693
146	0xbd99fff4	-0.07519522
147	0xbcddee20	-0.027091086
148	0xbdb10dc4	-0.08645204
149	0xbe192bbc	-0.1495809
150	0xbdfb9634	-0.12284508
151	0xbd78371c	-0.06059943
152	0x3e149a81	0.14512064
153	0xbcc58ec8	-0.024115935
154	0x3b07b740	0.002070859
155	0xbda49d6e	-0.0803784
156	0x3dd518ee	0.104051456
157	0x3e20d305	0.15705498
158	0x3d687ee8	0.056761652
159	0x3daf096e	0.085467204
160	0x3bd083fb	0.0063633895
161	0xbd5325e5	-0.05154981
162	0xbe13d116	-0.14435229
163	0x3df120fc	0.117738694
164	0x3b9169fc	0.004437683
165	0x3e275535	0.16341098
166	0xbdb797d7	-0.08964508
167	0xbd90cd3e	-0.07070397
168	0xbcee8761	-0.029117288
169	0xbd88a856	-0.066727325
170	0x3dfb6d68	0.12276727
171	0x3dd70850	0.10499632
172	0x3e0f6cbd	0.14006324
173	0x3e31bf24	0.1735807
174	0xbd920459	-0.071297355
175	0x3d89ded2	0.06731953
176	0xbdc7bfd4	-0.09753385
177	0xbe2fa70d	-0.17153569
178	0x3c94cfe0	0.018165529
179	0xbdd755d8	-0.1051442
180	0x3dad361e	0.08457588
181	0xbe1baf7f	-0.15203665
182	0xbd208e59	-0.039198253
183	0x3e182979	0.1485957
184	0x3e1fc766	0.15603408
185	0x3dbe18ac	0.092820495
186	0x3dbf4320	0.09338975
187	0x3e1d1eed	0.15343828
188	0xbde868f8	-0.11348146
189	0xbd9d3252	-0.076756135
190	0xbdac030a	-0.08399017
191	0x3e23b2f8	0.1598624
192	0x3d758fc3	0.059951555
193	0xbdcf5d36	-0.101252005
194	0xbd1a72e8	-0.03770724
195	0x3d9aad1c	0.07552549
196	0x3d601283	0.054705154
197	0x3d4f2388	0.050570995
198	0xbe31e773	-0.17373447
199	0xbd2a5dc4	-0.041593328
200	0xbe27fe5c	-0.16405624
201	0xbdc7ff39	-0.09765477
202	0x3df52130	0.11969221
203	0x3e0dde40	0.13854313
204	0x3dec191e	0.11528228
205	0xbd708e31	-0.058729354
206	0x3dbd0ea6	0.092313096
207	0x3d2dcf67	0.042434122
208	0x3d80ec04	0.062950164
209	0x3e09bd71	0.13451172
210	0x3dfced6a	0.12349971
211	0x3d0d7d6f	0.03454345
212	0x3e0d0257	0.13770424
213	0xbd03e7d5	-0.032203514
214	0x3d83eb4a	0.06441362
215	0x3af63aa4	0.0018785787
216	0x3dd3a4cc	0.10334167
217	0x3e3504a0	0.17677546
218	0x3d0d578f	0.03450733
219	0xbe1ba691	-0.15200259
220	0xbdec3af6	-0.115346834
221	0x3bccaca0	0.0062461644
222	0xbe0e4d29	-0.13896622
223	0xbd8529bd	-0.065021016
224	0x3dd1bb60	0.10240817
225	0x3de36f80	0.11105251
226	0x3e0a5d2f	0.13512109
227	0x3c89c471	0.016817303
228	0x3e18a640	0.1490717
229	0x3d25095c	0.04029213
230	0x3e1a355b	0.15059416
231	0xbdba3ea1	-0.09093977
232	0x3bcfb125	0.006338256
233	0xbcfbce8f	-0.030738143
234	0x3d0976d5	0.033560593
235	0x3cb97f11	0.022643598
236	0x3dcdd88e	0.1005107
237	0x3c96a309	0.018388288
238	0xbdfc94b7	-0.123330526
239	0xbd9bcb6c	-0.07607159
240	0x3e30741c	0.17231792
241	0x3d200480	0.03906679
242	0x3d3b2cb0	0.045696914
243	0x3d59beb1	0.053160373
244	0x3e09d863	0.13461451
245	0xbc834f77	-0.016029103
246	0xbbd666db	-0.006543023
247	0xbe2b33c4	-0.16718966
248	0xbe18b855	-0.14914067
249	0x3e0ee3bc	0.13954061
250	0xbe29babc	-0.1657514
251	0x3ba59220	0.00505282
252	0xbe104349	-0.14088167
253	0x3df7fc3a	0.12108655
254	0xbd3b7413	-0.045764994
255	0x3d23e5fd	0.040014256

fc3.bias f4 [32]
0	0xbc89be08	-0.016814247
1	0x3deb30c4	0.11483911
2	0x3d9f81a6	0.077884
3	0x3e238ad8	0.15970933
4	0x3c15fca0	0.009154469
5	0x3def6960	0.116900206
6	0xbcbd44f9	-0.023104178
7	0x3ce9a519	0.028521108
8	0x3e15c523	0.14625983
9	0xbd8d9418	-0.06913012
10	0x3ddf27b0	0.10896242
11	0x3dcf3b88	0.101187766
12	0x3c89aa58	0.016804859
13	0xbda172cd	-0.07883225
14	0xbd284ee8	-0.041090876
15	0x3d6387c4	0.055549398
16	0xbda071b6	-0.07834189
17	0xbd57e8e6	-0.052712344
18	0xbdafbd37	-0.08581012
19	0x3dac919e	0.08426212
20	0x3d5154b9	0.05110619
21	0xbe043436	-0.12910542
22	0x3e1c268f	0.15249084
23	0x3d792731	0.06082839
24	0x3d689755	0.056784946
25	0xbc5d4ebd	-0.013507542
26	0xbe2c2088	-0.16809285
27	0x3dae2368	0.08502847
28	0x3de4091e	0.111345515
29	0x3e25dc3a	0.16197291
30	0xbdafd417	-0.08585375
31	0xbd0a3094	-0.033737734

fc4.weight f4 [8, 32]
0	0xbe3027ab	-0.17202632
1	0x3a8e8d12	0.0010875782
2	0x3e02963b	0.12752621
3	0xbd93d8be	-0.07219075
4	0xbda48d36	-0.08034746
5	0xbd5362ab	-0.05160777
6	0xbdc59e8b	-0.0964938
7	0x3dcfcafc	0.10146138
8	0x3d80e8e4	0.0629442
9	0xbe22d211	-0.15900446
10	0x3d86d624	0.06583813
11	0xbe1e5e84	-0.15465742
12	0x3e294bc1	0.16532804
13	0x3db59eea	0.08868201
14	0xbdf21f88	-0.1182242
15	0xbdf1f094	-0.11813465
16	0xbe33bec8	-0.17553246
17	0xbd3a11f0	-0.045427263
18	0x3e297b6b	0.16550986
19	0xbd178474	-0.03699155
20	0xbdad0463	-0.08448102
21	0xbd5d6482	-0.05405093
22	0x3ce89760	0.028392494
23	0x3e123f9e	0.1428208
24	0x3e1f2e62	0.15545037
25	0x3dad6cdc	0.08468029
26	0x3d73bf29	0.059508476
27	0x3da961cc	0.082706064
28	0x3e17c699	0.14821853
29	0xbdcc8184	-0.09985641
30	0x3e25fb00	0.1620903
31	0x3d27abe0	0.040935397
32	0x3e1f0c63	0.15532069
33	0x3d7b00ad	0.06127994
34	0x3c144550	0.0090497285
35	0x3dbd1ecc	0.0923439
36	0xbde3bf5f	-0.111204855
37	0x3bc29a45	0.0059388005
38	0xbcd5471f	-0.02603489
39	0x3e1f543c	0.15559477
40	0x3da18632	0.07886924
41	0xbc995ff8	-0.01872252
42	0xbd20d95f	-0.0392698
43	0xbde47a65	-0.111561574
44	0xbda67f4d	-0.081297494
45	0xbd8f9985	-0.070117034
46	0xbc5a8e40	-0.013339579
47	0x3ae3b500	0.0017372668
48	0xbc808710	-0.015689403
49	0xbddfe3a5	-0.109320916
50	0x3d873e80	0.06603718
51	0x3e2fa419	0.17152442
52	0x3e1b47b2	0.15164068
53	0xbe0cdfaa	-0.13757196
54	0x3e023409	0.12715162
55	0x3d96b680	0.07359028
56	0xbdb9b8d8	-0.09068459
57	0x3b88e564	0.004177736
58	0x3e2071b4	0.15668374
59	0x3e0d7b5a	0.13816586
60	0xbdcd70a5	-0.10031251
61	0x3e0f400a	0.13989273
62	0x3d6c6861	0.05771673
63	0xbd882597	-0.06647795
64	0x3c226130	0.009910867
65	0x3e0d9d96	0.13829646
66	0xbdec66ba	-0.11543031
67	0x3df42080	0.119202614
68	0x3dcec68e	0.10096465
69	0xbd815414	-0.06314865
70	0xbd2a5237	-0.041582312
71	0xbe1b8500	-0.15187454
72	0x3e0a5f69	0.13512959
73	0x3dcef68a	0.10105617
74	0x3ded29cc	0.11580238
75	0x3db83dd0	0.08996165
76	0x3e1d47cd	0.15359421
77	0xbcd92bd0	-0.02651015
78	0x3ddad4ae	0.10685097
79	0x3e17ce5f	0.14824818
80	0xbd0a7c2c	-0.033809826
81	0xbd8c7913	-0.068590306
82	0x3c796500	0.015221834
83	0x3e2eef69	0.17083515
84	0x3d35187d	0.044212807
85	0xbde43830	-0.111435294
86	0xbc8062f0	-0.015672177
87	0xbe123528	-0.1427809
88	0x3e046004	0.12927252
89	0xbd7f70cb	-0.062363427
90	0x3d55c205	0.052186985
91	0xbce00f9f	-0.027351199
92	0xbd10c3b4	-0.035342887
93	0xbd8e8ed5	-0.06960837
94	0x3da61a44	0.081104785
95	0x3dd02c4a	0.101646975
96	0xbe258ecf	-0.16167758
97	0xbdff80df	-0.12475752
98	0xbdcbce3d	-0.09951446
99	0x3ded8944	0.11598447
100	0xbb8728e0	-0.0041247457
101	0xbdd3e21e	-0.10345863
102	0xbddb96a9	-0.107220955
103	0xbc882ac7	-0.01662196
104	0x3d93b01e	0.07211326
105	0xbe25fa06	-0.16208658
106	0x3d5eb8f5	0.054375608
107	0xbe225075	-0.15851004
108	0xbdca50c9	-0.0987869
109	0xbe2c9b21	-0.16856052
110	0xbd275470	-0.04085201
111	0x3e2b183f	0.16708468
112	0x3de52466	0.11188583
113	0x3df8b7a6	0.12144403
114	0x3d597e68	0.053099066
115	0x3b121940	0.0022292882
116	0x3dbc479c	0.09193346
117	0xbdcc3497	-0.09970968
118	0xbdcb2def	-0.099208705
119	0x3dd50434	0.10401192
120	0x3ded6484	0.115914375
121	0x3dea55fc	0.114421815
122	0x3d2bb505	0.04192068
123	0xbd3ba5c3	-0.04581238
124	0xbd4c76ac	-0.04991786
125	0x3de1a998	0.110186756
126	0xbdbbdda6	-0.091731355
127	0xbda4fb09	-0.08055694
128	0xbddcdc34	-0.10784188
129	0xbe0eed0d	-0.13957615
130	0xbc912c80	-0.017721415
131	0xbd617937	-0.05504724
132	0x3d9ea09e	0.07745479
133	0x3df8a8f4	0.121416
134	0xbdee57d5	-0.116378464
135	0xb9633490	-0.00021667988
136	0xbd50d270	-0.05098194
137	0x3d940e54	0.072292954
138	0x3d415d7f	0.047208305
139	0xbe24c69d	-0.1609139
140	0xbd6a0096	-0.057129465
141	0xbe30f6d3	-0.17281656
142	0xbdda7a25	-0.106678285
143	0xbe255b28	-0.16148055
144	0x3db21ac2	0.0869651
145	0x3e163aa1	0.14670803
146	0xbd808191	-0.06274713
147	0xbbb679a0	-0.005568698
148	0x3c873d8f	0.016508846
149	0x3d00fe1c	0.031492338
150	0x3dc1b1fa	0.094577745
151	0xbe239321	-0.15974094
152	0x3d7a65e7	0.061132338
153	0xbe104f3b	-0.14092724
154	0xbd3a7b95	-0.045528013
155	0xbc950431	-0.018190475
156	0x3db7ccb6	0.089745924
157	0xbd6996e5	-0.05702867
158	0x3d09cc1f	0.03364193
159	0xbc93c840	-0.018039823
160	0xbcd47048	-0.025932446
161	0x3c41b13e	0.011822043
162	0x3d7c5af8	0.061610192
163	0xbe19e97b	-0.15030472
164	0x3e26c331	0.16285397
165	0x3d84923c	0.064732045
166	0x3db42044	0.08795217
167	0xbd8079c1	-0.06273223
168	0x3e127283	0.14301495
169	0x3d486454	0.048923805
170	0xbd60f813	-0.054924082
171	0xbdd3b364	-0.103369504
172	0xbe17924d	-0.14801903
173	0x3e128eb1	0.14312245
174	0xbdc6cf1a	-0.0970747
175	0x3e30c721	0.17263462
176	0xbe30c6e9	-0.17263378
177	0x3e32adaf	0.17449068
178	0x3dd0f8c2	0.10203697
179	0x3e0e850d	0.13917942
180	0xbd01d359	-0.031695697
181	0x3d694274	0.05694814
182	0x3d907b92	0.07054819
183	0x3d5451d7	0.05183586
184	0xbc7791a2	-0.015110405
185	0xbd18b075	-0.037277658
186	0x3e2ab956	0.16672263
187	0xbd4e2cc5	-0.050335664
188	0xbd9f3a4c	-0.07774791
189	0x3e076662	0.1322265
190	0xbd59e46d	-0.05319636
191	0xbb39f480	-0.0028374493
192	0x3e078a8d	0.13236447
193	0x3d464dfb	0.04841421
194	0xbddb01c7	-0.106936984
195	0xbd7b9305	-0.061419506
196	0xbe0fb208	-0.14032757
197	0x3c06d94e	0.00823052
198	0x3d78b32b	0.060717743
199	0xbe19da63	-0.15024714
200	0x3ddb5b82	0.10710813
201	0xbd8d122d	-0.068882324
202	0xbe20c67f	-0.1570072
203	0xbdb20dd0	-0.08694041
204	0xbe264f95	-0.16241296
205	0x3e0a8f4d	0.13531227
206	0xbd5832c6	-0.052782796
207	0x3dfd484e	0.12367307
208	0xbe1f2a62	-0.15543512
209	0xbd82f2ce	-0.063939676
210	0x3e29f83d	0.16598602
211	0x3e1566e9	0.14590038
212	0xbe1020fd	-0.14075084
213	0xbb502480	-0.0031760037
214	0xbe0fbad9	-0.1403612
215	0xbddefb78	-0.108878076
216	0xbdfcca7a	-0.12343307
217	0x3d60c6ab	0.054876965
218	0xbd89f905	-0.0673695
219	0x3d463e83	0.04839946
220	0xbd9d67a9	-0.07685787
221	0x3c3ad6be	0.011403738
222	0xbe284316	-0.16431841
223	0xbdf166f2	-0.117872134
224	0xbd8c7c14	-0.068596035
225	0xbab0cb93	-0.0013488404
226	0x3ba208e0	0.0049449056
227	0xbda42982	-0.080157295
228	0xbda5ecfa	-0.0810184
229	0xbe16b5b3	-0.1471775
230	0xbe2e6e00	-0.17034149
231	0x3e1fdb6e	0.1561105
232	0x3dd773ba	0.1052012
233	0x3e0e9971	0.13925721
234	0x3d61b813	0.055107187
235	0xbc04bb73	-0.008101332
236	0xbe135bc4	-0.14390475
237	0x3e1a5651	0.1507199
238	0xbd94e62e	-0.07270466
239	0x3ca693a0	0.020334065
240	0xbdc82878	-0.09773344
241	0x3c40af50	0.011760548
242	0xbdc0f327	-0.09421378
243	0xbde5cb49	-0.11220414
244	0x3d89ef50	0.06735098
245	0x3e13cf91	0.14434649
246	0xbdf7e188	-0.121035635
247	0x3d9806ac	0.074231476
248	0xbe1a0aeb	-0.15043227
249	0x3e0f65c4	0.14003664
250	0x3da2ce98	0.07949561
251	0xbdeb8a08	-0.11500937
252	0x3da5e916	0.08101098
253	0xbd89988b	-0.067185484
254	0x3d93d778	0.07218832
255	0xbd887045	-0.06662039

fc4.bias f4 [8]
0	0x3e107822	0.14108327
1	0x3c7b4922	0.01533726
2	0xbda596ca	-0.08085401
3	0x3e09899c	0.134314
4	0xbc3b4f42	-0.011432471
5	0x3dc630a4	0.09677246
6	0xbe1227d0	-0.14273
7	0xbe201f8d	-0.15637036
