final-project-agar/store/nets/food_trained_drl.pt (torch_old, 12163 bytes, 8 tensors)

fc1.weight f4 [32, 9]
-0.13576774 0.12079203 -0.009595305 0.011939317 -0.24425817 -0.2903961 0.08178076 0.07477462
0.31933537 -0.077071905 0.06550741 0.17475787 -0.3124802 -0.014173955 0.19798931 -0.11320619
-0.14414391 0.19206485 -0.037579168 0.11436868 -0.19479811 0.45779553 -0.2843736 -0.15773138
0.63240093 0.21122934 -0.281637 0.075208 0.27820125 -0.20977576 1.2377741 0.8469467
-0.07589151 0.5514654 0.6377502 0.7037253 -0.23819003 -0.2905782 -0.2053115 -0.15501663
-0.14638488 -0.06528118 -0.24049203 0.0033138096 -0.054887623 -0.024291791 0.23080888 -0.031610135
0.23517251 0.03383097 0.025619173 -0.41685474 0.052659456 -0.07355847 -0.19521058 0.21623316
0.2162719 -0.314587 0.16895977 0.2463037 -0.10152726 -0.019339591 -0.20438242 -0.18755877
-0.28165495 -0.06360635 0.19540957 -0.013955563 0.224713 -0.15741548 0.017194152 -0.0019397736
-0.09799871 -0.13164866 -0.09087846 0.22289857 -0.31911218 0.19957098 0.053194404 -0.11579709
0.21896413 -0.19323134 -0.05072859 0.004951954 -0.21752024 0.047495842 0.23290148 -0.070163876
-0.19432423 0.29428306 -0.061978467 -0.19959065 0.0911117 -0.25944158 0.079628944 0.39088345
0.34352258 -0.38542858 0.025402011 -0.06916025 0.2553077 0.15433924 -0.046907052 0.030539045
0.19913599 0.25710127 0.25789028 0.05378461 -0.19726226 0.041292757 0.11646068 0.14115703
-0.1871525 -0.07913515 -0.11895689 0.26882437 -0.029154092 -0.01659143 -0.23646903 0.26215747
-0.038262457 -0.29890367 -0.20044553 0.075158924 0.070447445 0.16146043 -0.059692852 -0.6044859
-0.5756372 -0.15007588 0.63719136 0.11355824 -0.007255967 -0.10728616 0.39454693 -0.07809379
-0.42146525 -0.4268403 1.9812627 0.44461408 -0.37672508 0.67245275 0.7392564 -1.0509496
-0.00045031126 -0.054257803 -0.99070597 -7.2789626 -6.503682 -0.63844514 0.08544262 0.54795337
0.10894499 -0.022941245 -0.017364968 -0.27808616 1.3360896 0.52170324 -0.49761987 -0.23482905
0.48449397 -0.6347924 -0.12729451 0.06710723 -0.21675996 0.3134443 0.031682044 0.2575659
-0.003252536 -0.23765048 -0.056792766 0.0037523168 0.24967766 -0.2896494 0.88942 0.6989923
0.21076141 -1.1198009 0.14514486 0.31634578 -0.17032465 -0.11848757 -0.06902632 -0.22578752
-0.23300497 0.068257004 -0.019998401 -0.09419298 -0.071451634 -0.13487566 0.034728497 0.2506208
-0.12527077 0.24738517 -0.15329775 -0.05634156 0.040129066 -0.3196159 0.025086135 0.28493565
-0.31262958 0.49446964 0.6430823 0.51220685 0.315166 0.106931955 0.1764567 -0.051565498
0.17580143 -0.24607727 0.13808408 -0.16169712 0.084269255 -0.19006483 0.05167398 -0.18477695
0.17342916 0.4346105 0.35683918 1.1242268 0.22800684 0.22660789 0.18769434 0.6315054
0.5661284 0.011546566 0.47845563 1.4035965 -2.6160135 -2.5235338 -0.22259969 0.61139804
-0.71973956 -0.0019179874 0.06518217 -0.4744235 -0.16593558 0.8021439 0.29220167 -0.62875277
0.042181298 -2.1268983 -0.92184836 0.01802728 -0.9885778 -0.818865 0.56102437 0.78736377
-0.08287695 0.7512964 0.6279151 0.06663869 -0.18408334 -0.3198385 -0.27499506 0.18369773
00000000: b306 0bbe d061 f73d a035 1dbc 209d 433c
00000010: d01e 7abe ccae 94be ac7c a73d 7023 993d
00000020: ed7f a33e e0d7 9dbd c028 863d baf3 323e
00000030: 68fd 9fbe e039 68bc b6bd 4a3e a6d8 e7bd
00000040: 769a 13be a6ac 443e 9dec 19bd 203a ea3d
00000050: 2879 47be 2d64 ea3e 6b99 91be 5684 21be
00000060: 07e5 213f 814c 583e ba32 90be a706 9a3d
00000070: 6570 8e3e 75cf 56be 626f 9e3f 80d1 583f
00000080: 026d 9bbd d62c 0d3f 9943 233f 5727 343f
00000090: 16e8 73be aac6 94be 2e3d 52be aebc 1ebe
000000a0: ebe5 15be 24b2 85bd 8b43 76be 802c 593b
000000b0: d8d1 60bd 94ff c6bc 2a59 6c3e a179 01bd
000000c0: 10d1 703e 5892 0a3d 4ddf d13c fc6d d5be
000000d0: 71b1 573d d3a5 96bd 48e5 47be 3a6c 5d3e
000000e0: 6276 5d3e 8c11 a1be ca03 2d3e 0a37 7c3e
000000f0: 86ed cfbd 106e 9ebc a049 51be 680f 40be
00000100: 1435 90be 0c44 82bd 7219 483e e0a5 64bc
00000110: 2a1b 663e 8631 21be c0da 8c3c 0040 feba
00000120: 8cb3 c8bd e8ce 06be 7c1e babd 863f 643e
00000130: ac62 a3be 565c 4c3e 60e2 593d 0627 edbd
00000140: 2238 603e 70de 45be c8c8 4fbd 0044 a23b
00000150: a0bd 5ebe 008b 423d ba7d 6e3e 14b2 8fbd
00000160: eefc 46be 45ac 963e 22dd 7dbd 7e61 4cbe
00000170: c598 ba3d 87d5 84be 8014 a33d e021 c83e
00000180: 31e2 af3e e556 c5be e117 d03c e4a3 8dbd
00000190: b1b7 823e 1b0b 1e3e 9c21 40bd 052d fa3c
000001a0: 4eea 4b3e c7a2 833e 320a 843e 404d 5c3d
000001b0: 1eff 49be 9822 293d f082 ee3d 788b 103e
000001c0: e8a4 3fbe 9c11 a2bd ac9f f3bd 59a3 893e
000001d0: 90d4 eebc c0ea 87bc f024 72be 8139 863e
000001e0: 18b9 1cbd e709 99be 9841 4dbe ecec 993d
000001f0: c046 903d e255 253e 7e80 74bd 97bf 1abf
00000200: f65c 13bf 7ead 19be f91e 233f 3991 e83d
00000210: 76c3 edbb d9b8 dbbd 0e02 ca3e a3ef 9fbd
00000220: 4bca d7be d08a dabe 049a fd3f 75a4 e33e
00000230: 1ce2 c0be dd25 2c3f e83f 3d3f 8485 86bf
00000240: c117 ecb9 6e3d 5ebd e89e 7dbf 43ed e8c0
00000250: 2a1e d0c0 2471 23bf 8afc ae3d ac46 0c3f
00000260: 8d1e df3d 47ef bbbc fa40 8ebc 4f61 8ebe
00000270: fc04 ab3f 588e 053f 08c8 febe 0777 70be
00000280: 980f f83e c181 22bf 7e59 02be 846f 893d
00000290: 53f6 5dbe c57b a03e 08c5 013d addf 833e
000002a0: 8028 55bb a65a 73be 889f 68bd 6ee9 753b
000002b0: 80ab 7f3e ed4c 94be 07b1 633f 29f1 323f
000002c0: d7d1 573e a355 8fbf dba0 143e 13f8 a13e
000002d0: 9669 2ebe 9ca9 f2bd ac5d 8dbd d834 67be
000002e0: db98 6ebe 54ca 8b3d b0d3 a3bc 40e8 c0bd
000002f0: 3c55 92bd d81c 0abe 783f 0e3d 5f51 803e
00000300: fb46 00be 8a52 7d3e 16fa 1cbe 68c6 66bd
00000310: 605e 243d b2a4 a3be 7081 cd3c 16e3 913e
00000320: fc10 a0be 202b fd3e 0ba1 243f fd1f 033f
00000330: 705d a13e 24ff da3d 11b1 343e 5836 53bd
00000340: 4a05 343e aefb 7bbe ea65 0d3e ee93 25be
00000350: 5c95 ac3d 5ba0 42be 18a8 533d 2b36 3dbe
00000360: 6a97 313e 4485 de3e a0b3 b63e aae6 8f3f
00000370: a07a 693e e60b 683e f232 403e 57aa 213f
00000380: caed 103f cf2d 3d3c 23f8 f43e 0da9 b33f
00000390: c46c 27c0 9481 21c0 2cf1 63be 9584 1c3f
000003a0: da40 38bf fa64 fbba 3b7e 853d a3e7 f2be
000003b0: 04eb 29be 4d59 4d3f 759b 953e f1f5 20bf
000003c0: 4cc6 2c3d 1a1f 08c0 41fe 6bbf f2ad 933c
000003d0: 6f13 7dbf 23a1 51bf 4b9f 0f3f ac90 493f
000003e0: 64bb a9bd f654 403f 0bbf 203f de79 883d
000003f0: 5880 3cbe dfc1 a3be 27cc 8cbe 421b 3c3e

fc1.bias f4 [32]
0.20705351 -0.27604657 -0.53671503 -0.8555734 -0.3118443 -0.07783937 0.24130133 -0.23638734
-0.027065903 0.30399624 -0.41827178 -0.0969069 -0.16736281 0.18757024 -0.33306438 -0.5085455
1.1675005 -0.8389175 -0.19116032 -1.3673093 -0.0636493 0.07113126 -0.95000046 -0.050669074
-1.2229985 -0.81581765 -0.18361852 -1.5210135 -0.119777605 -0.21308213 -0.6698779 -0.29180217
00000000: d605 543e fa55 8dbe 2866 09bf dc06 5bbf
00000010: 0eaa 9fbe 3f6a 9fbd b217 773e 860f 72be
00000020: 50b9 ddbc 65a5 9b3e b827 d6be 2077 c6bd
00000030: 2861 2bbe 6a12 403e 6a87 aabe 0a30 02bf
00000040: a870 953f 4cc3 56bf 88bf 43be fe03 afbf
00000050: 905a 82bd 44ad 913d 3b33 73bf 608a 4fbd
00000060: 378b 9cbf 6dd9 50bf 7e06 3cbe 92b0 c2bf
00000070: f64d f5bd 3432 5abe 1e7d 2bbf 1867 95be

fc2.weight f4 [32, 32]
0.122886434 -0.16819808 -0.086331084 -0.02419837 0.1032082 0.1338082 -0.15777257 -0.15288489
-0.0066800416 0.033812955 0.053482864 0.06095317 -0.16910514 0.07496391 -0.124421425 -0.00990136
-0.14674659 -0.069451556 0.04380749 0.029616628 -0.17017387 -0.0034091324 -0.11436007 -0.042009875
0.020159721 0.08915383 -0.120086804 -0.2521802 0.07073511 -0.10415325 -0.018972138 -0.14568414
0.030526116 -0.022858322 0.13391776 0.007726704 -0.17540637 0.10363267 -0.011227116 0.0880173
-0.12733395 0.012240365 -0.120235726 0.15483858 -0.10996374 0.018074214 0.09377794 -0.07728073
0.05136448 -0.13104263 -0.0019426048 -0.13051082 -0.10482747 0.14133821 0.12737797 -0.024037868
-0.114957586 -0.011645855 0.063776255 -0.026293704 0.016526744 -0.17026992 0.063468136 -0.16612622
-0.03736061 0.014527842 0.2179229 0.21850188 -0.16505633 -0.061242603 0.1329873 -0.048606843
-0.05152145 0.15644006 0.04847287 -0.024947131 0.09019674 -0.0060346127 0.39799964 0.38354412
-0.72023857 0.37685242 0.15225552 0.15505286 0.1716155 -0.16898867 0.08444332 -0.10772939
0.21555744 -0.24060558 0.018489333 -0.03515747 0.11988188 -0.31877315 0.25068992 -0.15879568
0.08189668 -0.09589423 0.111165896 -0.012907475 0.1629491 -0.13243645 -0.09258794 -0.12797701
-0.051521733 0.17189907 0.06617877 0.12910874 0.07937892 0.08578627 -0.120162874 0.10252498
0.03970197 -0.13132334 0.1745659 0.07012321 0.06404275 -0.10388189 -0.07170818 -0.13016419
-0.17250054 -0.16357076 0.13883756 -0.07223807 0.11992057 0.13394912 0.0037120879 0.09298335
-0.116493106 0.045192674 0.09886077 -0.07928486 -0.07172074 -0.11113768 0.11259733 -0.089358754
-0.0065787584 0.07529272 0.09308557 0.043890614 0.17508836 0.060598984 -0.016667847 -0.14192815
-0.012854661 -0.0038020073 0.08990283 -0.022994936 0.045377254 0.020317495 -0.20682819 0.17428865
0.040914252 0.0019674299 -0.08892632 -0.044661533 0.09537171 -0.208826 -0.09723422 0.09206946
0.0025079548 -0.1109453 -0.12625216 0.019071473 -0.01830937 0.053981904 0.054989368 0.004360616
-0.11845184 -0.023285583 0.011619449 -0.15150389 0.085451946 -0.062798254 -0.10989826 0.03923794
-0.19073571 -0.09018743 -0.07808842 -0.101919964 -0.08544167 -0.07474575 -0.22777475 0.17395027
0.012760174 -0.24955224 0.13476756 0.09439789 0.13053025 -0.0855304 -0.11684064 0.08992739
0.03226997 -0.12781891 0.06277098 -0.15850508 -0.0070635527 0.0016517368 -0.0749612 -0.15979387
0.04237704 0.025633737 0.06675959 0.0969347 0.048076123 0.038694978 -0.0424936 0.018487696
0.07584096 -0.04198145 -0.16985063 0.05434856 0.09704463 0.0044685304 0.019108268 0.1647002
0.017108724 -0.10707702 0.07871958 -0.052252837 0.14393537 0.08029061 -0.10092133 -0.03281933
-0.03702478 0.09950255 -0.17119588 -0.09233759 -0.013828576 0.05862796 0.14143877 0.13481997
-0.092052616 -0.17425676 -0.0067400597 0.07024661 0.13525386 -0.17001484 0.11139025 -0.07759453
-0.07739091 0.032515787 0.00020137429 0.016167995 -0.14497718 -0.17490496 -0.20111029 0.042910635
0.043328386 -0.24580862 0.06692445 -0.17379805 -0.07331343 0.057557322 -0.14888091 -0.08661963
00000000: e2ab fb3d 1e3c 2cbe 5ace b0bd a93b c6bc
00000010: d25e d33d 0405 093e 228f 21be db8d 1cbe
00000020: 40e4 dabb 747f 0a3d d910 5b3d 08aa 793d
00000030: e629 2dbe ae86 993d a9d0 febd 5039 22bc
00000040: bd44 16be 9e3c 8ebd 7c6f 333d 929e f23c
00000050: 0f42 2ebe c06b 5fbb 9d35 eabd 8c12 2cbd
00000060: 0026 a53c 4996 b63d 12f0 f5bd c31d 81be
00000070: 92dd 903d 4d4e d5bd 756b 9bbc 392e 15be
00000080: e811 fa3c 6041 bbbc bd21 093e 4a30 fd3b
00000090: ba9d 33be 5e3d d43d f0f1 37bc 6a42 b43d
000000a0: d563 02be d08b 483c 263e f6bd 018e 1e3e
000000b0: ab34 e1bd 6010 943c a60e c03d 5c45 9ebd
000000c0: 9063 523d 0a30 06be 009f feba a1a4 05be
000000d0: c9af d6bd f7ba 103e 5f6f 023e 10eb c4bc
000000e0: e26e ebbd 42ce 3ebc 209d 823d e565 d7bc
000000f0: 1863 873c 3d5b 2ebe 95fb 813d fe1c 2abe
00000100: 7007 19bd 3006 6e3c 2e27 5f3e f5be 5f3e
00000110: 8704 29be 86d9 7abd d32d 083e f817 47bd
00000120: 2808 53bd d331 203e 7d8b 463d ed5d ccbc
00000130: 12b9 b83d 00be c5bb 9cc6 cb3e e55f c43e
00000140: 8e61 38bf cdf2 c03e dfe8 1b3e 2dc6 1e3e
00000150: f9bb 2f3e 5e0b 2dbe 9ff0 ac3d 3aa1 dcbd
00000160: 17bb 5c3e 4f61 76be f176 973c 4701 10bd
00000170: a284 f53d 3c36 a3be 6e5a 803e 569b 22be
00000180: 72b9 a73d 3264 c4bd f2aa e33d e079 53bc
00000190: 21dc 263e 6c9d 07be bf9e bdbd 680c 03be
000001a0: 7408 53bd 4f06 303e bc88 873d 1535 043e
000001b0: 6a91 a23d b6b0 af3d f417 f6bd 9ef8 d13d
000001c0: 889e 223d a079 06be 67c1 323e c29c 8f3d
000001d0: d828 833d 07c0 d4bd bddb 92bd c349 05be
000001e0: fba3 30be 187f 27be 6f2b 0e3e 8ef1 93bd
000001f0: ea98 f53d f529 093e 8046 733b 0e6e be3d
00000200: f093 eebd f41b 393d 8477 ca3d 1a60 a2bd
00000210: 53e2 92bd 279c e3bd 6e99 e63d b901 b7bd
00000220: a092 d7bb 1233 9a3d a6a3 be3d a5c6 333d
00000230: 5d4a 333e a436 783d 028b 88bc 9d55 11be
00000240: 5b9c 52bc 192b 79bb fa1e b83d e05f bcbc
00000250: 80dd 393d e070 a63c c5ca 53be b978 323e
00000260: b495 273d ffef 003b 011f b6bd 03ef 36bd
00000270: 3e52 c33d 7cd6 55be bc22 c7bd ea8e bc3d
00000280: 805c 243b 4a37 e3bd 3f48 01be c73b 9c3c
00000290: 88fd 95bc 211c 5d3d 883c 613d 80e3 8e3b
000002a0: e196 f2bd 68c1 bebc 805f 3e3c d623 1bbe
000002b0: 6e01 af3d 5f9c 80bd 5712 e1bd f6b7 203d
000002c0: 3950 43be 30b4 b8bd d2ec 9fbd 6abb d0bd
000002d0: 0bfc aebd 4d14 99bd c93d 69be 0520 323e
000002e0: 0d10 513c 9f8a 7fbe 8200 0a3e ae53 c13d
000002f0: b9a9 053e 902a afbd 254a efbd da2b b83d
00000300: 842d 043d f6e2 02be 128e 803d 284f 22be
00000310: 6075 e7bb 177f d83a 4285 99bd 01a1 23be
00000320: 8c93 2d3d d8fd d13c 40b9 883d b385 c63d
00000330: 78eb 443d a07e 1e3d c50d 2ebd 8273 973c
00000340: 8152 9b3d bef4 2bbd 53ed 2dbe 989c 5e3d
00000350: 56bf c63d c06c 923b f188 9c3c 2ba7 283e
00000360: 9827 8c3c 324b dbbd bb37 a13d 1207 56bd
00000370: cb63 133e 676f a43d d8af cebd 906d 06bd
00000380: 4ca7 17bd fec7 cb3d f94d 2fbe 7e1b bdbd
00000390: 4091 62bc df23 703d 53d5 103e 3f0e 0a3e
000003a0: 1586 bcbd 5d70 32be b8db dcbb 74dd 8f3d
000003b0: fd7f 0a3e 5f18 2ebe 9220 e43d e2e9 9ebd
000003c0: 207f 9ebd 462f 053d 0028 5339 be72 843c
000003d0: e674 14be 491a 33be dbef 4dbe 10c3 2f3d
000003e0: 1b79 313d 41b5 7bbe b00f 893d 1ef8 31be
000003f0: 5a25 96bd 3ac1 6b3d 3d74 18be a265 b1bd

fc2.bias f4 [32]
0.0048836404 0.03502229 -0.839888 0.10072671 -0.034137204 -0.18410864 0.07375212 -0.18805
-0.13287051 -0.9276441 0.07983412 -0.25403938 -0.063294575 0.112224475 0.0018785214 -0.24769104
0.082881495 -0.10829483 0.018957615 -0.7969628 -0.045857057 -0.080465235 0.043812722 -0.19586952
-0.769785 -0.17485018 -0.6664616 -0.0014239103 -0.13477136 0.062555745 -0.046397857 -0.05989368
00000000: f206 a03b 8873 0f3d e602 57bf ce49 ce3d
00000010: 74d3 0bbd fa86 3cbe 5a0b 973d 2e90 40be
00000020: 350f 08be 157a 6dbf 1280 a33d 7311 82be
00000030: 96a0 81bd f2d5 e53d b838 f63a b8a2 7dbe
00000040: c6bd a93d aec9 ddbd 004d 9b3c c105 4cbf
00000050: 9cd4 3bbd f5ca a4bd f874 333d 0592 48be
00000060: a110 45bf ed0b 33be 3a9d 2abf 80a2 baba
00000070: 8101 0abe 3a1d 803d ae0b 3ebd 1353 75bd

fc3.weight f4 [32, 32]
-0.0010255779 -0.14229287 0.13890995 -0.03281118 -0.08613855 -0.0579006 -0.085291415 0.025525048
0.12133254 0.01653253 -0.1169719 -0.120184265 0.13042676 0.08065228 0.10820424 -0.15924579
-0.13618518 0.012851967 0.054510757 -0.01950254 0.14420046 0.10925573 0.17640756 0.069641426
0.2003176 -0.011427103 0.235406 -0.038289636 0.11686499 -0.14515314 0.12077162 -0.13480265
-0.063037075 0.08843388 -0.0695649 0.11393343 -0.047739 0.026990015 -0.15881164 0.097116545
0.090416566 -0.25641865 -0.0821809 -0.09713158 -0.012928419 0.1408047 0.04673803 -0.102290586
-0.10031532 0.15022461 0.068011254 -0.13498911 0.064107224 0.12322998 0.12489207 0.31186458
-0.09070297 0.075491115 0.2799202 0.018600926 -0.1090626 0.018500626 0.12979668 -0.12548043
0.065747276 -0.15821345 -0.072635435 -0.06489965 0.08703445 0.0287216 0.13630144 -0.03190306
-0.10120164 -0.09837456 0.1107163 -0.17238069 -0.15626091 -0.014836192 -0.01348567 -0.011141881
0.093492076 0.008140266 0.08201538 -0.051086273 -0.014466688 0.16268586 0.09705864 -0.12810951
-0.018273419 0.061922133 -0.118374884 0.04153411 -0.06633585 -0.15207133 0.10005085 0.10844381
-0.12359974 0.027950987 -0.117081374 0.089138046 0.04717663 0.13553308 0.013034299 -0.092507966
0.116876975 -0.1283139 -0.13742357 -0.11349786 -0.13805817 0.031197622 -0.058943108 0.02242741
0.03291519 -0.14617842 0.07217975 0.13361691 -0.06956293 -0.012981355 -0.054167442 -0.081252225
-0.04329793 0.12469073 -0.046221483 0.041154668 -0.13453451 -0.090255305 0.10561152 0.046150908
0.12504686 0.047504216 0.011549476 -0.1719298 0.008723488 -0.040855765 -0.17732562 0.11513323
0.05010383 0.017512925 -0.014319939 0.1309845 0.17143185 0.07134208 -0.020906465 -0.11783538
-0.072576 0.102504745 -0.120781004 -0.017538836 -0.09423593 0.034166936 0.16570191 0.078039296
-0.08719031 -0.026509479 -0.16633895 -0.12734826 -0.19152072 -0.11063558 0.096976444 0.08534846
-0.046915825 0.10981183 0.048462547 -0.077711225 -0.016508011 0.13440861 -0.015685316 0.08738321
-0.11796108 0.039224505 0.04822069 -0.13004556 -0.17238615 0.13176943 -0.07644556 -0.029053167
-0.07748549 -0.0340451 0.11051084 0.01703253 0.115159705 0.145794 -0.10569981 -0.17089559
-0.17957799 -0.05773317 0.14254846 -0.08639499 0.029295458 -0.06283969 -0.11812905 0.16892052
-0.09471635 0.007084757 -0.17203405 -0.062091455 -0.018884381 -0.13518348 -0.008855233 0.03850012
0.09449367 0.08585492 -0.008718911 0.09065658 0.011528686 -0.10360371 -0.031127281 0.17626776
0.11593184 0.1575102 0.11433621 0.013399943 0.06918517 -0.04069143 -0.04679735 -0.017852396
0.02433662 0.057215795 -0.0586186 0.13167925 0.11580574 -0.027640447 -0.028913865 -0.04958907
0.04147443 0.011240095 -0.16695894 -0.10269324 -0.11009574 0.049398676 -0.1529431 0.06406106
0.12872238 0.099456474 -0.14314453 -0.12563594 -0.1760367 -0.04372196 0.049471598 -0.015630648
-0.07673594 -0.03849721 -0.0021153688 0.102994904 0.0148572475 0.006397277 -0.051678836 0.064389735
-0.08527456 0.13466518 0.0060598124 -0.1616067 -0.031674206 0.058356464 -0.1422343 0.071670696
00000000: af6c 86ba 39b5 11be 693e 0e3e 0465 06bd
00000010: 6869 b0bd 2e29 6dbd 44ad aebd e819 d13c
00000020: 327d f83d 3a6f 873c f78e efbd 2b23 f6bd
00000030: 988e 053e 062d a53d 2f9a dd3d 5411 23be
00000040: 2174 0bbe 0e91 523c ac46 5f3d cac3 9fbc
00000050: 49a9 133e 78c1 df3d 2fa4 343e 2aa0 8e3d
00000060: 0f20 4d3e be38 3bbc 450e 713e 98d5 1cbd
00000070: e956 ef3d 06a3 14be 1c57 f73d b509 0abe
00000080: 9519 81bd d21c b53d 0b78 8ebd ee55 e93d
00000090: f889 43bd 2a1a dd3c 859f 22be 0ae5 c63d
000000a0: 522c b93d 4e49 83be 764e a8bd ecec c6bd
000000b0: b8d1 53bc 1b2f 103e 6070 3f3d ba7d d1bd
000000c0: 1e72 cdbd 7bd4 193e 7c49 8b3d 963a 0abe
000000d0: a64a 833d 0060 fc3d 6ac7 ff3d b7ac 9f3e
000000e0: 7bc2 b9bd 169b 9a3d b351 8f3e f860 983c
000000f0: 365c dfbd a08e 973c 6ce9 043e f17d 00be
00000100: 82a6 863d b502 22be e3c1 94bd 1cea 84bd
00000110: 1e3f b23d 9049 eb3c 9b92 0b3e c8ac 02bd
00000120: ce42 cfbd 9a78 c9bd 3abf e23d 9084 30be
00000130: dc02 20be 8013 73bc 00f3 5cbc 708c 36bc
00000140: c678 bf3d c05e 053c aef7 a73d d73f 51bd
00000150: b005 6dbc 1f97 263e aec6 c63d 242f 03be
00000160: 23b2 95bc 10a2 7d3d 886e f2bd ac1f 2a3d
00000170: 17db 87bd 96b8 1bbe 76e7 cc3d ca17 de3d
00000180: dc21 fdbd 78f9 e43c 5cc8 efbd 028e b63d
00000190: 483c 413d 2fc9 0a3e d08d 553c d174 bdbd
000001a0: 325d ef3d b864 03be c4b8 0cbe 9171 e8bd
000001b0: 1f5f 0dbe 2892 ff3c 546e 71bd b0b9 b73c
000001c0: 14d2 063d ccaf 15be fad2 933d dfd2 083e
000001d0: 0277 8ebd c0af 54bc aede 5dbd 9167 a6bd
000001e0: 2c59 31bd da5d ff3d bd52 3dbd cc91 283d
000001f0: 6ac3 09be c6d7 b8bd da4a d83d bc08 3d3d
00000200: 490c 003e c893 423d 033a 3d3c 5e0e 30be
00000210: f6ec 0e3c 6058 27bd d994 35be f9ca eb3d
00000220: ac39 4d3d 4477 8f3c 2d9e 6abc cd20 063e
00000230: d58b 2f3e cc1b 923d 0944 abbc ad53 f1bd
00000240: baa2 94bd 02ee d13d 085c f7bd 9bad 8fbc
00000250: c4fe c0bd a1f2 0b3d c3ad 293e 11d3 9f3d
00000260: d590 b2bd 682a d9bc c254 2abe 9567 02be
00000270: 021e 44be e894 e2bd 969b c63d 2ccb ae3d
00000280: cf2a 40bd 06e5 e03d aa80 463d 1027 9fbd
00000290: cf3b 87bc 69a2 093e 7e7e 80bc f8f5 b23d
000002a0: 9495 f1bd e0a9 203d 0f83 453d aa2a 05be
000002b0: ff85 30be 91ee 063e 7d8f 9cbd e800 eebc
000002c0: b6b0 9ebd e072 0bbd 8253 e23d ce87 8b3c
000002d0: dad8 eb3d 064b 153e 2479 d8bd 41ff 2ebe
000002e0: 4be3 37be 9e79 6cbd 39f8 113e dbef b0bd
000002f0: 07fd ef3c 18b2 80bd a5ed f1bd 80f9 2c3e
00000300: a5fa c1bd 4027 e83b b229 30be 9c53 7ebd
00000310: 6bb3 9abc 8a6d 0abe 8a15 11bc 4db2 1d3d
00000320: e685 c13d b4d4 af3d c3d9 0ebc 28aa b93d
00000330: d0e2 3c3c 2f2e d4bd a4fe febc 897f 343e
00000340: ac6d ed3d 5b4a 213e 1a29 ea3d 6f8b 5b3c
00000350: f4b0 8d3d 0fac 26bd 94ae 3fbd 303f 92bc
00000360: 975d c73c 1c5b 6a3d 0f1a 70bd edd6 063e
00000370: 8f2b ed3d 386e e2bc c5dc ecbc e91d 4bbd
00000380: 18e1 293d 6028 383c 49f7 2abe d550 d2bd
00000390: e079 e1bd 4456 4a3d 1e9d 1cbe 7232 833d
000003a0: cdcf 033e d6af cb3d 7b94 12be b5a6 00be
000003b0: f742 34be cc15 33bd bba2 4a3d d80b 80bc
000003c0: bc27 9dbd 40af 1dbd 00a2 0abb feee d23d
000003d0: d06b 733c 40a0 d13b 30ad 53bd c4de 833d
000003e0: 6ea4 aebd abe5 093e 6491 c63b 3a7c 25be
000003f0: d0bc 01bd 3007 6f3d dea5 11be 16c8 923d

fc3.bias f4 [32]
-0.46134737 -0.4945914 -0.030710854 0.13646492 -0.12991127 -0.2986353 -0.120326184 -0.18401828
-0.17630558 -0.09181006 -0.055450473 0.02683468 -0.6684747 -0.39485136 -0.022653315 0.048402462
-0.2925219 -0.075373724 -0.3928825 -0.5428159 0.11261423 0.0893667 0.15924437 0.17425765
-0.08661967 -0.37435758 -0.012399144 -0.023023201 -0.5014367 0.11494985 0.060852043 0.13827418
00000000: b935 ecbe 153b fdbe 5495 fbbc 76bd 0b3e
00000010: 7607 05be bae6 98be 936d f6bd 4a6f 3cbe
00000020: 7389 34be ea06 bcbd 0920 63bd 67d4 db3c
00000030: 2821 2bbf f529 cabe 7293 b9bc a941 463d
00000040: 6ec5 95be 8a5d 9abd e527 c9be fcf5 0abf
00000050: 4aa2 e63d e305 b73d f510 233e 9970 323e
00000060: a765 b1bd ccab bfbe c725 4bbc 279b bcbc
00000070: 285e 00bf d46a eb3d fe3f 793d bf97 0d3e

fc4.weight f4 [8, 32]
0.3213937 0.12704074 0.11005513 -0.10213453 -0.0050672633 0.10558825 0.021823864 0.18842968
0.022724912 -0.12814555 0.07995288 0.098492995 0.342578 0.37089795 0.063215606 -0.015808571
0.06413066 0.1258081 0.26917833 0.31517506 -0.17367631 -0.06549749 0.027103588 -0.11735387
0.020608373 0.013508747 0.123615175 -0.09948693 0.3625886 0.034282073 0.08355408 0.16603087
0.3312982 0.6692352 0.07429151 0.022078192 0.050688166 0.12595563 0.11843018 0.18486547
0.03437874 -0.15312333 0.0009843409 0.026257403 0.41053778 0.36394617 -0.14520071 -0.16433698
-0.038810823 -0.010700156 0.274413 0.29502955 -0.12275659 0.13014893 -0.15431 0.079362676
-0.09286932 -0.0884732 0.03175279 0.1779881 0.28093162 0.1720725 -0.05516031 0.037056938
0.29560342 0.069649145 0.05783941 -0.0019470113 -0.046465218 0.03330294 0.1355538 0.16565672
-0.06372821 -0.024005175 -0.0968095 -0.13981211 0.30772683 0.40083396 0.16586924 -0.1374763
-0.056106407 0.08517403 0.3501139 0.24500811 0.021608472 -0.14810514 -0.0210101 0.04763922
-0.13444613 -0.13929795 -0.12113467 -0.13970073 0.29118222 0.06382847 0.06308165 0.05582601
0.34341395 0.03346141 0.16032486 0.07358201 0.08989866 -0.030526027 -0.030089289 -0.079260774
-0.04107099 -0.15702301 0.063606836 0.027939463 0.20486228 0.22069477 -0.10696307 -0.11227781
0.023482457 -0.16778667 0.4689751 0.33386406 -0.004342839 -0.04763688 0.16201226 0.09455858
-0.13104232 0.042238377 -0.004911057 -0.04228975 0.2694116 -0.12806115 -0.09594671 0.07435192
0.2352947 0.45577955 0.04717627 -0.13271323 0.03580345 -0.09314926 -0.068739705 -0.13651729
0.16699499 -0.055569924 0.044763736 -0.039545257 0.17066438 0.36682522 0.04363349 -0.118441164
-0.12828428 -0.0018334577 0.38983858 0.32360092 0.039024055 -0.0353626 -0.1199642 0.043152824
0.107788615 0.1497017 -0.11085577 -0.017382747 0.33158115 0.169816 -0.015651053 0.020987466
0.24495985 0.19285235 0.027740523 0.09503851 -0.017388927 -0.0001570424 -0.055364557 -0.1266466
-0.12973915 0.11414544 -0.0031904534 0.07755285 0.30658546 0.3327566 0.041571338 0.1041382
0.012683629 -0.090614125 0.2996578 0.3891076 -0.16635002 -0.10631438 0.12941281 0.024423555
-0.0011596285 0.33112356 0.033390276 0.026995005 0.37229145 0.06295763 0.12301719 0.059348613
0.2649556 -0.060586847 -0.15062687 -0.18067132 0.015755748 0.032715946 -0.017470106 0.1313788
0.16043949 0.016964406 0.0095888525 -0.0072187777 0.2771983 0.33405977 0.15068686 0.03451973
0.07129457 0.033267736 0.23663463 0.39915368 0.025939748 0.11560877 -0.15319456 0.0536827
0.013999224 0.10134761 0.13968974 -0.05776172 0.25588682 -0.10794132 -0.035873987 0.015986726
0.2739586 0.095959775 0.08358021 -0.098127596 -0.013974227 0.07549278 0.023574566 0.12734333
-0.04763397 -0.11773153 0.07302208 0.0991083 0.31588712 0.3996328 -0.011042205 -0.019357748
-0.03423398 0.123734385 0.18152562 0.36489454 0.16228981 -0.12931617 0.1326596 0.02928795
0.085482195 0.01414002 -0.11126735 -0.1417672 0.29845712 -0.0035270602 -0.09625651 -0.06011886
00000000: b78d a43e f816 023e 9664 e13d e92b d1bd
00000010: 490b a6bb a73e d83d f6c7 b23c b6f3 403e
00000020: 9829 ba3c 9638 03be 56be a33d b2b6 c93d
00000030: 6266 af3e 56e6 bd3e 2f77 813d fa80 81bc
00000040: ef56 833d d7d3 003e bed1 893e a05e a13e
00000050: 34d8 31be 8c23 86bd 5808 de3c 3a57 f0bd
00000060: e4d2 a83c cb53 5d3c f429 fd3d cebf cbbd
00000070: 37a5 b93e 5c6b 0c3d 671e ab3d ff03 2a3e
00000080: eb9f a93e 0053 2b3f 2626 983d 53dd b43c
00000090: 659e 4f3d 83fa 003e 868b f23d 604d 3d3e
000000a0: b9d0 0c3d 5dcc 1cbe 0005 813a c419 d73c
000000b0: 0232 d23e 2757 ba3e 7faf 14be f447 28be
000000c0: 19f8 1ebd b54f 2fbc dc7f 8c3e 1d0e 973e
000000d0: cf67 fbbd c345 053e 7103 1ebe e688 a23d
000000e0: 4532 bebd 7031 b5bd 370f 023d 8342 363e
000000f0: 45d6 8f3e c633 303e c7ef 61bd 04c9 173d
00000100: 5559 973e 36a4 8e3d 04e9 6c3d dc32 ffba
00000110: 5052 3ebd aa68 083d 9ece 0a3e eaa1 293e
00000120: f083 82bd 80a6 c4bc 0f44 c6bd e82a 0fbe
00000130: 5f8e 9d3e 1c3a cd3e a0d9 293e 96c6 0cbe
00000140: d5cf 65bd b96f ae3d 2142 b33e 68e3 7a3e
00000150: 4004 b13c e0a8 17be 601d acbc 5821 433d
00000160: 3fac 09be 1fa4 0ebe 7415 f8bd b50d 0fbe
00000170: d615 953e 80b8 823d f430 813d d0a9 643d
00000180: f4d3 af3e d50e 093d 332c 243e 2ab2 963d
00000190: ca1c b83d b811 fabc d07d f6bc 7953 a2bd
000001a0: 0e3a 28bd a4ca 20be 4d44 823d 4de1 e43c
000001b0: 6bc7 513e cffd 613e 740f dbbd e9f1 e5bd
000001c0: 485e c03c 45d0 2bbe 811d f03e 3bf0 aa3e
000001d0: 604e 8ebb e41e 43bd 8be6 253e eea7 c13d
000001e0: f52f 06be 2602 2d3d efec a0bb 0438 2dbd
000001f0: 51f0 893e 7622 03be b57f c4bd d245 983d
00000200: 18f1 703e f05b e93e e83b 413d fae5 07be
00000210: a3a6 123d 0ac5 bebd 67c7 8cbd 30cb 0bbe
00000220: bc00 2b3e 4a9d 63bd 2e5a 373d 35fa 21bd
00000230: a5c2 2e3e 84d0 bb3e 08b9 323d 4891 f2bd
00000240: f45c 03be a250 f0ba ec98 c73e 05af a53e
00000250: b0d7 1f3d 60d8 10bd caaf f5bd 04c1 303d
00000260: 47c0 dc3d 674b 193e 5a08 e3bd 4366 8ebc
00000270: 01c5 a93e 3fe4 2d3e a336 80bc e8ed ab3c
00000280: c1d6 7a3e 167b 453e 1840 e33c 8da3 c23d
00000290: 3973 8ebc c0ab 24b9 f2c5 62bd a5af 01be
000002a0: 57da 04be 16c5 e93d ed16 51bb 07d4 9e3d
000002b0: c5f8 9c3e 135f aa3e b546 2a3d 6946 d53d
000002c0: ffce 4f3c e693 b9bd bf6c 993e 1d39 c73e
000002d0: a957 2abe 5bbb d9bd cb84 043e e813 c83c
000002e0: adfe 97ba 0789 a93e 3ec4 083d a124 dd3c
000002f0: fc9c be3e eeef 803d 70f0 fb3d 8817 733d
00000300: 43a8 873e ea29 78bd ee3d 1abe e701 39be
00000310: 3312 813c 2801 063d 781d 8fbc 2a88 063e
00000320: 404a 243e f0f8 8a3c 901a 1d3c 7f8b ecbb
00000330: f0ec 8d3e e209 ab3e a84d 1a3e 8f64 0d3d
00000340: e302 923d c043 083d 5950 723e df5d cc3e
00000350: 987f d43c 4ac4 ec3d 09df 1cbe 64e2 5b3d
00000360: 005d 653c 568f cf3d d40a 0f3e 8e97 6cbd
00000370: 9903 833e 5710 ddbd 9af0 12bd 98f6 823c
00000380: 4d44 8c3e 8f86 c43d 1a2c ab3d 1ff7 c8bd
00000390: 28f4 64bc f59b 9a3d 731f c13c 4a66 023e
000003a0: d61b 43bd 3a1d f1bd 9a8c 953d 4bf9 ca3d
000003b0: f5bb a13e ac9c cc3e 5dea 34bc 2494 9ebc
000003c0: ee38 0cbd 7468 fd3d dae1 393e 75d3 ba3e
000003d0: 4d2f 263e 756b 04be ebd7 073e 48ed ef3c
000003e0: 4a11 af3d 8bab 673c 23e0 e3bd 6c2b 11be
000003f0: 5fcf 983e 4026 67bb 2222 c5bd 323f 76bd

fc4.bias f4 [8]
0.03473982 0.009692009 -0.011072716 -0.010388582 -0.05053207 0.058497515 0.15826246 0.11094317
00000000: 574b 0e3d 3bcb 1e3c 566a 35bc df34 2abc
00000010: b7fa 4ebd 179b 6f3d 8e0f 223e 2c36 e33d
