final-project-agar/store/nets/food_trained_cnn.pt (torch_old, 847455 bytes, 22 tensors)

convnet.0.weight f4 [32, 4, 8, 8]
-0.060905498 -0.008429392 0.047181554 -0.34129432 0.07852027 0.114918314 -0.17933808 -0.22167486
0.17870483 0.023320997 0.065422796 0.009770885 0.11708502 0.24612862 0.08024915 0.13029562
0.40000534 -0.2886443 0.04481288 -0.09129432 -0.17160566 -0.21818139 0.05387959 0.1095813
0.12260199 0.07892647 -0.34770662 0.12278763 0.11573425 0.40270606 0.32010168 0.117272556
0.26002815 6.011129e-05 0.027115097 -0.053888854 -0.011618 0.14280337 0.3230022 0.09244349
0.06542095 0.17632331 -0.09106753 -0.13316798 -0.27939057 0.051202737 -0.18176876 0.1863933
-0.08520669 -0.119339496 0.018636104 0.14968139 0.08562099 -0.35068962 -0.004088477 0.22209114
0.3350273 -0.002976924 -0.15728757 -0.10588088 0.09775524 -0.036195107 0.0661644 -0.034242883
0.47810084 0.26807123 0.04842776 0.010704793 -0.03511139 0.1670193 0.2033969 -0.112563334
-0.0012135094 -0.32177994 -0.32008445 0.028878123 0.104028225 0.17788889 0.007500794 0.42288536
-0.10550578 0.12242875 -0.20199157 -0.1347441 -0.10814843 0.5185476 0.16118099 0.027372962
-0.042575303 -0.083959155 -0.07820844 -0.09554927 0.17880721 0.26636648 0.15086238 -0.038901113
-0.006310668 0.33286446 -0.1737188 -0.3670432 0.43602267 -0.07014627 0.052881885 -0.058240976
0.0974063 0.11612787 0.19454499 -0.3840321 0.036199145 0.16822477 -0.2405282 -0.075932994
0.18550456 -0.09823101 0.1789265 -0.2988912 -0.16675633 -0.20626888 -0.0323633 -0.15267095
-0.10437145 0.121136755 0.45489433 0.14229913 -0.005826302 -0.40547848 0.37925652 0.12626107
0.49782878 0.17060837 0.2563674 0.015838295 -0.23716478 -0.022894269 -0.04524798 -0.11151534
0.35637274 -0.053893883 -0.032880485 -0.17742367 0.2366742 0.015339747 0.5041246 0.1670224
-0.12900583 -0.32619116 0.00079405383 -0.53111625 0.17259024 0.27797708 -0.18706764 -0.38254803
0.16242744 0.2976893 0.1394003 -0.13760549 0.25253654 0.59991175 -0.27999905 -0.13097285
-0.11885176 -0.11299791 0.16197647 -0.5437021 0.05076385 0.28781953 -0.29322186 -0.22100635
0.06548581 -0.045992702 0.12601452 -0.08485518 -0.09027216 0.039105173 -0.35604137 0.07176259
0.33207884 -0.15586181 0.21834584 -0.14789054 -0.25264332 -0.23505409 -0.03706574 0.20580734
0.07593007 0.08936855 0.2852004 0.030217618 -0.31857982 0.0060527236 0.016730212 0.19270542
0.15987088 0.16380268 0.3886713 -0.013401199 0.0008454883 -0.42061746 0.026040822 -0.17620946
-0.1102443 0.28798684 0.20117067 -0.80792284 -0.7206603 -0.0016763399 -0.19721855 -0.6660339
-0.02933871 0.3500685 0.22881375 -0.34390664 -0.43536082 0.85978055 0.44707045 -0.3950867
-0.2792467 0.001709615 0.0787864 -0.28558958 -0.17302865 0.6493624 -0.07976725 -0.10719433
0.35005844 0.1670396 0.32634097 0.06783941 0.08107593 0.58870375 -0.005601785 -0.33403313
0.052984733 -0.0640995 0.2546014 0.016026076 -0.24807855 0.23101752 -0.02629779 -0.07473729
0.31159243 -0.16124885 0.02777989 0.090188205 0.063419655 0.29022333 0.56998307 0.49954712
0.196288 -0.08970099 -0.0025346994 -0.092321046 0.1465285 0.17574134 0.1656523 0.041456502
00000000: 0b78 79bd 6f1b 0abc 7241 413d 21be aebe
00000010: 3ccf a03d 4b5a eb3d 67a4 37be bcfe 62be
00000020: 66fe 363e ad0b bf3c 63fc 853d 1016 203c
00000030: 45ca ef3d 2409 7c3e ab59 a43d 376c 053e
00000040: 80cd cc3e 30c9 93be b68d 373d 84f8 babd
00000050: 65b9 2fbe f16a 5fbe d8b0 5c3d 296c e03d
00000060: c116 fb3d 33a4 a13d 9a06 b2be 1578 fb3d
00000070: 1406 ed3d 7d2f ce3e 5ee4 a33e 982c f03d
00000080: 6922 853e 0220 7c38 7b20 de3c 8fba 5cbd
00000090: 6d59 3ebc 0c3b 123e 8b60 a53e 0353 bd3d
000000a0: 6bfb 853d 198e 343e 9d81 babd 305d 08be
000000b0: 480c 8fbe f6b9 513d 9721 3abe e3dd 3e3e
000000c0: d880 aebd 4468 f4bd beaa 983c 1446 193e
000000d0: 0f5a af3d 978d b3be a2f8 85bb dc6b 633e
000000e0: b388 ab3e 7f18 43bb fe0f 21be 13d8 d8bd
000000f0: e633 c83d 5241 14bd 3381 873d 4442 0cbd
00000100: a2c9 f43e a240 893e 305c 463d 2863 2f3c
00000110: f6d0 0fbd 1b07 2b3e 4747 503e 9b87 e6bd
00000120: 9e0e 9fba 57c0 a4be 1ce2 a3be d091 ec3c
00000130: c00c d53d 8128 363e 38c9 f53b 6e84 d83e
00000140: 6a13 d8bd edbb fa3d e1d6 4ebe 5bfa 09be
00000150: ed7c ddbd 89bf 043f a10c 253e 433d e03c
00000160: 7163 2ebd c7f2 abbd bf2b a0bd 56af c3bd
00000170: 3d19 373e 3061 883e ab7b 1a3e c656 1fbd
00000180: b8c9 cebb 366d aa3e 57e3 31be 16ed bbbe
00000190: 5d3e df3e d9a8 8fbd ad9a 583d 178e 6ebd
000001a0: f47c c73d 73d4 ed3d cd36 473e db9f c4be
000001b0: 8e45 143d 1d43 2c3e 064d 76be c282 9bbd
000001c0: e8f4 3d3e 572d c9bd 8238 373e 4408 99be
000001d0: 2cc2 2abe 2638 53be 618f 04bd c655 1cbe
000001e0: b3c0 d5bd 8c16 f83d e9e7 e83e ddb6 113e
000001f0: 90ea bebb e09a cfbe e92d c23e 954a 013e
00000200: 6ae3 fe3e f6b3 2e3e 9642 833e 50bf 813c
00000210: 53db 72be c38c bbbc f255 39bd 2862 e4bd
00000220: 7d76 b63e d5bf 5cbd b0ad 06bd 8dae 35be
00000230: b95a 723e 9053 7b3c 4f0e 013f ec07 2b3e
00000240: 1b1a 04be 8702 a7be 0d28 503a 3cf7 07bf
00000250: 7fbb 303e 0353 8e3e a98e 3fbe 56dd c3be
00000260: 6153 263e bb6a 983e f4be 0e3e 74e8 0cbe
00000270: 784c 813e d193 193f 095c 8fbe bf1d 06be
00000280: 8d68 f3bd 736b e7bd 29dd 253e 1030 0bbf
00000290: c1ed 4f3d 155d 933e 2d21 96be 7d4f 62be
000002a0: 6d1d 863d d862 3cbd f309 013e 8dc8 adbd
000002b0: 9ce0 b8bd bf2c 203d 0e4b b6be 44f8 923d
000002c0: 3d06 aa3e 3d9a 1fbe 0d96 5f3e 9e70 17be
000002d0: 775a 81be 05b2 70be 3fd2 17bd 29bf 523e
000002e0: 3981 9b3d dc06 b73d c905 923e f08a f73c
000002f0: e51c a3be ed55 c63b cc0d 893c 9254 453e
00000300: 31b5 233e e4bb 273e edff c63e b490 5bbc
00000310: c2a3 5d3a 2c5b d7be 9053 d53c 4170 34be
00000320: c3c7 e1bd 0373 933e afff 4d3e 08d4 4ebf
00000330: 327d 38bf a2b8 dbba a9f3 49be 3381 2abf
00000340: bc57 f0bc 2e3c b33e 274e 6a3e 8814 b0be
00000350: 9de7 debe 941a 5c3f 6be6 e43e ce48 cabe
00000360: 6cf9 8ebe 2915 e03a c45a a13d cc38 92be
00000370: 6c2e 31be 9d3c 263f 035d a3bd b388 dbbd
00000380: dc3a b33e 6e0c 2b3e 2a16 a73e 63ef 8a3d
00000390: 230b a63d 4ab5 163f 2e8f b7bb 6406 abbe
000003a0: 8506 593d 9946 83bd 1d5b 823e 1e49 833c
000003b0: 4e08 7ebe db8f 6c3e 776e d7bc dd0f 99bd
000003c0: 0b89 9f3e 6b1e 25be a792 e33c 98b4 b83d
000003d0: 2ae2 813d 2798 943e 69ea 113f a4c4 ff3e
000003e0: b9ff 483e 27b5 b7bd 331d 26bb d112 bdbd
000003f0: 910b 163e 8af5 333e c2a0 293e 4bce 293d

convnet.0.bias f4 [32]
-0.050634097 0.0059047025 -0.014987913 -0.05071027 -0.047093373 0.0012830875 0.007784263 -0.023871416
-0.03282911 -0.036517035 0.042390995 -0.064515464 0.022972886 -0.06814153 -0.03366642 -0.040512044
-0.061148383 -0.050945163 0.029194586 0.05570579 0.0659904 0.041289687 0.015091333 0.050148703
-0.049120408 0.034090865 0.024703559 -0.012195282 0.06546443 -0.021128066 0.028679997 0.03638607
00000000: b365 4fbd 3c7c c13b dd8f 75bc 92b5 4fbd
00000010: fbe4 40bd 462d a83a 2213 ff3b fd8d c3bc
00000020: d177 06bd e392 15bd 2ea2 2d3d af20 84bd
00000030: a231 bc3c c98d 8bbd cde5 09bd f5ef 25bd
00000040: ba76 7abd e0ab 50bd 7c29 ef3c c12b 643d
00000050: fa25 873d 601f 293d a341 773c ba68 4d3d
00000060: 7b32 49bd dda2 0b3d 1e5f ca3c b8ce 47bc
00000070: 3712 863d c414 adbc 50f2 ea3c 8f09 153d

convnet.2.weight f4 [32]
0.96451515 0.7715116 0.698391 1.0080922 1.4932181 0.8670477 0.8425776 1.3732463
0.74712247 1.0048349 1.2511778 0.6473673 1.2986135 0.7424038 1.2265763 0.8205311
1.4089897 1.3729389 0.95237494 0.8943687 0.72703075 0.9896084 1.0694908 1.1882915
0.71100605 1.216842 1.1107885 0.7749127 0.84081966 0.9866658 1.4233629 1.152587
00000000: 77ea 763f c981 453f c1c9 323f 2a09 813f
00000010: c521 bf3f d7f6 5d3f 2ab3 573f 89c6 af3f
00000020: 6b43 3f3f 6e9e 803f 9826 a03f ddb9 253f
00000030: f838 a63f 2d0e 3e3f 7400 9d3f 530e 523f
00000040: c659 b43f 76bc af3f d8ce 733f 59f5 643f
00000050: b01e 3a3f fa56 7d3f 13e5 883f f019 983f
00000060: 7e04 363f 7bc1 9b3f 512e 8e3f ae60 463f
00000070: f53f 573f 2196 7c3f c130 b63f f987 933f

convnet.2.bias f4 [32]
-0.53763103 -0.5945967 -0.40844867 -0.15311077 0.114988394 -0.9567394 -0.55775815 -0.12090378
-0.61281353 -0.70920324 -0.16125365 -0.52285665 -0.4250898 -0.54608005 -0.12681642 -0.65850943
-0.3799239 -0.14832892 -0.5112732 -0.22931589 -0.5932862 -0.3892201 -0.27353823 -0.33130974
-0.59948504 -0.20096637 -0.24698448 -0.2561379 -0.67961425 -0.3387358 -0.14987202 -0.7812086
00000000: 30a2 09bf 7d37 18bf 2f20 d1be 12c9 1cbe
00000010: 097f eb3d e0ec 74bf 3dc9 0ebf 679c f7bd
00000020: 59e1 1cbf 588e 35bf ad1f 25be efd9 05bf
00000030: 5fa5 d9be e7cb 0bbf 2adc 01be 1394 28bf
00000040: 6385 c2be 89e3 17be cde2 02bf c9d1 6abe
00000050: 9be1 17bf db47 c7be 340d 8cbe 6ea1 a9be
00000060: da77 19bf 21ca 4dbe 80e9 7cbe 8224 83be
00000070: 33fb 2dbf c76e adbe 0d78 19be 49fd 47bf

convnet.2.running_mean f4 [32]
1689.4651 594.33734 840.8219 3493.257 6347.4062 562.8132 2817.165 5195.281
-1021.8359 1652.4053 4487.267 533.9881 4835.577 945.7168 5403.3994 1846.5435
5371.3984 4951.2163 1057.0748 2775.9336 932.0097 3480.2517 2591.8643 3182.6765
-687.6832 4550.079 4013.4631 1026.1493 811.13245 3823.395 5878.8433 2417.2744
00000000: e22e d344 9795 1444 9a34 5244 1d54 5a45
00000010: 405b c645 0bb4 0c44 a412 3045 3f5a a245
00000020: 7f75 7fc4 f88c ce44 233a 8c45 3d7f 0544
00000030: 9e1c 9745 e06d 6c44 32db a845 64d1 e644
00000040: 30db a745 bbb9 9a45 6522 8444 f07e 2d45
00000050: 9f00 6944 0784 5945 d4fd 2145 d3ea 4645
00000060: baeb 2bc4 a230 8e45 69d7 7a45 c744 8044
00000070: 7ac8 4a44 52f6 6e45 bfb6 b745 6414 1745

convnet.2.running_var f4 [32]
18202.156 16247.738 23367.115 18560.623 47325.09 24939.16 25462.035 31091.066
47954.42 17125.117 28953.283 14403.007 30718.322 12887.615 32679.77 11637.841
32408.375 30651.76 12523.122 20115.0 15300.625 23532.312 17291.615 22112.354
46511.363 30969.59 26107.615 14237.485 15208.631 20439.904 34648.594 14728.131
00000000: 5034 8e46 f4de 7d46 3b8e b646 3f01 9146
00000010: 17dd 3847 52d6 c246 12ec c646 22e6 f246
00000020: 6c52 3b47 3cca 8546 9132 e246 070c 6146
00000030: a5fc ef46 765e 4946 8a4f ff46 5dd7 3546
00000040: c030 fd46 8577 ef46 7dac 4346 0026 9d46
00000050: 8012 6f46 a0d8 b746 3b17 8746 b5c0 ac46
00000060: 5daf 3547 2ef3 f146 3bf7 cb46 f175 5e46
00000070: 86a2 6d46 cfaf 9f46 9858 0747 8620 6646

convnet.4.weight f4 [64, 32, 4, 4]
-0.38905066 -0.12660365 -0.17122813 0.09283582 0.05527467 -0.40756202 -0.25674224 -0.15123318
-0.22487055 0.065507755 0.41145083 -0.15614983 0.0070102927 -0.21913363 0.07094136 0.120514326
-0.19879831 -0.32245636 -0.08830716 -0.3134039 -0.072902165 -0.37044334 -0.12837705 0.04416256
-0.17320369 0.52144307 0.37588882 -0.041807625 0.0143810725 0.19799061 0.13212173 0.096867375
0.23161376 -0.17492463 -0.37092695 -0.24320209 0.3094182 -0.1865554 -0.48795733 0.070802234
0.20985185 -0.6307777 0.04835462 0.2416795 -0.029378004 0.0771432 0.009209762 -0.072428495
-0.20961136 -0.3911576 -0.32932267 0.04865738 -0.11668233 -0.04737485 0.044954497 -0.020199446
-0.022228854 -0.4951952 -0.4434179 0.29173252 -0.16710432 0.30542374 -0.17674817 -0.1870186
-0.009473582 -0.19359753 0.25403804 0.095292546 -0.19672795 -0.4159059 -0.41384768 0.030746121
-0.36323792 -0.45739567 -0.75180817 -0.06993678 0.20072854 -0.01964642 -0.0067715333 0.06260355
0.053914297 -0.05423606 0.02486919 0.022912545 -0.15455624 -0.14603521 -0.63430756 -0.22462264
0.22173063 -0.31741914 -0.15420042 -0.17326808 -0.14544044 -0.6488843 0.28063023 -0.003048693
0.12737866 0.18338433 0.25309977 0.20868394 -0.16151033 0.11576241 -0.38492885 0.2250448
-0.023283374 0.33125812 -0.08521225 -0.30107304 -0.19255759 -0.34755972 -0.050568413 0.28514662
-0.081506826 0.36427748 -0.093703896 -0.66405183 -0.78121203 0.18205576 0.022962034 -0.28690305
-0.059872508 0.37300193 0.30769137 -0.4096151 -0.251497 -0.073688574 0.08221419 0.3711794
0.20374405 0.14428967 0.51126844 0.74372333 0.32421297 0.036010172 -0.03149054 0.1114178
0.3795322 0.022660512 -0.26618284 -0.14543985 0.31881624 -0.07474672 0.048083536 -0.109144844
-0.11859558 0.31087774 0.10969817 0.03314446 -0.28165042 -0.29130358 -0.67102754 0.00430799
0.37250096 0.015951192 -0.27865133 0.07176109 -0.39285383 -0.13018243 0.10911195 -0.07660514
-0.20732264 0.0971616 -0.015217154 0.35247824 0.12515531 0.13416529 -0.542756 0.17952272
0.35689095 -0.04679967 -0.38698226 0.1304997 0.031748112 0.2748374 -0.029790038 0.03469426
-0.34691215 -0.05194624 0.14361744 0.09049764 -0.03592804 -0.114826724 -0.18214399 -0.2957368
0.07771072 0.35999912 -0.16034667 -0.16014144 -0.09361354 0.15703201 0.05753965 -0.054445557
0.06917868 0.054524206 -0.007417327 -0.13764708 -0.26621142 -0.010380407 -0.3230302 -0.24663448
-0.04315452 0.05909311 -0.038359113 0.025173247 -0.04950329 -0.056826588 0.24040158 0.24317126
-0.27781492 -0.38935813 -0.2950879 0.05654921 0.119463876 -0.7973885 -0.19288339 0.058207292
-0.025038797 0.03511511 0.41139483 -0.5409184 -0.13931423 0.2130395 0.0011254208 0.14926118
0.20624964 -0.2868219 -0.6492228 -0.2439844 0.13695964 -0.10515681 -0.4347976 0.116424486
0.16898878 -0.31297055 -0.68195015 -0.032478917 -0.11338597 0.19379164 -0.4030338 -0.0019975586
0.21762775 -0.026927076 -0.03593838 -0.2245743 0.5639087 -0.1015928 -0.18028311 0.12993614
-0.20865513 -0.098239385 -0.24151795 0.2720612 0.043814305 -0.1776799 -0.30882353 0.012436049
00000000: a631 c7be 63a4 01be 6d56 2fbe b520 be3d
00000010: b167 623d f8ab d0be b873 83be dfdc 1abe
00000020: 7744 66be ee28 863d afa9 d23e bee5 1fbe
00000030: 99b6 e53b 9164 60be b449 913d 37d0 f63d
00000040: c991 4bbe 0019 a5be 62da b4bd 7a76 a0be
00000050: bb4d 95bd c0aa bdbe 4675 03be cde3 343d
00000060: 4f5c 31be 4b7d 053f 8074 c03e 793e 2bbd
00000070: 979e 6b3c 0dbe 4a3e eb4a 073e 6762 c63d
00000080: 282c 6d3e 711f 33be 23ea bdbe f809 79be
00000090: 106c 9e3e 6108 3fbe 8bd5 f9be c300 913d
000000a0: 67e3 563e a67a 21bf 7e0f 463d d57a 773e
000000b0: 24aa f0bc 41fd 9d3d 8be4 163c 6455 94bd
000000c0: 5ca4 56be cf45 c8be fb9c a8be f64c 473d
000000d0: 25f7 eebd 210c 42bd 3522 383d 4f79 a5bc
000000e0: 4919 b6bc 3a8a fdbe ac07 e3be f75d 953e
000000f0: 651d 2bbe 8060 9c3e 79fd 34be ce81 3fbe
00000100: 1537 1bbc 6e3e 46be 4611 823e bd28 c33d
00000110: 0d73 49be 9ef1 d4be d8e3 d3be 4adf fb3c
00000120: 52fa b9be c42f eabe 8076 40bf 043b 8fbd
00000130: c88b 4d3e 87f1 a0bc bde3 ddbb 4a36 803d
00000140: 3dd5 5c3d a126 5ebd 79ba cb3c 17b3 bb3c
00000150: fe43 1ebe 418a 15be fb61 22bf 7a03 66be
00000160: 5b0d 633e c384 a2be b7e6 1dbe 306d 31be
00000170: 57ee 14be 481d 26bf c4ae 8f3e 95cc 47bb
00000180: 8d6f 023e 1ac9 3b3e 4b96 813e 3eb1 553e
00000190: f762 25be d814 ed3d 6515 c5be 2572 663e
000001a0: c6bc bebc aa9a a93e c383 aebd 3f26 9abe
000001b0: d12d 45be 59f3 b1be d320 4fbd bdfe 913e
000001c0: 0ded a6bd 9482 ba3e d4e7 bfbd 4dff 29bf
000001d0: 83fd 47bf d36c 3a3e e01a bc3c f5e4 92be
000001e0: e03c 75bd 1cfa be3e b989 9d3e 12b9 d1be
000001f0: 37c4 80be 09ea 96bd ea5f a83d 3a0b be3e
00000200: 48a2 503e acc0 133e 7de2 023f a764 3e3f
00000210: 3eff a53e 677f 133d 39fc 00bd 042f e43d
00000220: 0b52 c23e 8aa2 b93c 1e49 88be 2fee 14be
00000230: e23b a33e cf14 99bd 3ef3 443d 5587 dfbd
00000240: 3de2 f2bd 5e2b 9f3e 6fa9 e03d 7cc2 073d
00000250: 7c34 90be be25 95be 76c8 2bbf 0a2a 8d3b
00000260: 72b8 be3e 13ac 823c 63ab 8ebe 7af7 923d
00000270: 2324 c9be 8b4e 05be 1676 df3d 28e3 9cbd
00000280: 634c 54be a9fc c63d 5f51 79bc 0778 b43e
00000290: b728 003e a062 093e 0ff2 0abf ced4 373e
000002a0: 69ba b63e 03b1 3fbd 8a22 c6be b7a1 053e
000002b0: 4f0a 023d 7db7 8c3e 3d0a f4bc 921b 0e3d
000002c0: 789e b1be 95c5 54bd 7310 133e d456 b93d
000002d0: 4829 13bd 462a ebbd f483 3abe d06a 97be
000002e0: cc26 9f3d ce51 b83e eb31 24be 1efc 23be
000002f0: 75b8 bfbd 00cd 203e b2ae 6b3d 4e02 5fbd
00000300: 8dad 8d3d c654 5f3d 0c0d f3bb 5bf3 0cbe
00000310: dd4c 88be 9512 2abc 3764 a5be c08d 7cbe
00000320: cbc2 30bd 9e0b 723d 721e 1dbd 2038 ce3c
00000330: f6c3 4abd ffc2 68bd d52b 763e e301 793e
00000340: c23d 8ebe f359 c7be c315 97be 25a0 673d
00000350: 7aa9 f43d a721 4cbf 3983 45be c56a 6e3d
00000360: 2a1e cdbc ddd4 0f3d 58a2 d23e a179 0abf
00000370: 64a8 0ebe 0727 5a3e db82 933a ecd7 183e
00000380: 1b33 533e 52da 92be 7733 26bf 0cd7 79be
00000390: 263f 0c3e 745c d7bd cb9d debe f66f ee3d
000003a0: 650b 2d3e ad3d a0be 4994 2ebf 9d08 05bd
000003b0: e736 e8bd 5171 463e 725a cebe 79e9 02bb
000003c0: cfd9 5e3e 2c96 dcbc 1f34 13bd cef6 65be
000003d0: 525c 103f e30f d0bd 239c 38be fb0d 053e
000003e0: b1a9 55be bb31 c9bd 7b50 77be 9b4b 8b3e
000003f0: a176 333d b8f1 35be 1e1e 9ebe 92c0 4b3c

convnet.4.bias f4 [64]
0.019773522 -0.010328622 -0.013768824 -0.031078298 -0.047336895 -0.033427835 -0.039189145 -0.0066216392
0.027533418 0.0171967 0.023848914 0.0046898667 -0.0052186335 -0.010279536 -0.029392753 -0.0077603823
0.027870273 0.028138898 0.039269377 -0.0063726795 -0.03886709 0.04651517 -0.029828416 -0.032537814
-0.01959795 -0.040069256 0.018207472 0.036573432 -0.021604104 0.007867797 -0.038083963 -0.017416218
0.028087594 0.033834063 -0.05349891 0.037529323 -0.019321105 0.03299898 0.046643738 0.008974089
-0.037022468 0.010461065 0.026178734 -0.022031872 -0.037660822 0.033932444 -0.0027136158 -0.0013054112
-0.02522078 0.018498762 -0.018223913 0.0043516466 0.033634286 -0.011234016 0.01914788 -0.020724833
0.01989563 0.0023115082 -0.02404503 -0.008839752 0.040896222 -0.011905852 0.005525802 0.038350902
00000000: 15fc a13c 6139 29bc a296 61bc ea97 febc
00000010: 55e4 41bd a0eb 08bd cc84 20bd 56fa d8bb
00000020: c38d e13c 18e0 8c3c cc5e c33c 74ad 993b
00000030: 1201 abbb 806b 28bc 12c9 f0bc ce4a febb
00000040: 3350 e43c 8c83 e63c edd8 203d e9d1 d0bb
00000050: 1933 1fbd b186 3e3d b95a f4bc 5f46 05bd
00000060: e18b a0bc a91f 24bd d627 953c 06ce 153d
00000070: 17fb b0bc efe7 003c eefd 1bbd 75ac 8ebc
00000080: f417 e63c 9695 0a3d ac21 5bbd 59b8 193d
00000090: 4b47 9ebc f029 073d 810d 3f3d 0f08 133c
000000a0: dfa4 17bd e364 2b3c c974 d63c 2f7c b4bc
000000b0: 3c42 1abd bffc 0a3d ebd6 31bb 551a abba
000000c0: cf9b cebc b78a 973c 514a 95bc 4298 8e3b
000000d0: 1bc4 093d e10e 38bc 04dc 9c3c 20c7 a9bc
000000e0: 29fc a23c ac7c 173b 15fa c4bc 9bd4 10bc
000000f0: cc82 273d c310 43bc c911 b53b d615 1d3d

convnet.6.weight f4 [64]
1.1328988 1.0894867 1.0183039 1.1157295 0.86348814 1.059589 1.0410998 0.979656
1.0728111 1.0398136 1.0905398 0.96106416 0.8332365 1.1052074 1.0664496 0.96504736
0.94144315 1.3719952 1.2372856 0.8948761 1.0091984 0.79340094 0.91018385 0.82037693
1.0525875 1.144273 1.0747203 1.102121 0.99630374 0.92567235 0.8722797 0.90588677
1.0570652 0.9513876 1.1451988 1.0036606 0.90013653 1.091722 0.8974466 1.0115973
1.2708721 0.94951814 0.8233985 1.0573616 1.11867 1.0628996 0.97656476 1.0325855
0.91657484 0.8901467 0.768571 1.0166253 0.76162755 0.9516467 0.98359805 1.0205681
1.1767933 1.0461001 1.1649462 0.84361726 0.98428184 0.9584879 1.0571544 0.85252184
00000000: d402 913f 4d74 8b3f c857 823f 39d0 8e3f
00000010: 8f0d 5d3f 9da0 873f c242 853f bcca 7a3f
00000020: e051 893f 9d18 853f cf96 8b3f 4d08 763f
00000030: fd4e 553f 7077 8d3f 6c81 883f 580d 773f
00000040: 6b02 713f 8a9d af3f 605f 9e3f 9a16 653f
00000050: 6a2d 813f 531c 4b3f cf01 693f 3904 523f
00000060: 30bb 863f 8a77 923f 6f90 893f 4d12 8d3f
00000070: c30d 7f3f ddf8 6c3f b94d 5f3f 32e8 673f
00000080: ea4d 873f 238e 733f e095 923f f377 803f
00000090: 596f 663f 8cbd 8b3f 0fbf 653f 057c 813f
000000a0: f0ab a23f 9f13 733f 3eca 523f a057 873f
000000b0: 9430 8f3f 180d 883f 2600 7a3f c32b 843f
000000c0: a6a4 6a3f a7e0 633f 12c1 443f c720 823f
000000d0: 06fa 423f 1e9f 733f 15cd 7b3f faa1 823f
000000e0: 2aa1 963f 9ce6 853f f51c 953f 4df7 573f
000000f0: e5f9 7b3f 775f 753f d650 873f df3e 5a3f

convnet.6.bias f4 [64]
-0.018057132 0.007062886 -0.62346435 -0.16946684 -0.41053137 -0.61640483 0.062307797 -0.23236886
-0.38931397 -0.17440753 -0.084420644 0.08008626 -0.45331717 -0.32424363 -0.21688089 -0.09490337
0.0028882467 -0.039666947 -0.11594633 -0.64571434 0.09354709 -0.2874604 -0.4147246 -0.47331327
-0.4473717 0.0019145466 -0.24209316 -0.3914402 -0.49935007 -0.39256907 -0.39866003 -0.8078499
-0.26994875 -0.4838458 -0.38089737 0.14036945 -0.50690657 -0.31547177 -0.2963782 -0.14727156
-0.44211406 -0.3547064 -0.35004234 -0.12546258 -0.33922324 -0.3984265 -0.063534014 -0.17360172
-0.45623657 -0.106898315 0.037783295 -0.41618508 -0.22602051 -0.06373608 -0.47335964 -0.23199652
-0.14351332 -0.18861853 -0.41772705 -0.22048967 -0.32957488 -0.2964626 -0.08076867 -0.16671206
00000000: 8dec 93bc c86f e73b 5c9b 1fbf b788 2dbe
00000010: 2b31 d2be b5cc 1dbf 7636 7f3d 1af2 6dbe
00000020: 2954 c7be e397 32be bbe4 acbd 4404 a43d
00000030: 3019 e8be 4303 a6be 0616 5ebe b35c c2bd
00000040: bd48 3d3b cf79 22bd 4575 edbd 894d 25bf
00000050: 9e95 bf3d 022e 93be c856 d4be 1e56 f2be
00000060: e70d e5be 86f1 fa3a 45e7 77be da6a c8be
00000070: d0aa ffbe d0fe c8be 2b1d ccbe 40cf 4ebf
00000080: b936 8abe a3ba f7be fb04 c3be 02bd 0f3e
00000090: a1c4 01bf 8485 a1be e2be 97be 5bce 16be
000000a0: c65c e2be 149c b5be c038 b3be 4379 00be
000000b0: abae adbe 8ffe cbbe 1f1e 82bd a6c4 31be
000000c0: d797 e9be 81ed dabd a8c2 1a3d 3616 d5be
000000d0: ec71 67be 1088 82bd 325c f2be 7f90 6dbe
000000e0: 28f5 12be 3725 41be 52e0 d5be 0bc8 61be
000000f0: 0abe a8be f2c9 97be 0b6a a5bd 91b6 2abe

convnet.6.running_mean f4 [64]
-2.558243 -3.0666726 0.80766577 -0.7125229 1.569136 3.1052244 -1.5619619 0.27466118
-0.89026445 4.5170317 -1.0836322 0.26164737 0.8068591 0.27772284 -4.529105 0.7254589
1.9741737 -3.2133954 -1.0271064 0.5987631 -0.7501385 -0.021606062 0.7615855 1.5434784
2.9401681 -5.1799865 3.3994904 0.12843555 3.9827867 1.0258418 0.14127222 3.4535708
5.773342 1.2081964 -0.3788701 -1.3685453 0.47617587 1.2537719 3.2424963 1.1485068
-1.4195707 3.0508425 5.175662 0.051022977 -0.7458189 0.9552674 0.41578206 0.8550696
-0.28359422 1.1433914 1.7526658 -0.11468112 1.4679424 2.2550929 2.565492 6.2270947
-1.8441652 1.1278965 0.2068856 -1.1740991 2.1572943 0.32735255 -3.9116304 1.129907
00000000: 41ba 23c0 5d44 44c0 2fc3 4e3f e767 36bf
00000010: 73d9 c83f ffbb 4640 5eee c7bf 64a0 8c3e
00000020: 5fe8 63bf 868b 9040 76b4 8abf a5f6 853e
00000030: 518e 4e3f b031 8e3e 6eee 90c0 adb7 393f
00000040: b9b1 fc3f 45a8 4dc0 3978 83bf 8a48 193f
00000050: 1409 40bf 32ff b0bc 44f7 423f b390 c53f
00000060: b72b 3c40 73c2 a5c0 4091 5940 9c84 033e
00000070: fae5 7e40 c94e 833f aaa9 103e 4e07 5d40
00000080: 38bf b840 2ea6 9a3f 43fb c1be 7e2c afbf
00000090: 53cd f33e 997b a03f 0f85 4f40 4502 933f
000000a0: 7eb4 b5bf 0141 4340 069f a540 78fd 503d
000000b0: fded 3ebf 688c 743f 63e1 d43e d7e5 5a3f
000000c0: 4333 91be a65a 923f 5a57 e03f efdd eabd
000000d0: 89e5 bb3f 7153 1040 0531 2440 5c44 c740
000000e0: 9b0d ecbf ea5e 903f d2d9 533e e148 96bf
000000f0: 1c11 0a40 c19a a73e 2758 7ac0 cba0 903f

convnet.6.running_var f4 [64]
17.942358 21.80887 10.224538 13.3969145 9.985433 12.686705 9.73943 6.1227803
5.914384 18.109219 8.485989 5.9428124 5.504549 7.871404 29.754623 8.524275
9.698718 32.301464 21.935919 10.371167 15.123546 5.9774117 6.434787 7.783969
10.2343 38.263847 23.672958 8.561453 14.266103 7.2172217 6.117444 13.838283
31.851147 5.7754292 10.512302 12.017364 7.7288284 7.8013926 17.617933 6.685727
16.80594 11.9616585 23.330185 8.515429 7.3640947 7.182519 6.609581 8.233526
5.624409 6.884379 9.572048 7.255304 7.222931 8.116494 8.268374 34.842976
10.80416 6.6744633 12.102289 12.107919 8.007576 8.357512 27.593586 6.704231
00000000: f389 8f41 9178 ae41 b597 2341 c359 5641
00000010: 55c4 1f41 befc 4a41 b5d4 1b41 d1ed c340
00000020: a242 bd40 aedf 9041 9cc6 0741 852b be40
00000030: 4425 b040 8be2 fb40 7809 ee41 6e63 0841
00000040: f32d 1b41 b334 0142 c37c af41 4df0 2541
00000050: 0bfa 7141 f546 bf40 c6e9 cd40 4616 f940
00000060: b1bf 2341 2e0e 1942 3862 bd41 b6fb 0841
00000070: f541 6441 7bf3 e640 1ac2 c340 9b69 5d41
00000080: 26cf fe41 51d0 b840 6432 2841 1f47 4041
00000090: 9052 f740 02a5 f940 87f1 8c41 7af1 d540
000000a0: 9172 8641 f462 3f41 38a4 ba41 323f 0841
000000b0: aaa6 eb40 32d7 e540 b081 d340 86bc 0341
000000c0: 29fb b340 d54c dc40 1c27 1941 732b e840
000000d0: 4022 e740 29dd 0141 434b 0441 355f 0b42
000000e0: d7dd 2c41 3495 d540 faa2 4141 09ba 4141
000000f0: 081f 0041 5fb8 0541 aabf dc41 0f89 d640

convnet.8.weight f4 [64, 64, 3, 3]
0.16565147 -0.18177626 -0.3937837 0.06868687 -0.20459096 -0.39556566 0.10562514 0.31829855
-0.02044555 0.1049398 0.21996336 -0.046990927 0.20787616 0.34075972 -0.19376369 -0.316541
0.18561053 -0.20155245 -0.23497908 -0.00621058 -0.04477759 -0.16638061 0.3297449 0.25494665
0.41716528 -0.46939433 -0.405615 0.19853449 -0.29362825 0.090736605 -0.42041773 -0.09147702
0.15711875 -0.19271813 -0.1464958 0.14566582 0.062766306 -0.7768839 0.08638545 -0.0058452166
0.24227428 0.12998334 0.11093907 0.062288277 0.11732465 0.08606007 0.03514332 0.26209924
-0.24469428 -0.22415258 0.073765546 -0.17097494 -0.30888957 -0.22559011 -0.3675913 0.1468513
-0.1097673 0.47487593 -0.20077372 0.2463032 -0.019296408 0.030890094 -0.1116076 0.095711544
-0.15395115 -0.10752781 -0.14564714 -0.07357152 0.21394366 0.45282602 0.23503579 -0.4975225
-0.46129006 0.107762694 0.26459637 0.29719952 -0.15160085 0.27790096 0.2372168 -0.26379138
-0.37316725 0.29311654 -0.13676788 -0.100972585 -0.026420627 -0.3442845 -0.03983749 -0.6179872
-0.37059292 -0.14397621 0.1220328 -0.122205935 0.06287039 -0.60213363 0.17070195 -0.39231512
0.25776175 0.07622858 0.020957572 0.3798927 -0.16464344 0.08095312 -0.19308858 -0.17046276
0.14426175 0.115852684 0.039425347 -0.037738714 0.10397483 0.13441922 -0.02276262 0.09033135
-0.16090955 0.12975557 -0.14402424 0.06046994 -0.27195513 -0.49602014 0.21506403 -0.2191173
-0.055445645 0.08174966 0.56060946 -0.25224528 0.24312602 0.33489582 -0.004020656 0.0359274
-0.16283226 0.1340081 -0.17684229 -0.34734246 -0.029771628 -0.14511065 -0.18930122 -0.20417891
-0.34159893 0.124418326 -0.24411911 -0.17175505 -0.0681349 0.48555556 -0.17629187 -0.526898
-0.5455471 0.2601602 0.13616961 -0.2324852 0.03392401 -0.4012819 0.05326852 0.055537
0.059319872 0.057904255 -0.10243379 -0.28084403 0.15462989 0.26404005 -0.2563468 -0.4456188
-0.03716557 0.108083464 -0.44441122 -0.06343232 0.1457896 -0.09950199 0.17942473 0.40782073
0.07347392 -0.06805513 -0.14969395 -0.22497003 0.29700822 -0.3096944 -0.029910658 -0.13688971
0.002190308 0.10299171 -0.13086653 0.1033375 0.077915005 0.06758556 -0.044670116 -0.03675214
0.042393703 0.12603131 0.15108939 -0.19899666 0.02312896 0.13606282 0.104306325 0.1640379
0.19499096 -0.04723583 0.3008717 -0.2401379 0.52623445 -0.14711346 -0.26626372 -0.15123765
0.22404674 0.19815812 -0.09156536 0.1065567 -0.23870824 -0.058139883 -0.4806558 -0.50326586
0.34094235 -0.39921287 -0.2014608 -0.24504596 -0.12370071 0.24047515 0.21108094 0.21871516
-0.011871055 -0.24806674 -0.052470025 0.07478532 -0.16705458 0.057591133 -0.0018470404 -0.3413924
0.15170304 0.13774182 0.014497301 -0.46090588 0.15904064 0.2035228 -0.35379645 0.119222455
0.17780119 -0.118582904 -0.3180495 -0.040948052 0.05096506 -0.15157925 -0.24612497 -0.25783387
-0.19702838 -0.16499805 -0.25463825 -0.34638116 0.21368782 -0.27613053 -0.0846688 -0.10407022
0.16100618 0.35710567 -0.3771145 -0.31707287 0.11341018 -0.15542634 0.17826833 0.058300033
00000000: 8aa0 293e 8e23 3abe 049e c9be b4ab 8c3d
00000010: 4b80 51be 9587 cabe fe51 d83d 07f8 a23e
00000020: 6d7d a7bc aeea d63d 133e 613e 8f79 40bd
00000030: 7ddd 543e 0f78 ae3e fd69 46be a911 a2be
00000040: b010 3e3e c463 4ebe 5b9e 70be 1f82 cbbb
00000050: b568 37bd ae5f 2abe 53d4 a83e 5e88 823e
00000060: b096 d53e 7454 f0be c5ac cfbe a04c 4b3e
00000070: 7156 96be 1dd4 b93d fe40 d7be 4e58 bbbd
00000080: bde3 203e e757 45be ff02 16be 6c29 153e
00000090: 9f8b 803d dde1 46bf dbea b03d 3b89 bfbb
000000a0: c016 783e 5a1a 053e 0634 e33d fe21 7f3d
000000b0: e847 f03d 4340 b03d 71f2 0f3d df31 863e
000000c0: 2391 7abe 4188 65be 6412 973d 0e14 2fbe
000000d0: c626 9ebe 1801 67be ed34 bcbe 3060 163e
000000e0: aecd e0bd f022 f33e a097 4dbe e836 7c3e
000000f0: 8013 9ebc 390d fd3c 8692 e4bd 6a04 c43d
00000100: 5fa5 1dbe 8a37 dcbd 8624 15be aaac 96bd
00000110: 0c14 5b3e d0d8 e73e 39ad 703e 45bb febe
00000120: 362e ecbe b0b2 dc3d 2d79 873e 892a 983e
00000130: 413d 1bbe 0949 8e3e f6e8 723e aa0f 87be
00000140: c70f bfbe 5f13 963e e10c 0cbe b7ca cebd
00000150: 1270 d8bc 0f46 b0be a32c 23bd 6934 1ebf
00000160: 5bbe bdbe 806e 13be 55ec f93d 1b47 fabd
00000170: 31c2 803d 6e25 1abf 7ecc 2e3e 87dd c8be
00000180: 59f9 833e bb1d 9c3d 37af ab3c 4c81 c23e
00000190: 4a98 28be c0ca a53d 03b9 45be ca8d 2ebe
000001a0: 5ab9 133e 2c44 ed3d 797c 213d e993 1abd
000001b0: c1f0 d43d 31a5 093e ad78 babc a5ff b83d
000001c0: 79c5 24be a5de 043e 177b 13be 54af 773d
000001d0: b43d 8bbe 5af6 fdbe bf39 5c3e 4960 60be
000001e0: f91a 63bd 5e6c a73d 1a84 0f3f 4b26 81be
000001f0: 07f6 783e 7777 ab3e b5bf 83bb 9c28 133d
00000200: 80bd 26be 6b39 093e 2516 35be dfd6 b1be
00000210: a1e3 f3bc e397 14be 2ed8 41be 4714 51be
00000220: 0ee6 aebe 09cf fe3d 5cfa 79be 8ee0 2fbe
00000230: 4f8a 8bbd bd9a f83e db85 34be cae2 06bf
00000240: faa8 0bbf b833 853e 0c70 0b3e 9a10 6ebe
00000250: e7f3 0a3d d274 cdbe 1730 5a3d c47a 633d
00000260: 65f9 723d 032d 6d3d cfc8 d1bd caca 8fbe
00000270: 4c57 1e3e 4230 873e e33f 83be 2628 e4be
00000280: ed3a 18bd dd5a dd3d de89 e3be cee8 81bd
00000290: de49 153e b3c7 cbbd 1ebb 373e e1cd d03e
000002a0: 7f79 963d 7d60 8bbd 5f49 19be 8b5e 66be
000002b0: 7611 983e 4490 9ebe 3207 f5bc d12c 0cbe
000002c0: 458b 0f3b 51ed d23d e001 06be 9ca2 d33d
000002d0: e791 9f3d 4c6a 8a3d 03f8 36bd 6989 16bd
000002e0: 05a5 2d3d 5a0e 013e 2db7 1a3e c8c5 4bbe
000002f0: f278 bd3c 0d54 0b3e 8e9e d53d 8df9 273e
00000300: b6ab 473e 5c7a 41bd db0b 9a3e b6e6 75be
00000310: 4db7 063f e9a4 16be b853 88be 0bde 1abe
00000320: 826c 653e f6e9 4a3e 9f86 bbbd 663a da3d
00000330: ef6f 74be 1624 6ebd 8418 f6be 08d6 00bf
00000340: ff8f ae3e a165 ccbe bd4b 4ebe 54ed 7abe
00000350: cc56 fdbd 1e3f 763e 9a25 583e def6 5f3e
00000360: d07e 42bc 3505 7ebe cfea 56bd 0c29 993d
00000370: 5b10 2bbe aee4 6b3d 6418 f2ba fcca aebe
00000380: 0b58 1b3e 310c 0d3e 1686 6d3c dbfb ebbe
00000390: 8ddb 223e 4868 503e cf24 b5be e72a f43d
000003a0: 8411 363e 98db f2bd 62d7 a2be 25b9 27bd
000003b0: bdc0 503d 9737 1bbe 2f08 7cbe cd02 84be
000003c0: cfc1 49be 40f5 28be f25f 82be df58 b1be
000003d0: fbd0 5a3e fb60 8dbe d666 adbd c422 d5bd
000003e0: cede 243e 8ed6 b63e 2715 c1be 6057 a2be
000003f0: 9943 e83d 1528 1fbe f98b 363e 04cc 6e3d

convnet.8.bias f4 [64]
0.011969719 -0.006650636 0.0151686575 0.00045334452 -0.02356823 -0.02845832 -0.009195206 -0.034294553
0.030586665 -0.021447454 -0.016107561 0.017427117 0.013637018 0.028909411 0.024306603 0.0162178
0.017195856 -0.0013989634 0.0034679659 -0.008704836 -0.01656437 0.0009108596 0.01166789 0.032098193
0.020866437 0.021391412 0.013534531 0.003345287 0.021826696 -0.015390893 -0.018240351 -0.024545576
-0.01849738 -0.03328953 0.016569778 -0.04198393 0.00019805913 -0.0035546047 0.024549136 -0.027707126
0.017410692 0.004460624 -0.031645454 -0.029325122 0.019249592 -0.01528509 0.035244755 -0.03605453
0.03672103 -0.0027338152 -0.011092841 0.031985715 0.00899731 -0.03760282 -0.013131325 0.0147442585
0.019833382 0.022835683 0.030920293 -0.017073704 -0.008806814 0.007363098 -0.040698912 -0.0037040794
00000000: a41c 443c 94ed d9bb f685 783c dfae ed39
00000010: 2912 c1bc 6c21 e9bc 7da7 16bc 7278 0cbd
00000020: e390 fa3c 92b2 afbc 01f4 83bc 50c3 8e3c
00000030: cd6d 5f3c 6ed3 ec3c a41e c73c 31db 843c
00000040: 53de 8c3c 6c5d b7ba d046 633b ba9e 0ebc
00000050: 00b2 87bc c1c6 6e3a ad2a 3f3c 6579 033d
00000060: 17f0 aa3c 0b3d af3c f0bf 5d3c 9a3c 5b3b
00000070: e6cd b23c 162a 7cbc ca6c 95bc ce13 c9bc
00000080: d187 97bc 9a5a 08bd 58bd 873c 57f7 2bbd
00000090: 18ae 4f39 5ff4 68bb 451b c93c 0efa e2bc
000000a0: dea0 8e3c 6d2a 923b aa9e 01bd 3d3b f0bc
000000b0: 52b1 9d3c 506e 7abc ce5c 103d eaad 13bd
000000c0: ca68 163d cf29 33bb bfbe 35bc 7403 033d
000000d0: 7469 133c 6a05 1abd c524 57bc e791 713c
000000e0: 9e79 a23c e611 bb3c 8e4c fd3c 27de 8bbc
000000f0: 754a 10bc 2546 f13b e7b3 26bd 24c0 72bb

convnet.10.weight f4 [64]
0.56105447 0.51322365 0.6813524 0.70577204 0.5495371 0.5665438 0.5953108 0.5563821
0.6960435 0.609222 0.5061699 0.48800546 0.5682404 0.5849691 0.55784863 0.5338521
0.6944598 0.6846452 0.66031486 0.5321584 0.46419647 0.7757711 0.6818424 0.48327821
0.7123724 0.651666 0.53565925 0.644286 0.56957966 0.57825196 0.49973813 0.6665116
0.5626202 0.74418956 0.6472523 0.72350365 0.4973886 0.5633998 0.6024364 0.8044492
0.67149514 0.45700637 0.55320984 0.47439125 0.766911 0.64573085 0.5676295 0.5508704
0.6573908 0.45839337 0.7247451 0.6674724 0.60592127 0.7741291 0.7907257 0.5167294
0.55693513 0.45576766 0.5110963 0.7689191 0.6920387 0.89774364 0.6667869 0.56647366
00000000: 44a1 0f3f a062 033f 1c6d 2e3f 7aad 343f
00000010: 77ae 0c3f 0409 113f 4a66 183f 0f6f 0e3f
00000020: e82f 323f f9f5 1b3f 5a94 013f dadb f93e
00000030: 3478 113f 89c0 153f 2bcf 0e3f 88aa 083f
00000040: 1ec8 313f e844 2f3f 650a 293f 883b 083f
00000050: 29ab ed3e ef98 463f 398d 2e3f 3e70 f73e
00000060: 0a5e 363f 95d3 263f f720 093f edef 243f
00000070: f9cf 113f 5208 143f addd ff3e 81a0 2a3f
00000080: e107 103f 3583 3e3f 54b2 253f 8937 393f
00000090: b8a9 fe3e f83a 103f 4639 1a3f 62f0 4d3f
000000a0: 1be7 2b3f bdfc e93e 299f 0d3f 69e3 f23e
000000b0: 4754 443f 9e4e 253f 2b50 113f d805 0d3f
000000c0: c34a 283f 89b2 ea3e e588 393f 79df 2a3f
000000d0: a81d 1b3f 532d 463f 006d 4a3f 6148 043f
000000e0: 4d93 0e3f 615a e93e 35d7 023f e2d7 443f
000000f0: 7329 313f 87d2 653f 8cb2 2a3f 6b04 113f

convnet.10.bias f4 [64]
-0.5641605 -0.5914441 -0.6518223 -0.75865513 -0.9249563 -0.6065331 -0.5932703 -0.46774682
-0.36096236 -0.56950545 -0.65135944 -0.7896118 -0.5810578 -0.40548286 -0.4219487 -0.6970148
-0.65474015 -0.4929812 -0.5463556 -0.5381446 -0.52525884 -0.13529542 -0.6411297 -0.6994384
-0.4801875 -0.62633455 -0.39106724 -0.24901013 -0.77380604 -0.5959977 -0.6477205 -0.36155903
-0.6270333 -0.23709698 -0.58636177 -0.09730785 -0.80220723 -0.50242627 -0.73087376 -0.20641328
-0.2936397 -0.5984227 -0.461936 -0.5200147 -0.24176429 -0.61144006 -0.54143375 -0.7117914
-0.38457683 -0.5288029 -0.23632346 -0.45126906 -0.84842974 -0.3581715 -0.1392411 -0.55617195
-0.87280875 -0.41990665 -0.5521321 -0.57405084 -0.41650075 -0.19842927 -0.17253573 -0.6796655
00000000: d36c 10bf e168 17bf d4dd 26bf 3937 42bf
00000010: f0c9 6cbf c145 1bbf 90e0 17bf 837c efbe
00000020: 0fd0 b8be 1ccb 11bf 7ebf 26bf 0024 4abf
00000030: 34c0 14bf 739b cfbe a909 d8be 906f 32bf
00000040: 0d9d 27bf 0868 fcbe f6dd 0bbf d8c3 09bf
00000050: 5d77 06bf e28a 0abe 1321 24bf 650e 33bf
00000060: 23db f5be 7657 20bf f739 c8be 83fc 7ebe
00000070: 2718 46bf 4e93 18bf 03d1 25bf 441e b9be
00000080: 4185 20bf 8dc9 72be ce1b 16bf 5749 c7bd
00000090: 745d 4dbf 029f 00bf 8b1a 3bbf 015e 53be
000000a0: f157 96be 3b32 19bf e082 ecbe af1f 05bf
000000b0: 0f91 77be 5687 1cbf 679b 0abf f637 36bf
000000c0: 41e7 c4be a05f 07bf c7fe 71be bd0c e7be
000000d0: b132 59bf 4162 b7be 3895 0ebe 4961 0ebf
000000e0: 6570 5fbf 01fe d6be 8858 0dbf fff4 12bf
000000f0: 963f d5be 0b31 4bbe 35ad 30be 8ffe 2dbf

convnet.10.running_mean f4 [64]
-5.854083 -7.3980556 -0.91234535 4.775102 -1.7168341 1.1774006 -5.0689545 -7.55053
-3.4194179 -3.1709352 -5.5042005 -2.6942468 -3.972921 -5.549595 -8.28896 -0.42724505
-5.9187317 1.6884483 -6.7426567 -0.44829765 0.84386754 -0.4614288 -1.0586351 -1.3973308
-5.404934 -8.285359 -3.389905 -0.76994383 -1.672154 1.4175274 -4.3005905 1.5263405
-0.54845846 -10.780693 -5.5168953 4.488861 -1.9205555 -0.10265462 10.4492 0.32683805
-9.200789 2.7971463 -3.3244345 -1.1045734 -0.97448385 -6.214717 -5.6712217 -5.0803022
0.4939121 -6.003696 0.87046117 -4.183926 -1.7386377 8.311437 -1.4447738 -1.3348366
-2.3495274 -2.0062249 -7.11008 -3.6590564 -11.588562 -4.9906573 -4.2124743 -2.247179
00000000: a654 bbc0 dfbc ecc0 778f 69bf a3cd 9840
00000010: 38c1 dbbf 10b5 963f e034 a2c0 f19d f1c0
00000020: bed7 5ac0 9af0 4ac0 6922 b0c0 8a6e 2cc0
00000030: 5644 7ec0 4896 b1c0 959f 04c1 ddbf dabe
00000040: 4066 bdc0 131f d83f d8c3 d7c0 4587 e5be
00000050: b407 583f 6540 ecbe 5b81 87bf bcdb b2bf
00000060: 38f5 acc0 d590 04c1 34f4 58c0 0a1b 45bf
00000070: 2409 d6bf 8a71 b53f 709e 89c0 205f c33f
00000080: c667 0cbf b87d 2cc1 688a b0c0 c0a4 8f40
00000090: c3d4 f5bf 963c d2bd ec2f 2741 5157 a73e
000000a0: 6f36 13c1 7204 3340 89c3 54c0 a962 8dbf
000000b0: c677 79bf f6de c6c0 a67a b5c0 d691 a2c0
000000c0: 0ce2 fc3e 471e c0c0 8bd6 5e3f b9e2 85c0
000000d0: ae8b debf a5fb 0441 59ee b8bf eddb aabf
000000e0: a85e 16c0 fd65 00c0 c685 e3c0 fb2d 6ac0
000000f0: c06a 39c1 77b3 9fc0 97cc 86c0 c8d1 0fc0

convnet.10.running_var f4 [64]
18.599442 11.571985 9.597917 16.393324 10.663673 15.202763 6.17217 16.027609
26.387247 15.728036 12.034424 8.802049 11.651893 19.25044 39.187077 7.924613
12.505287 43.54886 12.5758295 7.230475 10.78015 40.753403 24.702497 7.10944
27.738989 15.296625 12.12066 40.258823 6.3491087 11.168026 14.430128 30.4496
11.414436 48.17968 23.334507 92.031715 6.4025455 13.330365 31.930712 78.86774
41.019848 7.4963512 9.650322 14.865767 25.149292 28.011438 15.248018 10.097794
20.291681 10.556008 63.96859 22.714125 12.885285 76.12663 51.5793 8.386985
8.869665 11.662758 12.020357 12.618808 14.864149 82.58295 18.441193 7.9868865
00000000: a8cb 9441 da26 3941 1191 1941 8725 8341
00000010: 689e 2a41 843e 7341 6b82 c540 8b38 8041
00000020: 1519 d341 09a6 7b41 008d 4041 31d5 0c41
00000030: 276e 3a41 e700 9a41 91bf 1c42 6e96 fd40
00000040: a815 4841 0832 2e42 9936 4941 0d60 e740
00000050: 7f7b 2c41 7c03 2342 b79e c541 8880 e340
00000060: 73e9 dd41 fabe 7441 39ee 4141 0909 2142
00000070: e62b cb40 3cb0 3241 cee1 6641 c898 f341
00000080: 88a1 3641 feb7 4042 12ad ba41 3d10 b842
00000090: a7e1 cc40 2d49 5541 1972 ff41 48bc 9d42
000000a0: 5314 2442 1ce2 ef40 b867 1a41 2eda 6d41
000000b0: c031 c941 6d17 e041 e2f7 7341 9090 2141
000000c0: 5d55 a241 69e5 2841 d6df 7f42 87b6 b541
000000d0: 212a 4e41 d640 9842 3451 4e42 1731 0641
000000e0: 26ea 0d41 a89a 3a41 6253 4041 a3e6 4941
000000f0: 8ed3 6d41 782a a542 9087 9341 9394 ff40

fcnet.0.weight f4 [128, 1024]
-0.042394083 0.039370578 0.0037261024 -0.029534597 -0.03143687 -0.040993292 -0.001285165 0.0056267614
0.0013840669 0.0262284 -0.000105670086 -0.03133411 0.0014813673 0.0102678565 -0.0074009094 -0.04823885
-0.008722681 -0.026057454 -0.018304054 -0.030686002 -0.0077944966 0.033905473 -0.0004868182 -0.019945463
0.03130078 -0.008450727 -0.010308844 0.012498489 0.0079043275 0.0114522 -0.02366181 -0.013854534
0.010802785 -0.03539111 -0.042627662 -0.06514282 -0.022050234 -0.022862392 -0.004815821 -0.02238331
-0.05399411 0.036092207 -0.025275987 0.025513824 0.002220244 -0.040067162 0.0058527403 0.052595057
-0.0056630974 0.023212638 -0.006611136 -0.024824273 -0.013880432 -0.008970368 0.0014775316 0.03070901
-0.0079304 -0.0031521434 -0.02298597 -0.0026768176 -0.0013553231 -0.04005177 -0.038768493 -0.00977343
0.014103425 0.03433853 -0.040394086 0.033461504 -0.0012027932 -0.017481055 0.0058540413 -0.029029064
0.012715514 -0.02011673 -0.007122525 0.015211958 -0.001876901 -0.0019937914 -0.018827923 0.004198489
-0.024411818 0.00016117837 -0.07193562 0.008445262 -0.0117222695 -0.027773514 0.011797355 -0.025984196
-0.015315002 -0.0022808348 -0.0029866924 -0.027823543 -0.037558857 -0.026165944 0.043476447 0.07409761
-0.040752966 -0.040542293 0.0016807175 0.017745594 -0.006892832 0.025045348 -0.007214371 -0.05125705
-0.020774065 0.023780057 -0.016953107 0.017520435 0.023573196 -0.030505843 -0.0074676694 0.008587574
-0.007345026 0.016381506 -0.019879822 -0.01900793 -0.0065836622 0.0008716684 -0.01652093 0.024745489
0.007933208 -0.039446563 0.00039249362 -0.01507044 -0.019670742 -0.0040330873 -0.02734539 0.043788727
0.037143733 0.058586396 -0.02882198 -0.031758603 -0.022843726 0.005353958 0.0014758 0.020365546
0.012702716 -0.03436937 0.008960729 -0.023858624 -0.047021896 -0.039522327 0.021783886 -0.005612575
-0.04880452 -0.017828457 -0.07188488 -0.057952635 -0.0042778663 0.020693908 -0.022587044 0.017292842
-0.043800488 0.012688081 -0.016874645 -0.044803094 0.009149164 -0.029047666 -0.030111363 0.03655395
-0.035366837 -0.05009988 -0.000768712 0.01060407 -0.017573167 0.018505625 -2.5053998e-05 -0.024229934
-0.015257193 0.013417945 -0.009805224 -0.06613223 -0.015390419 -0.035011113 0.034187917 -0.028275726
0.055383842 0.025605807 0.026908426 0.0056194244 -0.038542684 -0.041180894 -0.019308383 -0.00027230356
0.022173615 0.013700688 -0.030734837 0.0027033836 0.014622429 -0.028890323 -0.0045604724 0.0151098315
-0.02163155 -0.032904472 -0.04641476 -0.013722443 -0.065176204 0.02810873 -0.027901063 -0.07945696
-0.009739941 0.014669016 -0.016173983 -0.028164567 -0.064169444 0.009088768 -0.0030475534 0.029686615
-0.019650575 -0.029936882 0.0030527215 0.022968128 -0.034155365 0.07313168 -0.0051443875 -0.008337968
-0.03043857 0.009181967 0.006059952 -0.034523416 0.019950654 -0.027244156 0.0047094715 -0.01893726
0.029024726 -0.009764946 -0.05450962 -0.058379702 0.0043217354 0.0017742164 0.011475418 0.0029028556
0.013391957 -0.010449373 0.009927649 0.024066057 -0.026584666 -0.011008332 0.010947676 0.0019761464
-0.0033886454 -0.053361196 -0.014030958 -0.05261683 0.015941469 -0.057327427 0.004280976 0.0043312395
-0.019720849 0.022939399 -0.012787888 -0.020821715 0.015141248 -0.012047406 -0.022947712 0.021355957
00000000: 6ba5 2dbd 0b43 213d a031 743b 8af2 f1bc
00000010: f3c3 00bd 95e8 27bd fb72 a8ba b260 b83b
00000020: 9469 b53a f1dc d63c 329b ddb8 3258 00bd
00000030: 702a c23a 833a 283c 5483 f2bb 1a96 45bd
00000040: 93e9 0ebc 7176 d5bc 62f2 95bc 3661 fbbc
00000050: fa68 ffbb 77e0 0a3d a23b ffb9 ab64 a3bc
00000060: 3f35 003d eb74 0abc 6de6 28bc 76c6 4c3c
00000070: 2781 013c 02a2 3b3c 6ad6 c1bc 21fe 62bc
00000080: 2afe 303c 45f6 10bd 589a 2ebd 9969 85bd
00000090: b1a2 b4bc e949 bbbc 09ce 9dbb 345d b7bc
000000a0: ee28 5dbd 6cd5 133d 960f cfbc 5e02 d13c
000000b0: 8381 113b 771d 24bd 58c8 bf3b ea6d 573d
000000c0: 8191 b9bb 6e28 be3c 3aa2 d8bb 465c cbbc
000000d0: c06a 63bc 73f8 12bc bca9 c13a 7691 fb3c
000000e0: 82ee 01bc 3194 4ebb 134d bcbc 8c6d 2fbb
000000f0: 19a5 b1ba 530d 24bd b6cb 1ebd bd20 20bc
00000100: 0d12 673c 8fa6 0c3d 4574 25bd ee0e 093d
00000110: 0ba7 9dba 6e34 8fbc 42d3 bf3b 5cce edbc
00000120: bb54 503c d7cb a4bc 1264 e9bb 943b 793c
00000130: 5902 f6ba 45aa 02bb 043d 9abc 7a93 893b
00000140: 4bfb c7bc fd01 2939 fb52 93bd ff5d 0a3c
00000150: c30e 40bc 4885 e3bc b149 413c cfdc d4bc
00000160: c6eb 7abc 0f7a 15bb 62bc 43bb 33ee e3bc
00000170: 51d7 19bd f659 d6bc 5c14 323d 7dc0 973d
00000180: 95ec 26bd ad0f 26bd 854b dc3a 355f 913c
00000190: 44dd e1bb e72b cd3c 8866 ecbb eaf2 51bd
000001a0: 5f2e aabc 65ce c23c 3ee1 8abc 0487 8f3c
000001b0: 931c c13c 64e7 f9bc 5ab3 f4bb e5b2 0c3c
000001c0: 8bae f0bb 8232 863c 02db a2bc 85b6 9bbc
000001d0: c3bb d7bb ad80 643a e756 87bc 0db7 ca3c
000001e0: 49fa 013c b892 21bd 9ac7 cd39 02ea 76bc
000001f0: 8924 a1bc fd27 84bb 7003 e0bc cf5b 333d
00000200: 0724 183d 4af8 6f3d 131c ecbc 4f15 02bd
00000210: c422 bbbc 4170 af3b a16f c13a a5d5 a63c
00000220: 0d1f 503c e6c6 0cbd 06d0 123c 2973 c3bc
00000230: 089a 40bd 2ae2 21bd 1f74 b23c b1e9 b7bb
00000240: 40e7 47bd fc0c 92bc 6138 93bd be5f 6dbd
00000250: 582d 8cbb 4586 a93c 7708 b9bc b8a9 8d3c
00000260: 2468 33bd abe1 4f3c b23c 8abc 7383 37bd
00000270: 60e6 153c 5ff5 edbc 1bac f6bc 98b9 153d
00000280: d1dc 10bd 8835 4dbd 6483 49ba b1bc 2d3c
00000290: 9af5 8fbc 1c99 973c 0d2b d2b7 db7d c6bc
000002a0: 4ef9 79bc f1d6 5b3c 17a6 20bc 5670 87bd
000002b0: 1928 7cbc d067 0fbd a108 0c3d 7fa2 e7bc
000002c0: 2bda 623d 45c3 d13c 0f6f dc3c 2623 b83b
000002d0: efde 1dbd 4cad 28bd 9d2c 9ebc f7c3 8eb9
000002e0: 71a5 b53c da78 603c a0c7 fbbc 402b 313b
000002f0: ea92 6f3c 66ab ecbc 0470 95bb 3a8f 773c
00000300: a634 b1bc d7c6 06bd 671d 3ebd 19d4 60bc
00000310: 1a7b 85bd 4844 e63c c590 e4bc 55ba a2bd
00000320: 4694 1fbc 5056 703c 4d7f 84bc 61b9 e6bc
00000330: 456b 83bd 0ee9 143c 76b9 47bb 5831 f33c
00000340: 3efa a0bc 313e f5bc 2b10 483b a827 bc3c
00000350: 7fe6 0bbd 10c6 953d 4092 a8bb f99b 08bc
00000360: 4f5a f9bc f66f 163c 9092 c63b 6d68 0dbd
00000370: 8e6f a33c 232f dfbc e951 9a3b 5022 9bbc
00000380: 43c5 ed3c 27fd 1fbc 7b45 5fbd 8e1f 6fbd
00000390: 589d 8d3b d38c e83a 6403 3c3c d63d 3e3b
000003a0: f069 5b3c d933 2bbc 94a7 223c 2e26 c53c
000003b0: 16c8 d9bc 4a5c 34bc e25d 333c 3c82 013b
000003c0: 0914 5ebb 4591 5abd 1ae2 65bc bf84 57bd
000003d0: af97 823c 2ad0 6abd 6e47 8c3b 12ed 8d3b
000003e0: 9e8d a1bc 68eb bb3c 4a84 51bc 4d92 aabc
000003f0: ff12 783c 7c62 45bc d7fc bbbc b0f2 ae3c

fcnet.0.bias f4 [128]
-0.0104587125 -0.066237874 -0.0552812 -0.0044868304 -0.033882566 -0.09631749 -0.007927372 -0.027606728
-0.027618827 0.39771858 -0.04825531 0.0048080897 -0.062894404 -0.035810217 -0.0399587 -0.014578898
-0.017432097 -0.018889682 -0.043565452 -0.015222329 -0.029042145 -0.02206262 -0.026189938 -0.039085675
-0.025973164 -0.02659097 -0.03558656 -0.05362453 -0.04822076 -0.013019955 -0.051237565 -0.065582275
-0.06729194 -0.018112745 -0.036102243 0.003575223 -0.024893984 -0.009666588 -0.06972164 -0.033519622
0.0026240034 0.01276818 -0.005712691 -0.026320431 -0.026373519 -0.05542606 -0.031396557 -0.028670773
-0.053308185 -0.009515241 -0.060590956 -0.031469688 -0.028917091 -0.051314473 -0.05164358 -0.043699138
0.0058570155 -0.020495594 -0.043319676 0.007867984 -0.013787831 -0.009420205 -0.041486524 -0.047488466
-0.024978992 -0.029385071 -0.08918597 -0.036349226 -0.022068901 -0.026162703 0.2226056 -0.05609172
-0.03988331 -0.06684071 -0.026854133 -0.013918827 -0.0291811 -0.027667055 -0.041535974 -0.0600355
-0.008919755 -0.01918056 0.7513093 -0.02922193 -0.053420316 -0.026264625 -0.042436972 -0.03178158
0.002521011 -0.05904142 0.43616113 -0.03921477 -0.015770394 -0.02593292 0.12194768 -0.036399104
-0.041841574 -0.06335379 -0.005990672 -0.00035511618 -0.0025201966 -0.04279717 -0.011212649 -0.023323327
-0.060388632 -0.0102965925 -0.050197437 -0.041356448 -0.036462083 -0.0281988 -0.016800854 -0.11733277
-0.04603361 -0.014397242 -0.0008116143 -0.05385831 0.47750717 -0.023626175 -0.020596627 0.015214025
-0.027576325 -0.0040759556 -0.020716827 -0.030965487 -0.023969192 -0.043129522 -0.06661951 -0.03829973
00000000: 055b 2bbc b9a7 87bd 8a6e 62bd 4306 93bb
00000010: 72c8 0abd 1b42 c5bd cfe1 01bc 8127 e2bc
00000020: e140 e2bc c5a1 cb3e 5ca7 45bd 2e8d 9d3b
00000030: c8ce 80bd bcad 12bd bcab 23bd 55dc 6ebc
00000040: c2cd 8ebc 89be 9abc b071 32bd 1367 79bc
00000050: cbe9 edbc abbc b4bc 488c d6bc 4d18 20bd
00000060: acc5 d4bc 4ed5 d9bc 36c3 11bd 65a5 5bbd
00000070: 2283 45bd a651 55bc 7bde 51bd 0050 86bd
00000080: 5bd0 89bd 2e61 94bc f2df 13bd 4a4e 6a3b
00000090: 78ee cbbc 9c60 1ebc 38ca 8ebd df4b 09bd
000000a0: 79f7 2b3b a131 513c 8731 bbbb f29d d7bc
000000b0: 470d d8bc 7006 63bd ad99 00bd f8de eabc
000000c0: af59 5abd d0e5 1bbc 392e 78bd 5ce6 00bd
000000d0: 89e3 ecbc 202f 52bd 3888 53bd defd 32bd
000000e0: 35ec bf3b 60e6 a7bc f96f 31bd b7e8 003c
000000f0: 5be6 61bc 3457 1abc c6ed 29bd 4483 42bd
00000100: bea0 ccbc f6b8 f0bc 22a7 b6bd ede2 14bd
00000110: d7c9 b4bc 2a53 d6bc b9f2 633e 6ec0 65bd
00000120: af5c 23bd c8e3 88bd 33fd dbbc cb0b 64bc
00000130: 340d efbc 05a6 e2bc a021 2abd c9e7 75bd
00000140: 2a24 12bc 8d20 9dbc ce55 403f d462 efbc
00000150: 43cf 5abd e928 d7bc 64d2 2dbd 672d 02bd
00000160: 8c37 253b 6bd5 71bd 8350 df3e ab9f 20bd
00000170: ea30 81bc 4671 d4bc b5bf f93d 3a17 15bd
00000180: 1262 2bbd a2bf 81bd 664d c4bb e32e bab9
00000190: e229 25bb 164c 2fbd 42b5 37bc 9010 bfbc
000001a0: 125a 77bd 0ab3 28bc d49b 4dbd 6165 29bd
000001b0: 4459 15bd 2b01 e7bc f2a1 89bc 2a4c f0bd
000001c0: bd8d 3cbd 69e2 6bbc 84c2 54ba 889a 5cbd
000001d0: d27b f43e ae8b c1bc 42ba a8bc 3f44 793c
000001e0: bfe7 e1bc 988f 85bb 56b6 a9bc 55ab fdbc
000001f0: 0a5b c4bc 95a8 30bd cf6f 88bd 2de0 1cbd
