final-project-agar/store/nets/full_food_pretrained_trained_cnn.pt (torch_old, 847455 bytes, 22 tensors)

convnet.0.weight f4 [32, 4, 8, 8]
0	0xbe0a4162	-0.13501504
1	0x3cdb6c93	0.02678517
2	0x3da9cd84	0.08291152
3	0xbe8dfd46	-0.27732295
4	0x3d8e2b56	0.069418594
5	0xbce1bc6b	-0.027555665
6	0xbda03439	-0.07822461
7	0xbdd8e248	-0.10590035
8	0x3e64e1ff	0.22351836
9	0x3dbfcf15	0.0936567
10	0x3dcbaac9	0.09944684
11	0xbdf5c838	-0.12001079
12	0xbdb9821d	-0.0905802
13	0x3e38e54d	0.18056221
14	0x3d0c1f3e	0.034209482
15	0x3e03f01a	0.1288456
16	0x3f11d3c5	0.5696376
17	0xbe5e91b7	-0.21735273
18	0x3e62fdb6	0.22167096
19	0x3e16ae8a	0.14715019
20	0xbd57486a	-0.052559294
21	0xbe609763	-0.2193275
22	0xbce8c592	-0.028414521
23	0x3e013db2	0.12621191
24	0x3e870bbc	0.2637614
25	0x3e8b6ead	0.27232876
26	0xbe840125	-0.25782123
27	0x3e89d580	0.269207
28	0x3e68fe7a	0.22753325
29	0x3ebd9147	0.370249
30	0x3e91bf62	0.28466326
31	0x3e428c37	0.189988
32	0x3e960b32	0.29305416
33	0xbc445299	-0.011982583
34	0xbde4ca4a	-0.11171396
35	0xbe270b0b	-0.16312806
36	0xbe1c2441	-0.15248205
37	0xbe432be9	-0.19059719
38	0x3ded84d1	0.11597598
39	0xbc3e0838	-0.011598639
40	0x3e03d439	0.12873925
41	0x3e859087	0.26086828
42	0xbd9c0fd0	-0.076202035
43	0xbde11fd9	-0.109924026
44	0xbdb63388	-0.088965476
45	0x3a5cb977	0.00084199704
46	0xbe54e4f7	-0.20790468
47	0x3e2aaab5	0.16666682
48	0xbd9e1428	-0.07718688
49	0xbde3649e	-0.111031756
50	0xbcc48f4d	-0.023994112
51	0x3e917e87	0.28416845
52	0x3dd50f4f	0.104033105
53	0xbeb8dc4a	-0.36105567
54	0xbdc4c8b3	-0.09608593
55	0x3e6c2365	0.23060377
56	0x3e8c67c0	0.27422905
57	0x3d4ad876	0.04952284
58	0x3c64be19	0.013961338
59	0xbcda24e2	-0.026628915
60	0x3d38d55e	0.045125358
61	0xbce7e958	-0.02830951
62	0x3df90f8d	0.12161169
63	0xbc41bd06	-0.011824852
64	0x3ef924a7	0.48660776
65	0x3e9e9e43	0.3098012
66	0xbd21b042	-0.039474733
67	0x3d5e6026	0.054290913
68	0x3d5aa091	0.053375784
69	0x3e831c88	0.25607705
70	0x3e902a37	0.28157207
71	0xbdd7b7fc	-0.10533139
72	0x3cffc078	0.031219706
73	0xbe8a752d	-0.27042523
74	0xbeb656f1	-0.35613206
75	0xbd02c406	-0.031925224
76	0x3d4aa26f	0.049471315
77	0x3e89c066	0.269046
78	0xbd3090c3	-0.043106806
79	0x3eda6dca	0.42661887
80	0x3d68f5ab	0.056874912
81	0x3cb17916	0.021664184
82	0x3c5d1b84	0.01349533
83	0xbd5b2d1b	-0.053509813
84	0xbe6f2adc	-0.23356193
85	0x3eff693e	0.4988498
86	0x3d910e66	0.070828244
87	0x3d00f4ae	0.031483345
88	0x3b8f3186	0.0043699173
89	0x3d03ae0b	0.032148402
90	0xbe517566	-0.2045494
91	0xbe7aeed7	-0.24505173
92	0x3dd9f44d	0.106423
93	0x3d9752b4	0.07388821
94	0xbd9bb8d3	-0.07603612
95	0xbe63c31a	-0.22242394
96	0x3ca880c9	0.020569222
97	0x3ec128e1	0.377265
98	0xbeb5fde3	-0.35545263
99	0xbf2ae5c1	-0.66756827
100	0x3e963c77	0.29343006
101	0xbe8e5a9b	-0.278035
102	0xbcad9215	-0.021187821
103	0xbe8416b1	-0.25798562
104	0x3d8ad82b	0.06779512
105	0x3e09489d	0.13406606
106	0x3dd27ff8	0.10278314
107	0xbed64263	-0.41847524
108	0x3db5e868	0.088822186
109	0x3d5a8b3a	0.053355433
110	0xbe8bdc61	-0.27316573
111	0xbe869928	-0.26288724
112	0xbddaf26e	-0.10690771
113	0xbe840549	-0.25785282
114	0x3e38a66d	0.18032236
115	0xbe0dd654	-0.13851291
116	0xbe2fcf95	-0.1716903
117	0xbea7311b	-0.32654652
118	0xbe3b360d	-0.18282337
119	0xbe3d24a9	-0.18471016
120	0xbea8c5d6	-0.32963437
121	0x3d3fc010	0.046814024
122	0x3f094540	0.5362129
123	0x3e66e757	0.22549187
124	0xbd94f996	-0.07274167
125	0xbefc7922	-0.49311167
126	0x3ec972be	0.39345354
127	0x3ddfaefa	0.10922046
128	0x3f121310	0.5706034
129	0x3e8398f6	0.25702637
130	0x3e98493a	0.29743367
131	0xbdaef7f4	-0.08543387
132	0xbe00d12f	-0.12579797
133	0x3dd09ad2	0.1018578
134	0x3dc9c568	0.098521054
135	0xbe1d723a	-0.15375605
136	0x3ecf491b	0.40485463
137	0xbe19d4ef	-0.15022634
138	0xbcf3a2fb	-0.029740801
139	0xbbfdc551	-0.007744469
140	0x3f0010b2	0.50025475
141	0x3db10b00	0.08644676
142	0x3f25edb8	0.64815855
143	0x3e933815	0.28753725
144	0xbde25601	-0.1105156
145	0xbe7cc778	-0.24685466
146	0xbdb67d31	-0.08910597
147	0xbf1527b4	-0.5826371
148	0x3dd1f266	0.10251312
149	0x3e5c0637	0.21486746
150	0xbe9cf347	-0.30654356
151	0xbe8e82c8	-0.27834153
152	0x3e3d30cd	0.18475647
153	0x3e6e193e	0.23251817
154	0xbd4a828d	-0.04944091
155	0xbe86692f	-0.26252124
156	0x3e1200e5	0.14258154
157	0x3ed007b1	0.40630868
158	0xbf1722e3	-0.5903761
159	0xbebcc27b	-0.36867127
160	0xbe240f60	-0.1602149
161	0xbdfd0db3	-0.123561285
162	0xbdda23e0	-0.10651374
163	0xbf4beda9	-0.79659516
164	0xbd896b80	-0.06709957
165	0xbd832169	-0.06402857
166	0xbea6fbac	-0.32613885
167	0xbeca963f	-0.39567754
168	0xbc663d45	-0.014052694
169	0xbdf078e6	-0.117418095
170	0x3b7e5ed1	0.003881384
171	0xbe56bbba	-0.2097005
172	0xbe9255bf	-0.28581044
173	0xbe5cf925	-0.21579416
174	0xbedebcc1	-0.43503383
175	0xbcae4a00	-0.02127552
176	0x3dc9fe1d	0.098629214
177	0xbec7ec5a	-0.3904751
178	0x3dfc16e7	0.12309056
179	0xbe77ec2e	-0.24211189
180	0xbed0c8df	-0.40778252
181	0xbf0910e0	-0.53541374
182	0xbe9eeb78	-0.31039023
183	0x3da19810	0.07890332
184	0xbeb000b9	-0.3437555
185	0xbd006bb2	-0.031352706
186	0x3eb30980	0.34968185
187	0xbd13ad3a	-0.036053874
188	0xbe86e418	-0.26345897
189	0xbd947b97	-0.072501354
190	0x3d9936e0	0.0748117
191	0x3e5b4465	0.21412809
192	0x3ed472ab	0.41493735
193	0x3cc4d1e8	0.024025872
194	0x3ecf06b0	0.4043479
195	0x3d3377e3	0.043815505
196	0x3e80595a	0.2506817
197	0xbea3c5bc	-0.31986797
198	0x3dea4919	0.114397235
199	0xbe8a665d	-0.27031222
200	0xbd6a8385	-0.057254333
201	0x3e43bbc8	0.19114602
202	0x3e2f0b39	0.17094125
203	0xbf81172b	-1.0085195
204	0xbf280385	-0.6563037
205	0x3e9c4532	0.30521542
206	0x3d32c559	0.043645237
207	0xbf08a7c3	-0.53380984
208	0x3e13bdac	0.14427823
209	0x3f076571	0.5288916
210	0x3e0a4e7a	0.13506499
211	0xbeb55ed4	-0.3542391
212	0xbec26333	-0.37966308
213	0x3f8442cb	1.0332884
214	0x3f2d41aa	0.6767832
215	0xbe136448	-0.14393723
216	0xbe97b68c	-0.2963146
217	0x3dae00c4	0.0849624
218	0x3e4e1c68	0.20128024
219	0xbcd7f022	-0.026359621
220	0x3b54cdb5	0.0032471244
221	0x3f492681	0.7857438
222	0xbc74c625	-0.014939819
223	0xbe09838d	-0.13429089
224	0x3e8b02e8	0.27150655
225	0x3ea9b2fa	0.3314436
226	0x3eeab33b	0.45839867
227	0x3d9d16e5	0.076703824
228	0x3e1329e0	0.14371443
229	0x3f6f4ef1	0.9347983
230	0x3d6ab7be	0.057304136
231	0xbeaded84	-0.33970273
232	0x3dc53ace	0.09630357
233	0x3db648b7	0.08900588
234	0x3eeb7f45	0.45995536
235	0xbc4b8bd2	-0.0124234725
236	0xbe0e1107	-0.13873683
237	0x3ea4bc40	0.32174873
238	0x3e1155f0	0.14192939
239	0xbd1538e2	-0.0364312
240	0x3e02e01f	0.12780808
241	0xbe71f4f0	-0.23628592
242	0x3e6d601b	0.23181193
243	0x3ead245c	0.33816803
244	0x3e842e5a	0.25816613
245	0x3ed286b7	0.41118404
246	0x3f597a8d	0.8495262
247	0x3f56ae94	0.83860135
248	0xbe04fefb	-0.12987892
249	0xbe50ae00	-0.20378876
250	0x3e32cf8d	0.17461987
251	0x3ea605ee	0.324264
252	0x3ec0d2e2	0.3766089
253	0x3e83915e	0.25696844
254	0x3ec70c4e	0.38876575
255	0x3e9bc05b	0.30420193

convnet.0.bias f4 [32]
0	0x3e0dcff8	0.13848865
1	0x3e0f64af	0.14003251
2	0xbd2fac27	-0.042888787
3	0xbb953315	-0.0045532086
4	0xbd23eb8e	-0.040019564
5	0xbe12694e	-0.14297983
6	0xbd14f0a2	-0.036362298
7	0x3cdcab63	0.026937192
8	0xbdd5e4f4	-0.1044406
9	0xbca4024f	-0.020020632
10	0xbd11b148	-0.03556946
11	0xbe30c51c	-0.17262691
12	0xbd171e88	-0.03689435
13	0x3b210783	0.0024571128
14	0xbd41207e	-0.047150128
15	0x3cd8906f	0.026436059
16	0xbc0679f5	-0.008207788
17	0xbcd27eee	-0.02569529
18	0x3d9ebf4d	0.077513315
19	0xbdb48e36	-0.08816187
20	0xbd18a116	-0.037263
21	0x3e1a9013	0.15094022
22	0xbdd2ce89	-0.102933
23	0x3d8e0192	0.06933893
24	0xbc52d29b	-0.012867595
25	0x3d6b254a	0.05740861
26	0x3d8a1252	0.067417756
27	0x3d1cf1d7	0.038316574
28	0x3daf1e3c	0.085506886
29	0x3d620615	0.05518158
30	0xbd81b403	-0.06333163
31	0x3da01544	0.07816556

convnet.2.weight f4 [32]
0	0x3f4ef2bc	0.80839133
1	0x3f46d1c3	0.7766382
2	0x3f23f352	0.6404315
3	0x3f87a39e	1.0596807
4	0x3fd608c8	1.672143
5	0x3f6bc195	0.9209226
6	0x3f60d51b	0.87825173
7	0x3fbd0846	1.476815
8	0x3f485bf6	0.7826532
9	0x3f8a6f89	1.0815288
10	0x3fa8903a	1.3169014
11	0x3f22217d	0.6333235
12	0x3fa6e0c1	1.303734
13	0x3f4f8ac2	0.810711
14	0x3fa8bbbf	1.3182296
15	0x3f656bea	0.8961779
16	0x3fc34061	1.5254022
17	0x3fab5880	1.3386383
18	0x3f376d3d	0.7165106
19	0x3f6a2319	0.91459805
20	0x3f337722	0.7010366
21	0x3f82c0cb	1.0215086
22	0x3f771cd0	0.9652834
23	0x3fa20f2f	1.2660884
24	0x3f4325d4	0.76229596
25	0x3fa6e464	1.3038449
26	0x3fa2f79c	1.2731814
27	0x3f4fdd35	0.8119691
28	0x3f54b8f6	0.8309473
29	0x3f8ac356	1.0840862
30	0x3fd47393	1.659777
31	0x3f9fcba5	1.2484022

convnet.2.bias f4 [32]
0	0xbf653a47	-0.8954205
1	0xbf0e233c	-0.55522513
2	0xbecebf48	-0.4038031
3	0xbea194f5	-0.31558958
4	0x3e0e5853	0.1390088
5	0xbf58d9a7	-0.8470711
6	0xbf03e537	-0.5152163
7	0xbeb562dd	-0.3542699
8	0xbf288b7c	-0.65837836
9	0xbf10b5dc	-0.56527495
10	0xbe96148b	-0.29312548
11	0xbf1f1392	-0.62139237
12	0xbf0b367c	-0.5438001
13	0xbf1b955f	-0.607748
14	0xbe5c4977	-0.215124
15	0xbf3533d0	-0.70782185
16	0xbf084e22	-0.5324422
17	0xbeee9c8a	-0.46603805
18	0xbf0f265a	-0.55917895
19	0xbed5b2b3	-0.417379
20	0xbf12b6ee	-0.5731038
21	0xbf0c149c	-0.5471895
22	0xbf0362cf	-0.51322645
23	0xbedafdd9	-0.42771795
24	0xbf26e2fb	-0.65190095
25	0xbe8ba919	-0.2727745
26	0xbebad946	-0.3649389
27	0xbeaf06ee	-0.34184974
28	0xbf34af2b	-0.70579785
29	0xbed3e14a	-0.4138282
30	0xbe665e2c	-0.22496861
31	0xbf2a1c68	-0.66449594

convnet.2.running_mean f4 [32]
0	0x44cd624d	1643.0719
1	0x44e1fe00	1807.9375
2	0x45a754ac	5354.584
3	0x45488973	3208.5906
4	0x45a36d26	5229.6436
5	0x44f56d5c	1963.4175
6	0x45870fd7	4321.98
7	0x45960cf9	4801.6216
8	0x449db044	1261.5083
9	0x4551f6fd	3359.4368
10	0x458d42c7	4520.347
11	0x44cd74ab	1643.6459
12	0x4546c23a	3180.1392
13	0x45171793	2417.4734
14	0x449113f5	1160.6237
15	0x4515e281	2398.1565
16	0x459a0a21	4929.266
17	0x45783842	3971.516
18	0x44c830c7	1601.5243
19	0x45b1b982	5687.1885
20	0x44ad7d8f	1387.9237
21	0x45417ca8	3095.791
22	0x44f31eac	1944.9585
23	0x451687a6	2408.478
24	0x42f62b95	123.08512
25	0x45743018	3907.0059
26	0x452e8a86	2792.6577
27	0x45251925	2641.5715
28	0x454b139f	3249.2263
29	0x452e2a27	2786.6345
30	0x454ab2ff	3243.1873
31	0x44f43b9f	1953.8632

convnet.2.running_var f4 [32]
0	0x471eb619	40630.098
1	0x475567d4	54631.83
2	0x489919b2	313549.56
3	0x47ecbd3d	121210.48
4	0x48882b03	278872.1
5	0x4762d025	58064.145
6	0x484af1c8	207815.12
7	0x4855e013	219008.3
8	0x479a71a5	79075.29
9	0x47f61eca	126013.58
10	0x48505f80	213374.0
11	0x47960e28	76828.31
12	0x481ad7bd	158558.95
13	0x476e1b18	60955.094
14	0x478d05b6	72203.42
15	0x47607f88	57471.53
16	0x4882152e	266409.44
17	0x4826826a	170505.66
18	0x471cc340	40131.25
19	0x489f8260	326675.0
20	0x473bf6b5	48118.707
21	0x47fc08ca	129041.58
22	0x4785a301	68422.01
23	0x47973657	77420.68
24	0x479822b5	77893.414
25	0x483e1df0	194679.75
26	0x47aaea0f	87508.12
27	0x47a6fa74	85492.91
28	0x47ecf56c	121322.84
29	0x47a5665e	84684.734
30	0x47bbe92d	96210.35
31	0x4788d353	70054.65

convnet.4.weight f4 [64, 32, 4, 4]
0	0xbde351b8	-0.11099571
1	0xbc9be009	-0.019027727
2	0xbe708899	-0.23489608
3	0x3ef113a7	0.47085306
4	0x3e9f6091	0.31128362
5	0xbe87274a	-0.26397163
6	0xbdaf0a88	-0.085469306
7	0xbe3aa6cd	-0.18227692
8	0xbea5a96f	-0.3235583
9	0x3e8c6389	0.2741969
10	0x3f01b965	0.50673515
11	0x3de13df5	0.109981455
12	0xbdf514c1	-0.11966849
13	0xbe8933a6	-0.26797217
14	0xbe2968b6	-0.1654385
15	0x3ce6ec51	0.028188856
16	0xbcb63222	-0.022240702
17	0xbee758d6	-0.45184964
18	0x3c99e012	0.018783603
19	0xbee39cd1	-0.4445558
20	0xbe774753	-0.24148302
21	0xbee35918	-0.4440391
22	0xbd802cae	-0.06258522
23	0x3de6321c	0.11240026
24	0xbe7a2ef7	-0.24431978
25	0x3ea87c50	0.32907343
26	0x3ea5d7ea	0.32391292
27	0xbc7205fb	-0.014771934
28	0xbcbe782b	-0.02325066
29	0x3e5e8b4a	0.21732822
30	0xbd2bcbc9	-0.04194239
31	0xbdd40abf	-0.10353612
32	0xbdb304c0	-0.0874114
33	0xbe6c1d2b	-0.23058002
34	0xbf018349	-0.5059095
35	0xbed7ea38	-0.42170882
36	0x3e4cb0c4	0.19989306
37	0xbd52cd9d	-0.05146562
38	0xbe7cad6a	-0.24675527
39	0x3e673c7a	0.22581664
40	0x3e5c8bb0	0.21537662
41	0xbf0b4296	-0.5439848
42	0x3d169dad	0.036771465
43	0x3e4ed89d	0.20199819
44	0x3daf81d4	0.085696846
45	0x3e2fe743	0.17178063
46	0x3d60821b	0.05481158
47	0x3ebac8c2	0.3648129
48	0xbe198eb6	-0.14995846
49	0xbebebdb2	-0.372541
50	0xbe7655b3	-0.24056129
51	0x3dafe3d2	0.08588375
52	0xbe4324f5	-0.19057067
53	0x3d8dd11e	0.069246516
54	0x3e312636	0.17299733
55	0x3dd5407f	0.10412692
56	0xbe175b8b	-0.14781015
57	0xbece355d	-0.40275088
58	0xbec72a41	-0.38899425
59	0x3f09d5ba	0.53841746
60	0xbeb0a9cb	-0.34504542
61	0x3ef751f8	0.48304725
62	0xbbc9d164	-0.0061589945
63	0x3daf67a7	0.08564692
64	0x3ecfcf3b	0.40587792
65	0x3d97c093	0.074097775
66	0x3e8e213a	0.27759725
67	0x3e99bb9d	0.3002595
68	0xbd47dee3	-0.048796546
69	0xbeaf4a13	-0.34236202
70	0xbd1d95c5	-0.03847291
71	0x3e3b194f	0.18271373
72	0xbeea5aa4	-0.45772278
73	0xbe80ea0e	-0.2517857
74	0xbef5d41b	-0.48013386
75	0x3e3f5c09	0.18687452
76	0xbd2f8d18	-0.042859167
77	0x3d83b80f	0.06431591
78	0x3de8a372	0.113593
79	0xbd8e0b5c	-0.069357604
80	0x3e91a286	0.28444308
81	0xbe3f3cd2	-0.18675545
82	0x3e7d754e	0.2475178
83	0x3e9b0477	0.30276844
84	0xbdc85752	-0.0978228
85	0x3e5ad522	0.21370366
86	0xbe8e4695	-0.27788225
87	0xbf260982	-0.6485826
88	0x3e9b6656	0.30351514
89	0xbe8dfc34	-0.27731478
90	0x3d9d8eb5	0.07693235
91	0xbd34792c	-0.04406087
92	0xbdf32678	-0.11872572
93	0xbf2f8d81	-0.6857529
94	0x3e649c3b	0.22325222
95	0xbeb388ed	-0.35065404
96	0x3e8c8d67	0.2745163
97	0x3e1ef92f	0.15524743
98	0x3e455275	0.19269736
99	0x3ec6f7ca	0.38860923
100	0xbecf6979	-0.40510157
101	0x3d5403da	0.051761486
102	0xbf43afef	-0.7644033
103	0x3ea3c6dd	0.31987658
104	0x3e1a3b83	0.15061764
105	0x3ed6636c	0.41872728
106	0xbdfbc478	-0.12293333
107	0xbeb7d666	-0.3590576
108	0xbd90c12f	-0.07068097
109	0xbe5999b9	-0.21250047
110	0xbd95cb44	-0.073141605
111	0x3e9b5cc6	0.30344218
112	0xbd5b0c0d	-0.05347829
113	0x3f1e58f1	0.61854464
114	0x3cfdfcd8	0.031004354
115	0xbf1d6c40	-0.614933
116	0xbee91953	-0.45527133
117	0x3e83358a	0.25626785
118	0x3bce3179	0.0062925187
119	0xbef958e0	-0.4870062
120	0xbd4297f7	-0.047508206
121	0x3ee47959	0.4462383
122	0x3ed2b616	0.41154546
123	0xbe114606	-0.14186868
124	0xbeb1fa3d	-0.3476123
125	0xbda95391	-0.08267892
126	0xbe001626	-0.12508449
127	0x3eac7727	0.33684656
128	0x3ed57854	0.41693366
129	0x3ed0e77e	0.40801615
130	0x3f49d431	0.78839403
131	0x3f753961	0.9579068
132	0x3e98ce75	0.29845014
133	0x3e8fb1c8	0.28065324
134	0xbc8cdc7f	-0.017194984
135	0xbe60a95a	-0.21939602
136	0x3e7d379f	0.24728249
137	0x3cc6cc93	0.02426747
138	0xbf29faaf	-0.6639814
139	0xbe62c7e6	-0.22146568
140	0x3ee739d1	0.45161298
141	0xbe0945f4	-0.13405591
142	0x3e7c5045	0.24639995
143	0x3e9f0dfd	0.3106536
144	0xbd6d1263	-0.057878863
145	0x3e63de6b	0.22252814
146	0x3c2d5af2	0.010580765
147	0x3ea18db5	0.31553426
148	0xbeef4c3f	-0.4673786
149	0xbe0eea5b	-0.13956587
150	0xbf676d46	-0.90401113
151	0xbe0457be	-0.12924096
152	0x3ec5610b	0.385506
153	0x3d91ae1e	0.07113288
154	0xbe722e4b	-0.23650472
155	0x3eaedd5d	0.34153262
156	0xbec80fcb	-0.3907455
157	0xbe459fb8	-0.19299209
158	0x3e0e32b2	0.13886526
159	0x3e59d6ad	0.21273299
160	0xbe111bba	-0.14170733
161	0x3d84e8f9	0.064897485
162	0x3e0b1574	0.13582402
163	0x3e8e2bb5	0.2776772
164	0xbc27cec4	-0.010242168
165	0xbbbffa65	-0.005858707
166	0xbf321c4a	-0.69574416
167	0x3e2327ab	0.15933101
168	0x3e1fcb09	0.15604796
169	0xbdc249ff	-0.0948677
170	0xbeb10471	-0.345737
171	0xbde69037	-0.112579755
172	0x3e0f8bc8	0.14018166
173	0x3e27bafd	0.16379924
174	0xbf15d2ca	-0.58524764
175	0x3d7b90e6	0.061417483
176	0x3c6f9b25	0.014624392
177	0x3e220576	0.15822396
178	0x3d4a6ad5	0.04941829
179	0x3cfe3475	0.031030873
180	0xbd9c6f17	-0.07638376
181	0xbe62914e	-0.22125742
182	0x3e43b0b0	0.1911037
183	0xbe630460	-0.22169638
184	0x3dc91aa7	0.09819537
185	0x3ebd7196	0.37000722
186	0xbec3faac	-0.38277185
187	0xbb8ce180	-0.0042993426
188	0xbcc8a2ca	-0.024491686
189	0x3e8674f0	0.2626109
190	0xbd13ab54	-0.036052063
191	0xbe0dcb63	-0.13847117
192	0xbd84ac3a	-0.06478162
193	0x3e85c5bd	0.26127425
194	0x3d7095dd	0.05873667
195	0xbe941b80	-0.2892723
196	0xbf0b7245	-0.54471236
197	0x3d8a776e	0.06761061
198	0xbe8c0811	-0.27349904
199	0xbe24a33e	-0.16077897
200	0xbecad7b9	-0.39617708
201	0x3e33ab42	0.17545798
202	0xbeca75aa	-0.39542896
203	0x3ceb2379	0.028703438
204	0xbcd959e7	-0.026532127
205	0x3b0ecc3c	0.0021789214
206	0xbd82996e	-0.06376921
207	0x3ec25fed	0.3796381
208	0xbe039445	-0.12849529
209	0xbee23806	-0.44183367
210	0xbe8c25d6	-0.27372617
211	0xbd5a7e0f	-0.053342875
212	0x3e742eb2	0.23845938
213	0xbe8d512a	-0.27600986
214	0x3e56e548	0.20985901
215	0x3d6c1737	0.057639327
216	0x3e2c890a	0.16849151
217	0x3e022486	0.12709245
218	0x3ebb856c	0.3662523
219	0xbeb976c7	-0.36223432
220	0xbe5330ce	-0.20624086
221	0x3ebb5654	0.365893
222	0xbd358bfb	-0.04432295
223	0x3db76490	0.08954728
224	0x3bc272a8	0.0059340782
225	0xbe966834	-0.29376376
226	0xbf3acd52	-0.72969544
227	0xbeb9ba0c	-0.36274755
228	0x3e5d4b7e	0.21610829
229	0xbd43535e	-0.047686927
230	0xbe0a367b	-0.13497345
231	0x3e11a369	0.14222492
232	0x3e861482	0.2618752
233	0xbeeec8d5	-0.46637598
234	0xbf0645f6	-0.524505
235	0xbe8072b3	-0.2508751
236	0x3c7d23e1	0.015450449
237	0x3e3c96af	0.18416856
238	0xbf7103b8	-0.941463
239	0x3ede2f06	0.4339525
240	0x3e11ca61	0.14237358
241	0xbe5669bf	-0.20938776
242	0xbd75d098	-0.060013384
243	0xbd98d9af	-0.07463395
244	0x3f135617	0.5755324
245	0xbd3ef349	-0.046618734
246	0xbe3aaf4e	-0.18230936
247	0x3c7a44bf	0.015275179
248	0xbe7b11c0	-0.2451849
249	0xbd40d4b1	-0.04707784
250	0xbd8f1b26	-0.069876
251	0x3d7887bc	0.06067632
252	0x3e2d3f71	0.16918732
253	0xbe1c03ef	-0.15235876
254	0xbece8c4c	-0.40341413
255	0x3ec6fa0d	0.3886265

convnet.4.bias f4 [64]
0	0x3d3331b1	0.04374856
1	0x3e7843e6	0.24244651
2	0xbe207546	-0.15669736
3	0xbe0ccc05	-0.13749702
4	0xbe4ef871	-0.2021196
5	0xbe00ad4a	-0.12566105
6	0xbe9a8dbb	-0.30186257
7	0x3dc4a020	0.09600854
8	0x3e541e7b	0.20714752
9	0x3dfb2fbe	0.122649655
10	0xbe841fd2	-0.25805527
11	0xbe86e310	-0.2634511
12	0x3e00d868	0.12582552
13	0x3ddd27dc	0.10798618
14	0xbe2dc36c	-0.16969079
15	0x3e0772c9	0.13227381
16	0xbe173ecb	-0.14770047
17	0xbd8ed591	-0.06974328
18	0xbe819a5e	-0.25313085
19	0xbdb8494c	-0.08998355
20	0x3bd592d1	0.006517746
21	0xbd20d0da	-0.039261676
22	0xbe549be6	-0.20762596
23	0xbdc5a771	-0.096510775
24	0xbc10e40c	-0.008843433
25	0x3ce39af1	0.027783843
26	0x3c977852	0.01848999
27	0x3d2711a3	0.040788304
28	0x3da1ec62	0.079064146
29	0xbe110e9b	-0.14165728
30	0xbe6706bf	-0.22561167
31	0xbd278274	-0.040895894
32	0xbde1b4b9	-0.11020798
33	0xbe1331cc	-0.14374465
34	0xbca37a6f	-0.019955842
35	0x3dfb00dc	0.12256023
36	0xbd926a3c	-0.07149169
37	0x3e326c32	0.17424086
38	0x3d0f7638	0.03502485
39	0xbdbeef24	-0.09322956
40	0x394cc033	0.00019526556
41	0x3e079df4	0.13243848
42	0x3e20acc9	0.15690912
43	0xbdf0f516	-0.117654964
44	0x3d869493	0.06571307
45	0xbd349fc9	-0.044097695
46	0x3cb959c0	0.022625804
47	0xbbd00e79	-0.0063493815
48	0xbdc7735b	-0.09738799
49	0x3d6e26a3	0.058142316
50	0x3d8459c3	0.06462433
51	0xbd576826	-0.052589558
52	0x3e8d03fa	0.27542096
53	0x3df0648a	0.11737926
54	0xbd34233c	-0.043978915
55	0x3e209bd5	0.15684445
56	0xbe234c60	-0.15947104
57	0xbd74fa4f	-0.059809025
58	0xbdaab131	-0.08334578
59	0x3d986bc2	0.07442428
60	0x3e1ab47a	0.15107909
61	0x3d514e8d	0.051100302
62	0x3e0bd931	0.1365707
63	0xbccd46e0	-0.02505821

convnet.6.weight f4 [64]
0	0x3f88432a	1.0645497
1	0x3f58b237	0.84646934
2	0x3f865ebd	1.0497662
3	0x3f82a826	1.0207565
4	0x3f98aa7b	1.1927027
5	0x3f8aa14e	1.0830476
6	0x3f715d0a	0.9428259
7	0x3f764437	0.9619784
8	0x3faa1687	1.3288125
9	0x3f6ecac9	0.93278176
10	0x3f802e58	1.0014143
11	0x3f51baea	0.81925833
12	0x3f564b16	0.8370832
13	0x3f910648	1.1330042
14	0x3f77ed99	0.9684692
15	0x3f5e865b	0.8692376
16	0x3f584695	0.844827
17	0x3f97648f	1.1827563
18	0x3f811cd8	1.0086927
19	0x3f71ff96	0.9453062
20	0x3f4dc6ce	0.80381477
21	0x3f582b0d	0.8444069
22	0x3f7c4393	0.9854061
23	0x3f6505d1	0.89462
24	0x3f85ab15	1.0442835
25	0x3f7ae7c1	0.9800988
26	0x3f6450bf	0.8918571
27	0x3f955071	1.1665174
28	0x3f8a80cc	1.0820556
29	0x3f8d199d	1.1023442
30	0x3f7fb688	0.99887896
31	0x3f81f6b5	1.0153414
32	0x3f40433c	0.7510259
33	0x3f8e6a35	1.1126162
34	0x3f7da3ad	0.99077874
35	0x3f899970	1.074995
36	0x3f7c2e37	0.9850802
37	0x3f7e36c9	0.99302346
38	0x3f491650	0.7854967
39	0x3f97a0b6	1.184592
40	0x3fa963bb	1.323356
41	0x3f6f2f7c	0.9343183
42	0x3f5fec28	0.8746972
43	0x3f831c2a	1.024297
44	0x3f71edcc	0.94503474
45	0x3f7c8f62	0.98656285
46	0x3f755ef3	0.95848006
47	0x3f7bd477	0.9837107
48	0x3f7c58c9	0.98572975
49	0x3f835072	1.0258925
50	0x3f6e1047	0.9299359
51	0x3f7651bc	0.96218467
52	0x3f6597c4	0.896847
53	0x3f6d71cf	0.92751783
54	0x3f7e9188	0.99440813
55	0x3f80ebdb	1.0071977
56	0x3f93376c	1.1501288
57	0x3f76cf69	0.9641023
58	0x3f9d7907	1.230256
59	0x3f613a66	0.87979734
60	0x3f54f4fd	0.8318632
61	0x3f7b339f	0.9812564
62	0x3f33c946	0.70228994
63	0x3f76d249	0.9641462

convnet.6.bias f4 [64]
0	0xbeb5228e	-0.35377926
1	0xbe3be8e6	-0.18350562
2	0xbf24bea4	-0.64353395
3	0xbee8854b	-0.45414194
4	0xbf2040b7	-0.62598747
5	0xbf47a7c9	-0.77990395
6	0xbf2705ad	-0.65243036
7	0xbee17005	-0.44030777
8	0xbf0a4aa2	-0.5402013
9	0xbe2d1682	-0.16903117
10	0xbf4e767c	-0.8064954
11	0xbdfed241	-0.124424465
12	0xbf237a6d	-0.6385868
13	0xbee8c80d	-0.45465127
14	0xbefd3e2e	-0.49461502
15	0xbe8db3bf	-0.27676198
16	0xbec086d6	-0.37602872
17	0xbe1b7b42	-0.15183738
18	0xbf2052fb	-0.6262662
19	0xbf2de1d4	-0.6792271
20	0x3d064153	0.03277714
21	0xbf19b5b1	-0.60042864
22	0xbef022f1	-0.46901658
23	0xbf19e6e6	-0.6011795
24	0xbf2c3c8d	-0.67279893
25	0xbe30f299	-0.17280044
26	0xbf0de8bc	-0.5543325
27	0xbf16626d	-0.58743936
28	0xbed26773	-0.4109455
29	0xbf54f78d	-0.8319023
30	0xbf0ac7ce	-0.5421113
31	0xbf418b3d	-0.75603086
32	0xbeec7ab6	-0.4618737
33	0xbf232cb3	-0.6374008
34	0xbf0dc399	-0.55376583
35	0xbddeab08	-0.10872465
36	0xbf36cdf2	-0.71408
37	0xbf23b40d	-0.6394661
38	0xbf30de40	-0.69089127
39	0xbf045f46	-0.51707876
40	0xbf11130c	-0.5666969
41	0xbef28d94	-0.4737364
42	0xbeae3608	-0.34025598
43	0xbe7cdb9c	-0.2469315
44	0xbf304d0f	-0.6886758
45	0xbf185874	-0.5950997
46	0xbeb119b6	-0.34589928
47	0xbf1011cc	-0.56277156
48	0xbed92925	-0.42414203
49	0xbe94af12	-0.29039818
50	0xbe7c7bca	-0.24656597
51	0xbf2743f5	-0.6533807
52	0xbed7401a	-0.42041093
53	0xbe5b7fd5	-0.21435483
54	0xbf3b497e	-0.73159015
55	0xbed8a670	-0.42314482
56	0xbeb5cad7	-0.35506317
57	0xbec5335f	-0.38515756
58	0xbf3d9c1b	-0.74066323
59	0xbebb6d10	-0.36606646
60	0xbf002be1	-0.50066954
61	0xbec7dfb2	-0.39037853
62	0xbee7a3b2	-0.45242077
63	0xbed2a2a1	-0.411397

convnet.6.running_mean f4 [64]
0	0xbf291e5b	-0.66061944
1	0xbf45885d	-0.771612
2	0x40340a3f	2.8131254
3	0x3fb76c25	1.4329878
4	0xbf4bd9de	-0.79629314
5	0x3f8e988c	1.1140304
6	0xbfe4b189	-1.786668
7	0xbf054189	-0.52053124
8	0xc059d5c5	-3.4036725
9	0x3f6efafc	0.9335172
10	0xbf907500	-1.1285706
11	0xbfc5533f	-1.541603
12	0x401f55cd	2.4896119
13	0xc0a98daa	-5.298543
14	0xbff2d91d	-1.8972508
15	0xbefa568d	-0.48894158
16	0xbf04097c	-0.5157697
17	0xbf8649e8	-1.0491304
18	0xc0a52375	-5.1605783
19	0xbf5e0f46	-0.86742055
20	0x3ef9006f	0.48633143
21	0xc0855a97	-4.1673083
22	0x3e828af8	0.2549665
23	0x3fc58a6c	1.5432868
24	0x3ff15417	1.8853787
25	0xc09cf75c	-4.905195
26	0xbecde789	-0.4021571
27	0xbfc99b1a	-1.5750458
28	0x401a6119	2.4121764
29	0xbfc61f43	-1.547829
30	0xbfd8994f	-1.6921786
31	0x3ff6d04a	1.9282315
32	0x3f4984d0	0.7871828
33	0x3f2696b1	0.65073687
34	0x4037e4b2	2.8733335
35	0xbf8f31bf	-1.1187056
36	0xbe50ae5f	-0.20379017
37	0x3f966bde	1.1751668
38	0x3fb5f325	1.4214827
39	0xbf992b49	-1.1966335
40	0xbff603ec	-1.9219947
41	0x40a4a3d2	5.1449976
42	0x3e014723	0.12624793
43	0xbff604a7	-1.922017
44	0xbfc8c591	-1.5685292
45	0x4014f760	2.3275986
46	0xc03534ee	-2.8313556
47	0xbf4f74cf	-0.8103761
48	0x3ef897b9	0.48553255
49	0xbfb0addf	-1.3803061
50	0xc00b08e2	-2.1724172
51	0xbfaf74ff	-1.3707579
52	0xbefeab9d	-0.49740306
53	0x407b0348	3.9220753
54	0x3f851d8e	1.0399644
55	0x3f9b86d4	1.2150521
56	0xbd647413	-0.05577476
57	0x3f8f37d3	1.1188911
58	0xc0363ae0	-2.8473434
59	0xc0257fae	-2.585918
60	0x401ef3ce	2.4836307
61	0x3f933a7f	1.1502227
62	0xba64da1d	-0.0008730011
63	0xc00ca94f	-2.1978338

convnet.6.running_var f4 [64]
0	0x40cfe19a	6.4962893
1	0x40cba3c5	6.3637414
2	0x41222ce5	10.135961
3	0x4055a9b7	3.3384836
4	0x407a6588	3.912447
5	0x40a89528	5.2682076
6	0x40c2b466	6.0845213
7	0x40b5fa2b	5.686788
8	0x41457d03	12.34302
9	0x40b5619a	5.6681643
10	0x407f16c1	3.9857638
11	0x40daab0d	6.83338
12	0x40d65793	6.69819
13	0x419e1d4d	19.764307
14	0x411f158f	9.942763
15	0x40aa83d4	5.3285923
16	0x40c499d8	6.1437798
17	0x411b0445	9.688542
18	0x41c5b0a4	24.71125
19	0x40ccaf80	6.3964233
20	0x4125c971	10.36168
21	0x418e203d	17.765741
22	0x40a7c684	5.242983
23	0x40b64a4c	5.6965694
24	0x40f45161	7.634934
25	0x4184f77b	16.62084
26	0x40dbf259	6.8733335
27	0x40d14c26	6.5405455
28	0x40d90b5f	6.782638
29	0x40a1da0e	5.057868
30	0x40c9c6bf	6.305511
31	0x4100c3a5	8.047765
32	0x41089a58	8.537682
33	0x40a1aa22	5.052018
34	0x4113ccab	9.237468
35	0x40a6c767	5.211841
36	0x40b1af55	5.552653
37	0x40a75a1a	5.2297487
38	0x40bcdaff	5.901733
39	0x40f255d8	7.572979
40	0x40c3fa21	6.1242833
41	0x41a85b5c	21.04461
42	0x40a51fbc	5.160124
43	0x40d2b61b	6.5847297
44	0x409f558b	4.9791923
45	0x40a577b3	5.1708617
46	0x41893615	17.151407
47	0x40a15b73	5.042413
48	0x40acb44b	5.3970084
49	0x40e83d51	7.257485
50	0x41166e06	9.401861
51	0x41036ac4	8.213566
52	0x408b1602	4.3464365
53	0x41321a3f	11.131408
54	0x40bd92c8	5.9241676
55	0x409e0ef2	4.9393244
56	0x40815055	4.041056
57	0x40a24e2e	5.0720434
58	0x413634c5	11.387883
59	0x411d9f69	9.8514185
60	0x410e8933	8.908496
61	0x40daaabe	6.8333426
62	0x40d2bb5e	6.585372
63	0x40e4ed01	7.153931

convnet.8.weight f4 [64, 64, 3, 3]
0	0x3bd5cb82	0.006524504
1	0xbe14cb5f	-0.14530705
2	0xbd98743c	-0.07444045
3	0xbc7c6393	-0.0154046
4	0xbdf8caab	-0.12148031
5	0xbd723446	-0.059131883
6	0xbdc317d2	-0.09526028
7	0x3eaddf94	0.3395964
8	0xbc200ae7	-0.009768224
9	0x3dcbcda0	0.09951329
10	0x3e9378f1	0.28803208
11	0x3e7904bf	0.24318217
12	0x3e372267	0.17884217
13	0x3eccdd14	0.4001242
14	0xbe9b8aaf	-0.30379245
15	0xbf08e065	-0.534674
16	0xbdd208d4	-0.1025559
17	0xbeaf2032	-0.3420425
18	0xbdd70ba4	-0.10500267
19	0x3dfaa283	0.12238028
20	0xbe6f09ed	-0.2334363
21	0xbec66e43	-0.38755998
22	0x3e9ee2bd	0.31032363
23	0x3f0924ec	0.53571963
24	0x3e8c1950	0.27363062
25	0xbf13ef96	-0.57787454
26	0xbf17d246	-0.59305227
27	0x3eb223ec	0.3479303
28	0xbeba083c	-0.36334407
29	0x3ddd1973	0.1079587
30	0xbecb6a70	-0.39729643
31	0x3c5d680e	0.013513578
32	0x3d5b6bc2	0.053569563
33	0x3d29db56	0.04146894
34	0x3ec6e769	0.38848427
35	0x3d9370d6	0.07199256
36	0x3d8e9096	0.06961171
37	0xbf5b2709	-0.8560644
38	0x3e662bf8	0.2247771
39	0x3c870cf3	0.016485667
40	0x3f12314a	0.5710646
41	0x3e5ead21	0.21745731
42	0x3e85f6d0	0.26164865
43	0xbe02e774	-0.12783605
44	0x3eb0b058	0.3450954
45	0x3c43eaec	0.011957865
46	0x3e212444	0.1573649
47	0x3d84b9d3	0.06480756
48	0x3d4d3601	0.05010033
49	0xbe6a3aea	-0.22874036
50	0x3e88fe8b	0.267567
51	0x3c07dc34	0.008292247
52	0xbcafc130	-0.021454424
53	0xbeb179fc	-0.3466338
54	0xbca8c4d9	-0.020601677
55	0x3dea4556	0.11439006
56	0x3e9e36f3	0.30901298
57	0x3e6516e2	0.2237201
58	0xbec1eed2	-0.37877518
59	0x3ee431dd	0.44569293
60	0x3e5422d8	0.20716417
61	0xbd7deed6	-0.06199535
62	0xbe674cae	-0.22587845
63	0xbec639fb	-0.3871611
64	0xbe6faaf9	-0.23405065
65	0xbe88f4ea	-0.26749355
66	0xbe21104f	-0.15728877
67	0xbcffdf49	-0.0312344
68	0xbd3eb2a7	-0.046557095
69	0x3e1ae41c	0.1512608
70	0x3e00946c	0.12556618
71	0xbf0a8204	-0.5410464
72	0xbed46837	-0.4148576
73	0xbd903cd7	-0.07042854
74	0x3e29ba4f	0.16574977
75	0xbd211bad	-0.039333034
76	0xbe70664c	-0.23476523
77	0x3eb33774	0.35003245
78	0x3f2a92eb	0.6663043
79	0xbe1d17ea	-0.15341154
80	0xbf0a795b	-0.54091424
81	0x3eefe931	0.46857598
82	0x3e5d1503	0.21590047
83	0x3caba94c	0.02095475
84	0x3d7d05ad	0.06177299
85	0xbf013e82	-0.50486004
86	0x3d0096ee	0.031393938
87	0xbf1828de	-0.5943736
88	0xbdd82404	-0.105537444
89	0xbec4e26c	-0.38453996
90	0x3ee16408	0.4402163
91	0xbd3326c7	-0.043738153
92	0xbe3e8d30	-0.18608546
93	0xbf0bad98	-0.5456176
94	0x3f235a9a	0.6381012
95	0xbeadf5f9	-0.33976725
96	0x3f0191c4	0.50613046
97	0x3db91ade	0.09038328
98	0xbd83fba9	-0.06444485
99	0x3f1984e4	0.599684
100	0x3cce1cf5	0.025160292
101	0x3e77cbae	0.24198791
102	0xbedc3794	-0.43011153
103	0xbebfd294	-0.37465346
104	0xbe0ea5d1	-0.13930441
105	0xbd60beee	-0.054869585
106	0xbda39b90	-0.079886556
107	0x3e289c8c	0.16465968
108	0x3e3ead71	0.1862085
109	0x3d415ad2	0.047205754
110	0xbed4c766	-0.4155838
111	0x3d8d37af	0.068953864
112	0xbd97c624	-0.07410839
113	0x3ef4a125	0.47779194
114	0xbe043be7	-0.12913476
115	0x3ede6965	0.43439785
116	0xbeaaa633	-0.33329925
117	0xbf889563	-1.0670589
118	0x3ec7d0c7	0.39026472
119	0xbed415ad	-0.41422787
120	0xbe9cb025	-0.30603138
121	0xbd965077	-0.07339566
122	0x3f588d8e	0.84590995
123	0xbeb1d492	-0.3473249
124	0x3e357f97	0.17724453
125	0x3eae5129	0.34046295
126	0x3d6a4b2d	0.0572006
127	0xbd992e2d	-0.074795105
128	0xbdd39c8b	-0.103325926
129	0x3da286b0	0.07935846
130	0xbd67ced2	-0.056593724
131	0xbe2f5d79	-0.171255
132	0xbe878544	-0.2646886
133	0xbe748299	-0.23877944
134	0xbe360f4c	-0.17779273
135	0xbe6949eb	-0.22782104
136	0xbec925a3	-0.39286527
137	0x3d527dca	0.051389493
138	0x3cdac663	0.026705926
139	0x3bdaffd4	0.006683329
140	0x3d14a3d4	0.03628905
141	0x3ef34b87	0.4751856
142	0xbea8c003	-0.32958993
143	0xbe88b32e	-0.26699203
144	0xbef1e279	-0.47243097
145	0x3e2c314f	0.16815685
146	0x3db3a926	0.08772497
147	0xbe1adc92	-0.15123203
148	0xbd17bc80	-0.037045002
149	0xbe0a1077	-0.13482843
150	0x3c213842	0.009840073
151	0x3e344fc4	0.17608553
152	0xbd91c05c	-0.07116768
153	0x3de4a9e3	0.11165216
154	0xbeeb682f	-0.45977923
155	0xbe55cd57	-0.20879112
156	0xbc7ac605	-0.015306001
157	0x3e1ec1b6	0.15503582
158	0xbe54bea3	-0.20775847
159	0xbf205d6c	-0.6264255
160	0x3d9188db	0.07106181
161	0xbcb726cd	-0.022357369
162	0xbf02ceaa	-0.51096594
163	0x3d4cc6da	0.049994327
164	0x3e84d217	0.25941536
165	0x3d0b1be9	0.033962164
166	0x3ea7b6e9	0.32756737
167	0x3f06ac79	0.5260692
168	0x3cb2ec18	0.021841094
169	0xbebc6a70	-0.36799955
170	0x3d866e8a	0.065640524
171	0xbe9ba27a	-0.30397397
172	0xbc8477c0	-0.016170382
173	0x3d4cfe3c	0.050047144
174	0x3e397a43	0.18113045
175	0x3bd20be1	0.0064101075
176	0xbda586cb	-0.0808235
177	0x3d782f21	0.06059182
178	0xbe5dbfff	-0.21655272
179	0x3e19c62e	0.15017006
180	0xbc28cc0b	-0.010302554
181	0x3dcc1ca2	0.09966399
182	0x3e19f858	0.15036142
183	0x3dd56ff6	0.104217455
184	0x3f00c7da	0.5030495
185	0x3e951afd	0.29122153
186	0xbeb2eb58	-0.34945178
187	0xbe5aed12	-0.21379498
188	0xbd325aba	-0.043543555
189	0xbeb9a6ae	-0.3625998
190	0x3deba1ad	0.115054466
191	0xbe2c62be	-0.16834542
192	0xbe810b66	-0.2520401
193	0x3e8c4319	0.2739494
194	0x3debeee7	0.115201764
195	0xbeb375a6	-0.35050696
196	0x3e53bc8a	0.2067739
197	0xbeb14798	-0.34624934
198	0xbde814a8	-0.11332065
199	0x3e2c720d	0.16840382
200	0x3ec76246	0.38942164
201	0xbe2636ef	-0.16231893
202	0xbc9fa44e	-0.019487526
203	0xbda949d7	-0.08266037
204	0xbcb21dc7	-0.021742715
205	0x3b08fc32	0.0020902273
206	0xbe9ba20c	-0.3039707
207	0xbe70c82c	-0.2351386
208	0x3defe229	0.117130585
209	0xbf105d20	-0.563921
210	0xbeb65a87	-0.35615942
211	0xbe288ba3	-0.16459517
212	0x3e00edea	0.12590757
213	0x3ebe9236	0.37220925
214	0x3eb334ad	0.35001126
215	0x3eaeca9f	0.34138963
216	0xbe54e440	-0.20790195
217	0xbea8dfda	-0.32983285
218	0xbdfc920c	-0.12332544
219	0x3e51e928	0.20499098
220	0xbe6d841f	-0.23194931
221	0x3cc253d6	0.023721617
222	0x3dcd1e68	0.10015565
223	0xbe2186fb	-0.15774147
224	0xbc453043	-0.012035432
225	0xbed29e10	-0.41136217
226	0xbdcde9f7	-0.10054391
227	0xbe910d61	-0.2833052
228	0x3e1c1501	0.15242387
229	0x3d9763f3	0.07392111
230	0xbee52fbc	-0.4476298
231	0x3c76f278	0.0150724575
232	0x3d796249	0.060884748
233	0xbe447450	-0.19184995
234	0xbc857c70	-0.016294688
235	0x3efcc1db	0.4936665
236	0xbc2d8109	-0.010589846
237	0x3d1a4b2a	0.03766934
238	0x3d5105bc	0.05103086
239	0xbecfaebd	-0.40563002
240	0x3dd072d7	0.10178154
241	0x3e4b9003	0.19879155
242	0xbe76e90f	-0.24112342
243	0xbe11d439	-0.14241113
244	0x3e5f2a4e	0.21793482
245	0x3de95661	0.113934286
246	0xbe6f7ae8	-0.23386729
247	0xbe6b482c	-0.2297675
248	0xbe2d19ec	-0.1690442
249	0x3f056ff9	0.5212398
250	0xbed94697	-0.42436668
251	0xbdbdf4d0	-0.0927521
252	0x3eaaa317	0.33327553
253	0x3e137d9b	0.14403383
254	0x3efb2102	0.4904862
255	0x3d522e5d	0.051313747

convnet.8.bias f4 [64]
0	0xbdce6d54	-0.100794464
1	0xbe4d3f93	-0.20043783
2	0xbda89900	-0.082323074
3	0x3ce8c71b	0.028415253
4	0x3dfaf247	0.12253242
5	0xbdcf54f5	-0.10123626
6	0x3d743b47	0.059626844
7	0x3d94b1f7	0.072605066
8	0xbdf6ba90	-0.12047303
9	0x3e5da51c	0.21645015
10	0xbde4b40c	-0.11167154
11	0x3e62e6cd	0.22158356
12	0x3ddfa0ea	0.10919364
13	0x3df718ca	0.12065275
14	0xbca68804	-0.02032853
15	0x3d151d96	0.03640517
16	0x3db6f9f6	0.08934395
17	0xbcfd5c33	-0.030927753
18	0x3d775987	0.060388114
19	0xbdc1fe88	-0.09472376
20	0xbe0d8c51	-0.13823058
21	0xbe319c5f	-0.17344807
22	0x3db38c26	0.087669656
23	0x3d9d378f	0.076766126
24	0x3dc9888e	0.09840499
25	0xbe2dd85a	-0.16977063
26	0xbe310922	-0.1728864
27	0x3b87cfb5	0.0041446337
28	0xbc227ca5	-0.009917413
29	0xbd69b31e	-0.057055585
30	0x3d8ea4ed	0.06965051
31	0xbe289b0d	-0.16465397
32	0xbd4ac9b9	-0.049508784
33	0xbe5634b4	-0.20918542
34	0x3ed58c5a	0.41708642
35	0x3e1a8532	0.15089872
36	0x3dead673	0.11466684
37	0x3d35d754	0.044394806
38	0x3e829f3a	0.25512105
39	0xbd3aa2a6	-0.04556527
40	0xbdb23b66	-0.087027356
41	0x3d9dbc1c	0.07701895
42	0x3da9de5c	0.08294365
43	0xbd459808	-0.04824069
44	0x3df99139	0.12185902
45	0xbd37b70b	-0.044852298
46	0xbde5d20f	-0.11221706
47	0xbdb7418b	-0.08948048
48	0x3dbc7773	0.09202471
49	0xbdf640e9	-0.120240994
50	0x3d9b0e37	0.07571071
51	0x3e030860	0.12796164
52	0xbe452766	-0.1925331
53	0x3d935f25	0.07195882
54	0x3d89c12e	0.06726299
55	0xbe2c8b24	-0.16849953
56	0x3e541206	0.2071
57	0x3e1d19e5	0.15341909
58	0xbd5f5b9d	-0.05453073
59	0x3e11dd53	0.14244585
60	0xbe0a82ec	-0.13526505
61	0x3e29747f	0.16548346
62	0xbdd433ec	-0.10361466
63	0xbc07faaa	-0.008299509

convnet.10.weight f4 [64]
0	0x3f87222c	1.0557303
1	0x3f7644a5	0.96198493
2	0x3fb9a566	1.4503601
3	0x3fa2704a	1.2690518
4	0x3f885d2f	1.0653437
5	0x3f7d96e1	0.9905835
6	0x3f916c98	1.1361265
7	0x3f8f933d	1.1216809
8	0x3f9bcd9b	1.2172121
9	0x3f9acf6b	1.2094549
10	0x3f8314e4	1.024075
11	0x3f58c3f8	0.84674025
12	0x3f915bd6	1.1356151
13	0x3f859635	1.0436465
14	0x3f962762	1.1730769
15	0x3f8eb642	1.1149371
16	0x3f96ede4	1.1791348
17	0x3f8d1a07	1.1023568
18	0x3f9d2b09	1.2278758
19	0x3f83f58a	1.0309308
20	0x3f8a920f	1.0825824
21	0x3f95a08a	1.1689618
22	0x3fa275ae	1.2692163
23	0x3f6cd430	0.9251127
24	0x3f888ffc	1.066894
25	0x3fa31e95	1.2743708
26	0x3f765c0e	0.96234214
27	0x3fa1c5f7	1.2638539
28	0x3f9196e0	1.1374168
29	0x3f990b9e	1.195667
30	0x3f82a7d3	1.0207466
31	0x3f91d1b4	1.1392121
32	0x3fa22f55	1.2670695
33	0x3f9e57ff	1.2370604
34	0x3fa07ad5	1.2537485
35	0x3f8893cb	1.0670103
36	0x3f867ade	1.0506246
37	0x3fba9dec	1.4579444
38	0x3f814920	1.0100441
39	0x3f907139	1.1284553
40	0x3f8b6f0b	1.0893263
41	0x3f76214e	0.9614457
42	0x3f9ad3dd	1.2095906
43	0x3f82d898	1.0222349
44	0x3f931614	1.1491113
45	0x3f992a13	1.1965965
46	0x3f6f7a56	0.93546045
47	0x3f78d5f1	0.9720145
48	0x3fa65b56	1.2996624
49	0x3f7344ed	0.9502705
50	0x3f862214	1.047915
51	0x3fa11dfe	1.2587278
52	0x3f8b9723	1.0905498
53	0x3fa7e263	1.3115963
54	0x3fa116ab	1.2585043
55	0x3f64df45	0.8940318
56	0x3f72216e	0.9458226
57	0x3f872da5	1.0560805
58	0x3f8a9ad1	1.0828496
59	0x3faa0bc2	1.3284838
60	0x3f84a8df	1.0364035
61	0x3faab874	1.3337541
62	0x3f91e0ae	1.1396692
63	0x3f48f48f	0.78498167

convnet.10.bias f4 [64]
0	0xbf19229d	-0.5981844
1	0xbf570350	-0.8398943
2	0xbf615934	-0.8802674
3	0xbf75d8fd	-0.9603422
4	0xbf95cda6	-1.1703384
5	0xbf4870e8	-0.7829728
6	0xbf103d17	-0.56343216
7	0xbf1df2bc	-0.6169851
8	0xbeb155ec	-0.34635866
9	0xbeee0445	-0.46487632
10	0xbf16f437	-0.5896639
11	0xbf6e44b0	-0.9307356
12	0xbf1f5e63	-0.622534
13	0xbecd3e39	-0.40086535
14	0xbe7e74fe	-0.24849316
15	0xbed6b3e9	-0.41934136
16	0xbf08d3c6	-0.5344814
17	0xbf7638f3	-0.9618065
18	0xbf15240a	-0.58258116
19	0xbf29d2b0	-0.6633711
20	0xbf1f3609	-0.62191826
21	0xbe8df743	-0.27727708
22	0xbf4298e4	-0.7601454
23	0xbf1fc9e6	-0.6241745
24	0xbee0e014	-0.43920958
25	0xbf146793	-0.5797054
26	0xbe8d84c6	-0.2764036
27	0xbe4f566a	-0.20247808
28	0xbf2971e7	-0.66189426
29	0xbf0fd5b5	-0.56185466
30	0xbf57ef14	-0.8434918
31	0xbf2688ff	-0.6505279
32	0xbf1352ac	-0.5754802
33	0xbd0bac8c	-0.0341001
34	0xbeeb0e3b	-0.45909294
35	0xbee39fa1	-0.44457725
36	0xbf83dacb	-1.0301145
37	0xbf1bb3fc	-0.6082151
38	0xbf6a3a9e	-0.9149569
39	0xbe34484d	-0.17605706
40	0xbb397d4c	-0.0028303443
41	0xbf0e92d7	-0.5569281
42	0xbe989103	-0.29798135
43	0xbf169c75	-0.58832484
44	0xbdbabf72	-0.091185465
45	0xbedc2b8a	-0.43001968
46	0xbf469163	-0.7756559
47	0xbefc0e8c	-0.49229848
48	0xbeb220de	-0.347907
49	0xbef70d9d	-0.48252574
50	0xbea161d2	-0.31519943
51	0xbeb52452	-0.35379273
52	0xbf844235	-1.0332705
53	0xbf563dab	-0.8368785
54	0x3e024ae9	0.12723888
55	0xbf12bd29	-0.57319885
56	0xbf565998	-0.8373046
57	0xbeec7b1e	-0.4618768
58	0xbf13980c	-0.5765388
59	0xbf568f6c	-0.83812594
60	0xbed06d3e	-0.40708345
61	0xbeb46a49	-0.3523734
62	0xbd8fa8f4	-0.07014647
63	0xbf624a28	-0.88394403

convnet.10.running_mean f4 [64]
0	0xbf92b2ae	-1.1460779
1	0x400cb85b	2.1987522
2	0xbebe722e	-0.37196487
3	0x3fd1db13	1.6394981
4	0x3fcb06bf	1.5861434
5	0x3f79c96c	0.9757297
6	0xbfcd37f8	-1.6032705
7	0x3f9744cf	1.1817874
8	0xc0205e84	-2.5057688
9	0xbed0498a	-0.40681106
10	0x3e91f0c3	0.28504
11	0x3d234deb	0.03986923
12	0xbf945f3a	-1.1591561
13	0xbf5ac71c	-0.85460067
14	0x3ea09b00	0.31368256
15	0x3faae56f	1.3351268
16	0xbe3320ac	-0.17492932
17	0x40142ba3	2.3151634
18	0xbfca4af0	-1.5804119
19	0x407921b6	3.8926826
20	0x3fb76315	1.4327112
21	0xc05661de	-3.3497233
22	0x3f3f3255	0.74686176
23	0xbfd086da	-1.6291153
24	0xc0494a72	-3.1451688
25	0xbdc948ca	-0.098283365
26	0xc09c25bc	-4.8796062
27	0xbf316445	-0.69293624
28	0xbfaf3757	-1.3688763
29	0xbf4b2352	-0.7935077
30	0xbdd8bd98	-0.10583037
31	0xc00da88d	-2.2134125
32	0x3c5f70c3	0.013637724
33	0xc0b69dd9	-5.7067685
34	0x3f25661a	0.6460892
35	0xbea004ae	-0.3125357
36	0xbfd2bdfa	-1.6464226
37	0xbfb5b917	-1.419711
38	0x406905fd	3.6409905
39	0xbfdc4b81	-1.7210542
40	0xc0a56e2a	-5.1696978
41	0xbf3ece8c	-0.74533916
42	0xbfc7b688	-1.5602579
43	0x3f3434b8	0.7039294
44	0xbe676431	-0.22596814
45	0xc080997f	-4.0187373
46	0x3e02844a	0.12745777
47	0xbeddbf09	-0.4330981
48	0xbfc2cadd	-1.5218159
49	0xbf88e609	-1.0695201
50	0x3f7cbdb3	0.9872696
51	0xc02ec2a2	-2.7306294
52	0xc016f8f8	-2.3589458
53	0xbfb3f358	-1.4058638
54	0xbf9e556c	-1.2369819
55	0xbe95ada0	-0.29234028
56	0x404628eb	3.0962474
57	0xbfd131c6	-1.6343315
58	0xc051862c	-3.2738142
59	0xc00e62f6	-2.22479
60	0xc04a0b2c	-3.1569319
61	0xbeb87889	-0.3602946
62	0x3f2adda4	0.66744447
63	0x40b718d9	5.721783

convnet.10.running_var f4 [64]
0	0x40a5ef27	5.1854434
1	0x40cf531a	6.478894
2	0x409fde86	4.9959135
3	0x41075b84	8.459843
4	0x40e599b5	7.175013
5	0x410c1152	8.754229
6	0x40da47cc	6.8212643
7	0x410ceb65	8.807469
8	0x40fc83c2	7.8910837
9	0x40f7a339	7.7386746
10	0x41000204	8.000492
11	0x40d4e90b	6.6534476
12	0x40b32b3c	5.5990276
13	0x40debb41	6.960358
14	0x40d16df2	6.544671
15	0x40dccef4	6.900263
16	0x40f8e446	7.7778654
17	0x40bd4eb0	5.9158554
18	0x4128b2bd	10.543637
19	0x40de5d72	6.948907
20	0x40effb1f	7.4994044
21	0x41075189	8.457406
22	0x41007c5d	8.030362
23	0x40c4b83d	6.14749
24	0x40f319f5	7.5969186
25	0x409d637e	4.918395
26	0x40d72f52	6.7245264
27	0x40be0860	5.9385223
28	0x40a906fc	5.2821026
29	0x408779e3	4.2336287
30	0x40be5400	5.947754
31	0x40c8cab2	6.274743
32	0x40a501bb	5.1564612
33	0x4129eced	10.620343
34	0x40e3adee	7.1149817
35	0x40d5bec3	6.6795363
36	0x40f778bf	7.7334895
37	0x40e6766a	7.201955
38	0x40cb2c81	6.3491826
39	0x40f963b9	7.793423
40	0x414d7990	12.842178
41	0x40b5120d	5.6584535
42	0x40c26c6a	6.075734
43	0x40f03a5c	7.507124
44	0x40b9274a	5.786046
45	0x40fbeb3b	7.8724647
46	0x40e6d963	7.2140365
47	0x40d99736	6.7997084
48	0x4107fbc1	8.498963
49	0x4113984a	9.22468
50	0x40b27646	5.5769377
51	0x41349429	11.286172
52	0x4157211c	13.445583
53	0x40f21dcc	7.5661373
54	0x40fbcab3	7.8684936
55	0x41512d7f	13.073607
56	0x4117d023	9.488315
57	0x40d7a91d	6.7393937
58	0x40d30aef	6.5950847
59	0x40fce275	7.9026437
60	0x40e21e9d	7.066237
61	0x40a22da1	5.06807
62	0x40dc3ac9	6.882176
63	0x4106fb47	8.436347

fcnet.0.weight f4 [128, 1024]
0	0xbdce63b1	-0.100776084
1	0x3d539e99	0.051664922
2	0x3d329a20	0.043604016
3	0xbd59ea89	-0.053202186
4	0x3cd4594e	0.02592149
5	0xbda13b3f	-0.078726284
6	0xbd756c8d	-0.059917975
7	0xbd5d95b7	-0.054097857
8	0xbbce55db	-0.006296856
9	0xbc38181e	-0.011236219
10	0xbc3d11a4	-0.01153985
11	0xbd9df946	-0.07713561
12	0xbdc62ced	-0.09676538
13	0x3cedebcb	0.029043099
14	0xbc85e46a	-0.016344268
15	0xbdfcfaf9	-0.12352557
16	0xbd2871a1	-0.04112399
17	0xbd2b1492	-0.041767664
18	0x3b54f725	0.0032495942
19	0x3c3e8424	0.0116281845
20	0xbcb8cc4b	-0.022558352
21	0x3d20a79f	0.039222356
22	0x3c89aaa4	0.016805
23	0x3c05ebbb	0.008173878
24	0xb8a9ba84	-8.093289e-05
25	0xbcfb428c	-0.03067138
26	0xbce1e706	-0.02757598
27	0xbb5a7e53	-0.0033339455
28	0x3d137195	0.035996992
29	0xbc9e5181	-0.019325973
30	0xbdc2f817	-0.09519976
31	0xbc952bf2	-0.018209431
32	0xbd0a94c3	-0.033833276
33	0xbd93391d	-0.07188628
34	0xbd8d18e6	-0.068895146
35	0xbdaf34bd	-0.08554981
36	0xbd1e7266	-0.038683318
37	0xbd817824	-0.06321743
38	0xbc5b7271	-0.013393984
39	0xbd42929c	-0.0475031
40	0xbdee283a	-0.11628766
41	0xbd0bf4b7	-0.034168925
42	0xbcfec9dd	-0.031102115
43	0x3d373c7c	0.044735417
44	0x3d0b7fc5	0.034057397
45	0xbd77744d	-0.060413647
46	0xbcb598e0	-0.022167623
47	0xba2b94ef	-0.0006545325
48	0xbd2c91cf	-0.04213124
49	0xbc85c650	-0.016329914
50	0xbc06eec7	-0.00823564
51	0xbcfa5389	-0.03055741
52	0xbd73b9ec	-0.05950348
53	0xbd35fa35	-0.04442807
54	0xbc114a0d	-0.008867753
55	0x3d8bc8be	0.06825398
56	0xbd225c1f	-0.039638635
57	0xbd75aafe	-0.059977524
58	0xbd277111	-0.040879313
59	0x3c3524a3	0.011056098
60	0x3c57cab1	0.013170884
61	0xbd6b4888	-0.057442218
62	0xbce25f85	-0.027633438
63	0xbd04c8d4	-0.032418087
64	0x3d5ffefb	0.054686528
65	0x3b28b5c0	0.0025743097
66	0xbba2302c	-0.00494959
67	0xbcefa03b	-0.029251209
68	0xbceeaa1c	-0.029133849
69	0xbd4f928a	-0.05067686
70	0xbc6fd9e6	-0.014639353
71	0xbd48a52f	-0.048985656
72	0x3d3275e2	0.043569453
73	0xbd3f9536	-0.046773158
74	0xbd1eeef1	-0.03880209
75	0x3d67677d	0.05649518
76	0xbcf20b56	-0.029546421
77	0xbd40cf03	-0.04707242
78	0xbcc5a967	-0.024128629
79	0x3d30ee8e	0.043196253
80	0xbd96c7b4	-0.07362309
81	0xbd0f1cdc	-0.03493963
82	0xbdc5cfa9	-0.09658749
83	0x3cca2e86	0.024680387
84	0xbd4d981c	-0.05019389
85	0xbce38548	-0.027773514
86	0xbc90e46e	-0.017687049
87	0x3bed513e	0.007242351
88	0xbd10b95e	-0.03533303
89	0xbd069bdc	-0.032863483
90	0xbd1fc9cc	-0.039010808
91	0xbcab1fc2	-0.020889167
92	0xbd5c0c73	-0.05372281
93	0xbcd908ed	-0.026493514
94	0x3b8f7d98	0.0043789856
95	0x3dbfe792	0.093703404
96	0xbd0941bf	-0.033509966
97	0xbdcd7424	-0.10031918
98	0xbd3dd690	-0.0463472
99	0xbcad32c6	-0.021142375
100	0xbd3b4c27	-0.04572692
101	0xbc12adbe	-0.008952556
102	0xbd2b8548	-0.041875154
103	0xbdbc6016	-0.091980144
104	0xbaae30ee	-0.0013289729
105	0x3d55e9f6	0.052225076
106	0x3c479ae7	0.012182928
107	0x3bc27c95	0.0059352615
108	0x3d0db637	0.0345976
109	0xbdc19fcd	-0.09454308
110	0x3cb922b6	0.02259956
111	0x3cc48765	0.023990342
112	0xbc646932	-0.013941096
113	0x3c4f26e2	0.012643548
114	0xbd4b9f90	-0.049712718
115	0x3c5df9fb	0.0135483695
116	0xbd57b118	-0.052659124
117	0x3ad90ac6	0.0016558997
118	0xbd41c8d7	-0.047310676
119	0x3c63be6a	0.013900379
120	0xbcc405d6	-0.023928564
121	0xbcb3d597	-0.021952434
122	0xbce92bb1	-0.028463216
123	0xbc067a54	-0.008207876
124	0xbd1d498f	-0.03840023
125	0xbd421fbe	-0.047393553
126	0xbc6d211a	-0.014473224
127	0x3c961af4	0.0183234
128	0xbd15552d	-0.036458183
129	0x3d11cb0f	0.035594042
130	0xbd2e75dd	-0.042592872
131	0xbcf2a18f	-0.029618053
132	0x3d05b754	0.03264554
133	0x3ca446b8	0.020053253
134	0x3c2b752c	0.010464948
135	0x3d04daea	0.032435335
136	0xbcef39d5	-0.029202381
137	0xbd8a70a3	-0.06759765
138	0xbd0f6564	-0.035008803
139	0xbca14988	-0.019688383
140	0xbd99d8b0	-0.07512033
141	0xbda25a5f	-0.07927393
142	0x3b08c17c	0.0020867279
143	0xbd330694	-0.043707445
144	0xbd692058	-0.05691561
145	0xbcfee16a	-0.031113345
146	0xbdbbc44d	-0.09168301
147	0xbd942f25	-0.072355546
148	0xbdaa8297	-0.08325689
149	0xbcd43cc0	-0.025907874
150	0xbd6a82b3	-0.05725355
151	0xbd56b61d	-0.05241977
152	0xbd539756	-0.051657997
153	0x3c0a2b45	0.008433168
154	0x3b49caac	0.0030790968
155	0xbd2501da	-0.04028497
156	0xbbb4e724	-0.005520718
157	0xbd1c1ce3	-0.038113486
158	0xbd4cc4fc	-0.049992546
159	0x3d2ff2b9	0.042956088
160	0xbd46445f	-0.048405048
161	0xbbc5d118	-0.006036889
162	0xbd67501f	-0.056472894
163	0xbd226574	-0.039647534
164	0xbcfecfa6	-0.031104874
165	0x3d4df012	0.050277777
166	0xbd66abe6	-0.05631628
167	0xbd6f3e3b	-0.058408957
168	0xbd1e4c21	-0.03864682
169	0x3b9fbdb9	0.0048749116
170	0xbc8f3f83	-0.01748634
171	0xbd20a7e2	-0.039222606
172	0xbd3b6674	-0.045752004
173	0xbd6333e1	-0.055469397
174	0x3d486add	0.048930038
175	0x3c24492f	0.010027214
176	0x3cc1c1bf	0.023651956
177	0xbbc947ce	-0.006142593
178	0x3d762474	0.06009336
179	0xbc1c4510	-0.00953795
180	0xbd3cc6c3	-0.04608799
181	0xbd21cf60	-0.03950441
182	0xbcb44aac	-0.022008263
183	0xbcbe1464	-0.023203082
184	0xbcd1fa5b	-0.025632074
185	0x3c6078da	0.013700688
186	0xbd7ffe1c	-0.062498197
187	0xbd0ba375	-0.03409143
188	0xbc8c60a8	-0.017135933
189	0xbcecab66	-0.028890323
190	0xbc1c1bf7	-0.009528152
191	0x3ce7772d	0.02825507
192	0xbcebadd7	-0.028769417
193	0xbda3ca7f	-0.079976074
194	0xbda115b7	-0.0786547
195	0xbc96606f	-0.01835653
196	0xbdcb7eb9	-0.0993628
197	0x3d6b8fe7	0.057510283
198	0xbdadad95	-0.08480374
199	0xbd887260	-0.0666244
200	0xbd0fec2e	-0.035137348
201	0x3b9d646b	0.0048032305
202	0xbd784e22	-0.06062139
203	0xbc95d74e	-0.018291142
204	0xbdbcea43	-0.092243694
205	0xbccdb6f6	-0.025111657
206	0xbcd6e5e0	-0.02623266
207	0x3a4c67bb	0.00077974395
208	0xbd60be44	-0.05486895
209	0xbdaffa7d	-0.08592699
210	0xbd15dbb0	-0.036586463
211	0xbc52a567	-0.012856818
212	0xbcb2dba5	-0.02183325
213	0x3dda83f0	0.10669696
214	0xbd60e33b	-0.054904204
215	0xbcd9be89	-0.026580112
216	0xbd98ea15	-0.074665226
217	0x3d0c25a2	0.034215577
218	0xbc5c46f1	-0.013444648
219	0xbc83e1f2	-0.01609895
220	0x3c935517	0.01798491
221	0xbdac1bd0	-0.08403742
222	0xbc1c3aeb	-0.0095355315
223	0x3cfe26df	0.031024395
224	0x3d412f77	0.047164407
225	0xbd7e47c4	-0.06208016
226	0xbda8c54d	-0.08240757
227	0xbdb06fa7	-0.08615046
228	0x3c9a2c50	0.018819958
229	0xbd0648c6	-0.032784246
230	0x3ced8647	0.028994692
231	0xbd15b861	-0.03655279
232	0xbca3c617	-0.019991918
233	0x3cae934a	0.021310467
234	0x3c7f41f2	0.015579687
235	0xbd1e42e6	-0.038638018
236	0xbd9f6d78	-0.077845514
237	0x3b9bc80f	0.0047540735
238	0xbd25f104	-0.040513054
239	0x3cf3d0f0	0.029762715
240	0x3bae73f8	0.005323883
241	0xbd8962ff	-0.06708335
242	0xbd754954	-0.059884384
243	0xbd0ba501	-0.034092907
244	0x3d06406b	0.032776278
245	0xbd5fa5c4	-0.054601446
246	0xbd092b3f	-0.03348851
247	0xbd5e7020	-0.05430615
248	0x3c5d9484	0.013524178
249	0xbce8a2bb	-0.028397908
250	0xbd4d9bfc	-0.050197586
251	0xbc9dbcdd	-0.019255096
252	0xbc2d6b64	-0.010584686
253	0xbd4e4a02	-0.050363548
254	0x3af78785	0.0018884992
255	0x3d16a85e	0.03678166

fcnet.0.bias f4 [128]
0	0xbd3eb4d1	-0.04655916
1	0xbd940b90	-0.07228768
2	0xbd626e8a	-0.0552812
3	0xbb930643	-0.0044868304
4	0xbd0ac872	-0.033882566
5	0xbdc5421b	-0.09631749
6	0xbc918964	-0.017765708
7	0xbce22781	-0.027606728
8	0xbd6aa0db	-0.05728231
9	0x3ed08dcf	0.4073319
10	0xbd45a75c	-0.04825531
11	0x3b9d8d2e	0.0048080897
12	0xbdbd91f2	-0.092563525
13	0xbd12adbc	-0.035810217
14	0xbd57771f	-0.052603837
15	0xbcf4c395	-0.029878417
16	0xbc8ecdc2	-0.017432097
17	0xbc9abe89	-0.018889682
18	0xbd3271b0	-0.043565452
19	0xbc796713	-0.015222329
20	0xbcede9cb	-0.029042145
21	0xbcb4bcab	-0.02206262
22	0xbcd68c48	-0.026189938
23	0xbd20184d	-0.039085675
24	0xbcd4c5ac	-0.025973164
25	0xbcd9d54e	-0.02659097
26	0xbd11c336	-0.03558656
27	0xbd5ba565	-0.05362453
28	0xbd458322	-0.04822076
29	0xbc5551a6	-0.013019955
30	0xbd51de7b	-0.051237565
31	0xbd865000	-0.065582275
32	0xbd89d05b	-0.06729194
33	0xbc94612e	-0.018112745
34	0xbd13dff2	-0.036102243
35	0x3b6a4e4a	0.003575223
36	0xbccbee78	-0.024893984
37	0xbc1e609c	-0.009666588
38	0xbd8eca38	-0.06972164
39	0xbd094bdf	-0.033519622
40	0xbc197dd3	-0.009368378
41	0x3c5131a1	0.01276818
42	0xbbbb3187	-0.005712691
43	0xbcd79df2	-0.026320431
44	0xbcd80d47	-0.026373519
45	0xbd9cd8d3	-0.076585434
46	0xbd0099ad	-0.031396557
47	0xbceadef8	-0.028670773
48	0xbe28a86b	-0.16470496
49	0xbcf003b7	-0.029298646
50	0xbd782e39	-0.060590956
51	0xbd00e65c	-0.031469688
52	0xbcece389	-0.028917091
53	0xbd522f20	-0.051314473
54	0xbd538838	-0.05164358
55	0xbd32fdde	-0.043699138
56	0x3bbfec35	0.0058570155
57	0xbca7e660	-0.020495594
58	0xbd316ff9	-0.043319676
59	0xbca5fefe	-0.020263191
60	0xbc61e65b	-0.013787831
61	0xbd8c75a8	-0.06858379
62	0x3de7f0b5	0.11325208
63	0xbd428344	-0.047488466
64	0xbd2b1a17	-0.041772928
65	0xbeb03daa	-0.34422046
66	0xbdb6a722	-0.08918597
67	0xbd14e2ed	-0.036349226
68	0xbcb4c9d7	-0.022068901
69	0xbcd6532a	-0.026162703
70	0x3e6abe10	0.22924066
71	0xbd65c06e	-0.05609172
72	0xbd600592	-0.054692812
73	0xbd88e3c8	-0.06684071
74	0xbcdbfd33	-0.026854133
75	0xbc640bcb	-0.013918827
76	0xbcef0d34	-0.0291811
77	0xbce2a605	-0.027667055
78	0xbd485b40	-0.048915148
79	0xbd75e7c9	-0.0600355
80	0xbc12242a	-0.008919755
81	0xbd486571	-0.048924867
82	0x3fb65b69	1.4246646
83	0xbcef62d4	-0.02922193
84	0xbd5acf43	-0.053420316
85	0xbd62ddd6	-0.05538734
86	0xbd2dd264	-0.042436972
87	0xbea3458a	-0.31888992
88	0xbe2c69cd	-0.16837235
89	0xbd71d56b	-0.05904142
90	0x3f25f4e7	0.64826816
91	0xbd209fab	-0.03921477
92	0xbc8130ea	-0.015770394
93	0xbcd47146	-0.02593292
94	0x3ebaca07	0.3648226
95	0xbd15173a	-0.036399104
96	0xbd2b6212	-0.041841574
97	0x3b27a768	0.002558196
98	0xbd12a748	-0.035804063
99	0xbcfccb70	-0.030858725
100	0xbb2529e2	-0.0025201966
101	0xbd2f4c16	-0.04279717
102	0xbc884502	-0.016634468
103	0xbcbf1090	-0.023323327
104	0xbda1e173	-0.07904329
105	0xbc28b30a	-0.0102965925
106	0xbd4d9bd4	-0.050197437
107	0xbd296561	-0.041356448
108	0x3f1aeb66	0.6051544
109	0xbce7012b	-0.0281988
110	0xbc89a1f2	-0.016800854
111	0xbdf04c2a	-0.11733277
112	0xbd62789e	-0.05529081
113	0xbcaced78	-0.021109328
114	0xba54c284	-0.0008116143
115	0xbd5c9a88	-0.05385831
116	0x3f33c597	0.70223373
117	0xbcc18bae	-0.023626175
118	0xbd1edcde	-0.038784854
119	0x3c79443f	0.015214025
120	0xbd45a47c	-0.048252568
121	0xbb858f98	-0.0040759556
122	0xbca9b656	-0.020716827
123	0x3ed1a417	0.40945503
124	0xbcc45b0a	-0.023969192
125	0xbd30a895	-0.043129522
126	0xbdc2f99d	-0.09520266
127	0xbd1ce02d	-0.03829973
