final-project-agar/store/nets/full_from_scratch_trained_cnn.pt (torch_old, 847455 bytes, 22 tensors)

convnet.0.weight f4 [32, 4, 8, 8]
0.061125997 0.25768706 0.19034293 0.1963332 0.20588246 0.34433472 0.21286827 0.21313092
-0.0014026243 0.014327212 0.047211513 0.10323336 0.113909766 0.2515322 0.2125033 0.2656619
-0.2133142 -0.2122312 -0.2116336 0.024526317 0.045679983 0.17790698 0.011972127 0.23947181
-0.015896546 -0.063892245 0.039672486 -0.024197035 0.1376577 0.15107025 0.0898718 0.2548882
0.021504913 0.010064076 0.073316015 -0.08025644 -0.036878232 0.024167746 0.23532647 0.100125805
0.0578749 0.10791195 0.02935811 0.07722429 0.08433909 0.025048703 0.21435998 0.22358458
0.09444068 0.004615123 0.14005262 -0.003637844 -0.052273177 0.01136373 0.11782523 0.011172897
0.17743103 0.033435334 0.044893537 0.061638612 -0.04607986 0.3076888 0.03778601 -0.06679223
-0.0022608752 0.15595312 0.19623804 0.09374052 0.11885103 0.2980931 0.20054388 0.12268815
0.04985393 0.09329204 0.1407105 0.118255116 0.087006055 0.25138074 0.25686857 0.20355147
-0.21194766 -0.2080315 0.012345915 -0.00721693 0.06346723 0.1447427 0.16563536 0.19971268
-0.14082833 0.010860297 -0.18117744 0.062748946 -0.0013279686 0.10697138 0.0733371 0.21325003
0.09969408 0.06697453 0.15525632 -0.07043696 0.09104248 0.112181164 0.15312356 -0.0516726
0.037214246 -0.09836036 0.055515356 0.09692835 0.044025905 -0.06794962 -0.011734472 -0.037715003
0.008519601 -0.05202811 0.17299461 0.15689836 0.08040403 0.044712164 -0.100334555 -0.14868274
0.16021179 -0.03090459 0.008596237 0.0985316 -0.08404699 -0.061822705 -0.14181611 -0.18871358
0.17056656 0.16128086 0.11011951 0.106903836 0.19799225 0.22104608 -0.028121466 0.03377095
-0.031868447 0.03865619 0.08490146 -0.0035548897 0.040172566 0.22775336 0.04711664 0.15251623
-0.1355587 0.08553299 0.10583369 0.092580855 -0.007991317 0.08266375 0.01098718 0.18429579
-0.14413238 -0.08767031 0.03637038 0.13847478 0.11636531 0.15581395 0.22850876 0.23033313
0.10933355 0.14034173 0.085190944 0.15406723 0.046939116 -0.07917906 -0.085860446 0.15968002
-0.043509904 -0.060395278 0.050962675 0.10614072 0.011235259 -0.028914832 -0.035004623 0.04543618
0.061285507 -0.0053682965 0.10232876 0.25774577 0.023696462 -0.055821873 -0.14837918 -0.114361845
0.10310371 0.07193133 0.23656294 0.12826598 0.035402093 0.04343137 -0.17144985 -0.043636926
0.12035503 0.09239181 -0.07870359 0.13237643 0.08937908 -0.046466757 -0.023400309 -0.061742667
0.1588778 0.13638972 0.06997634 0.0951155 -0.08539214 -0.0050014136 -0.041816067 -0.07393424
0.03142299 -0.18021214 -0.22082843 -0.06705927 -0.11937002 -0.24978504 -0.34035504 -0.3085803
-0.07908259 -0.2618512 -0.33266076 -0.1729592 -0.30608425 -0.317688 -0.4100484 -0.3343661
-0.0351087 0.030167766 -0.13130876 -0.08045089 -0.45079443 -0.38255957 -0.43815178 -0.46100527
0.018150618 -0.120837234 -0.24657589 -0.15725316 -0.5033158 -0.50660837 -0.52393067 -0.19412729
0.06352444 0.05865052 0.09159233 0.0043748897 -0.13750659 -0.19811769 -0.33168346 -0.22589406
0.16985239 0.23513103 0.20942234 0.018475402 0.017636014 -0.12736614 -0.1973248 -0.26991248
00000000: 415f 7a3d 8fef 833e 42e9 423e 920b 493e
00000010: dad2 523e a44c b03e 24fa 593e fe3e 5a3e
00000020: 43d8 b7ba afbc 6a3c dc60 413d 036c d33d
00000030: 8649 e93d d4c8 803e 779a 593e d604 883e
00000040: 0a6f 5abe 2353 59be 7ab6 58be 6aeb c83c
00000050: ef1a 3b3d 3f2d 363e bd26 443c 1938 753e
00000060: 7939 82bc f0d9 82bd 9e7f 223d dc38 c6bc
00000070: 24f6 0c3e 29b2 1a3e b50e b83d b580 823e
00000080: 122b b03c cbe3 243c b526 963d 7d5d a4bd
00000090: a10d 17bd 70fb c53c 6cf9 703e c20e cd3d
000000a0: 3b0e 6d3d f100 dd3d 6b80 f03c c527 9e3d
000000b0: f9b9 ac3d f032 cd3c 2f81 5b3e 5bf3 643e
000000c0: 1e6a c13d 753a 973b f469 0f3e e568 6ebb
000000d0: 661c 56bd f02e 3a3c 5b4e f13d 870e 373c
000000e0: 7bb0 353e 7df3 083d 49e2 373d c578 7c3d
000000f0: 3cbe 3cbd 6389 9d3e 81c5 1a3d 5dca 88bd
00000100: 312b 14bb 2db2 1f3e a0f2 483e 08fb bf3d
00000110: 2b68 f33d a99f 983e 605b 4d3e ed43 fb3d
00000120: a233 4c3d e60f bf3d 6a16 103e bd2f f23d
00000130: 3b30 b23d fab4 803e 4784 833e cc6f 503e
00000140: cf08 59be 3606 55be 8546 4a3c ff7b ecbb
00000150: 1bfb 813d 6e37 143e 519c 293e 7b81 4c3e
00000160: 4d35 10be 63ef 313c 9486 39be 8582 803d
00000170: 3b0f aeba d013 db3d c331 963d 375e 5a3e
00000180: 692c cc3d f129 893d 83fb 1e3e 4141 90bd
00000190: 7b74 ba3d 3dbf e53d 6ccc 1c3e a6a6 53bd
000001a0: f76d 183d 2871 c9bd 1264 633d 5f82 c63d
000001b0: 8254 343d 2c29 8bbd f141 40bc 0c7b 1abd
000001c0: cc95 0b3c 6d1b 55bd 8025 313e f7a9 203e
000001d0: deaa a43d 1a24 373d 347c cdbd 4a40 18be
000001e0: 8f0e 243e 9f2b fdbc 3bd7 0c3c efca c93d
000001f0: d420 acbd ce39 7dbd 3e38 11be 223e 41be
00000200: 00a9 2e3e cf26 253e 5686 e13d 66f0 da3d
00000210: 7bbe 4a3e e759 623e fd5e e6bc 6853 0a3d
00000220: 7d88 02bd f455 1e3d d1e0 ad3d 27f9 68bb
00000230: fd8b 243d 2d38 693e 61fd 403d 372d 1c3e
00000240: e6cf 0abe ec2b af3d 55bf d83d 089b bd3d
00000250: 03ee 02bc 9d4b a93d 9303 343c 09b8 3c3e
00000260: 7097 13be 7e8c b3bd 1cf9 143d 55cc 0d3e
00000270: f050 ee3d b18d 1f3e 33fe 693e 73dc 6b3e
00000280: 45ea df3d beb5 0f3e 9778 ae3d cdc3 1d3e
00000290: 3b43 403d a228 a2bd 9ad7 afbd 2983 233e
000002a0: 7137 32bd 0a61 77bd 3dbe 503d 4e60 d93d
000002b0: 1714 383c ccde ecbc 0261 0fbd 4a1b 3a3d
000002c0: 8306 7b3d 89e8 afbb be91 d13d 41f7 833e
000002d0: 151f c23c 7aa5 64bd b6f0 17be 8b36 eabd
000002e0: 0a28 d33d bc50 933d 8e3d 723e 2858 033e
000002f0: c901 113d 18e5 313d 8d90 2fbe a2bc 32bd
00000300: b37c f63d eb37 bd3d 592f a1bd b08d 073e
00000310: 610c b73d ed53 3ebd 01b2 bfbc e1e5 7cbd
00000320: ddb0 223e bfa9 0b3e c14f 8f3d eacb c23d
00000330: 13e2 aebd e6e2 a3bb 5347 2bbd d66a 97bd
00000340: 65b5 003d 8889 38be d920 62be 5f56 89bd
00000350: 4578 f4bd a6c7 7fbe 0443 aebe 3dfe 9dbe
00000360: 0ef6 a1bd 5c11 86be 8352 aabe 371c 31be
00000370: 13b7 9cbe 00a8 a2be ddf1 d1be 0932 abbe
00000380: 24ce 0fbd 6422 f73c ce75 06be 70c3 a4bd
00000390: 87ce e6be d9de c3be 6e55 e0be e208 ecbe
000003a0: 9bb0 943c 8379 f7bd 647e 7cbe f906 21be
000003b0: 4ed9 00bf 16b1 01bf 5220 06bf 4ec9 46be
000003c0: 1a19 823d 873b 703d c294 bb3d 3c5b 8f3b
000003d0: 87ce 0cbe 5ddf 4abe 6ad2 a9be c650 67be
000003e0: c9ed 2d3e 30c6 703e cf72 563e ba59 973c
000003f0: 6779 903c 456c 02be 830f 4abe f831 8abe

convnet.0.bias f4 [32]
0.03551723 0.102894716 -0.033777818 -0.1623046 0.030076953 0.058943167 -0.0533629 0.005473118
-0.0016357156 0.082887605 0.10792223 0.075143926 -0.06989055 -0.15625258 -0.20542675 0.024840765
0.069191396 0.07020285 -0.0012317075 0.015070713 -0.11942538 0.0022897667 -0.14577761 0.1251456
-0.016269943 -0.084780954 0.029302789 0.0077451677 -0.113401555 0.100572325 0.09162666 -0.058996852
00000000: 847a 113d 77ba d23d 9c5a 0abd 2d33 26be
00000010: f163 f63c 646e 713d 0e93 5abd d757 b33b
00000020: 8265 d6ba fac0 a93d 5506 dd3d 0fe5 993d
00000030: c722 8fbd ad00 20be 645b 52be dc7e cb3c
00000040: 38b4 8d3d 83c6 8f3d 3f71 a1ba 27eb 763c
00000050: 4b95 f4bd e90f 163b ba46 15be 2b26 003e
00000060: 8b48 85bc a3a1 adbd 670c f03c 2dcb fd3b
00000070: 133f e8bd ddf8 cd3d c2a6 bb3d afa6 71bd

convnet.2.weight f4 [32]
0.91352165 1.2229232 1.2079505 1.0762928 0.71820337 1.5583084 1.3385288 1.2747339
1.2694292 0.66747195 1.253841 0.91609323 1.2991076 1.2311562 1.0397521 0.98473436
0.8690064 0.8148599 1.1829852 0.84138054 1.1724304 1.2764148 1.1733223 1.0765831
1.1386731 1.1354537 1.2618927 1.1614386 1.1108093 1.0847436 1.2919886 0.76170415
00000000: 8edc 693f bf88 9c3f 1f9e 9a3f f6c3 893f
00000010: 2ddc 373f a676 c73f e954 ab3f 7b2a a33f
00000020: a87c a23f 71df 2a3f dd7d a03f 1685 6a3f
00000030: 2849 a63f 8796 9d3f 9916 853f 8d17 7c3f
00000040: 3477 5e3f a99a 503f 0f6c 973f b764 573f
00000050: 3312 963f 8f61 a33f 6d2f 963f 7acd 893f
00000060: 0ac0 913f 8c56 913f b385 a13f 05aa 943f
00000070: 002f 8e3f e1d8 8a3f e25f a53f 0bff 423f

convnet.2.bias f4 [32]
-0.25038925 -0.3523318 -0.048593592 -0.1720766 -0.6138343 0.3081061 -0.06967356 -0.15612626
-0.046053763 -0.43118048 0.064291105 -0.23062529 -0.021551274 -0.035619184 -0.21960177 -0.10461382
-0.13806419 -0.19262302 0.31012523 -0.29546246 -0.05483328 -0.018093448 -0.015128914 -0.20356104
-0.16232821 -0.13569109 0.16852455 0.16486266 -0.050362032 -0.022588965 -0.0676117 -0.2264907
00000000: 0533 80be d564 b4be 130a 47bd d934 30be
00000010: 3f24 1dbf 15c0 9d3e 03b1 8ebd 90df 1fbe
00000020: dfa2 3cbd b0c3 dcbe 0eab 833d 0929 6cbe
00000030: 4c8c b0bc 6ce5 11bd 49df 60be c53f d6bd
00000040: b360 0dbe f83e 45be bcc8 9e3e db46 97be
00000050: dd98 60bd b638 94bc 44df 77bc 4e72 50be
00000060: 5e39 26be 9bf2 0abe b391 2c3e c2d1 283e
00000070: 6b48 4ebd 7e0c b9bc 0178 8abd 2eed 67be

convnet.2.running_mean f4 [32]
1093.3159 1477.6224 1451.9496 1738.8932 -898.3726 2624.2773 1425.089 1248.1842
1943.9156 853.0288 956.7567 -633.9137 1570.351 665.56213 1121.5608 1620.8313
2838.4214 -124.59702 4120.056 127.10316 1613.2747 930.1391 1083.1127 344.81842
2834.1257 3300.5635 2355.696 2724.4983 1076.6573 377.84045 1016.77386 1846.4917
00000000: 1caa 8844 ebb3 b844 637e b544 955c d944
00000010: d997 60c4 7004 2445 d922 b244 e505 9c44
00000020: 4dfd f244 d841 5544 6e30 6f44 7a7a 1ec4
00000030: 3b4b c444 fa63 2644 f231 8c44 9a9a ca44
00000040: be66 3145 ad31 f9c2 73c0 8045 d134 fe42
00000050: caa8 c944 e788 6844 9b63 8744 c268 ac43
00000060: 0322 3145 0449 4e45 233b 1345 f947 2a45
00000070: 0995 8644 94eb bc43 8731 7e44 bccf e644

convnet.2.running_var f4 [32]
24240.812 15941.205 25599.215 15002.216 59570.03 29576.64 17253.736 13579.364
21608.729 19299.941 14962.495 44690.79 16344.957 18469.201 20053.695 17463.75
38627.504 80258.34 74319.02 25548.92 23702.904 11869.43 14792.064 21505.49
37914.695 46622.875 29424.504 35967.44 22987.494 10511.95 20780.941 20437.695
00000000: a061 bd46 d214 7946 6efe c746 dd68 6a46
00000010: 08b2 6847 4811 e746 79cb 8646 752d 5446
00000020: 75d1 a846 e2c7 9646 fbc9 6946 ca92 2e47
00000030: d463 7f46 674a 9046 64ab 9c46 806f 8846
00000040: 81e3 1647 2cc1 9c47 8327 9147 d799 c746
00000050: cf2d b946 b875 3946 4220 6746 fb02 a846
00000060: b21a 1447 e01e 3647 02e1 e546 717f 0c47
00000070: fd96 b346 cd3f 2446 e259 a246 64ab 9f46

convnet.4.weight f4 [64, 32, 4, 4]
-0.001779605 -0.049948547 -0.08033573 -0.09568656 -0.12019889 -0.03540273 -0.18172224 -0.3494768
-0.0044459887 0.05579526 -0.06800858 -0.18746327 -0.20260826 -0.2393079 -0.41300339 -0.25722843
-0.26252863 -0.021476954 -0.24330524 0.15569846 -0.110560074 -0.034708403 -0.27470767 0.07244192
0.27864045 0.268073 0.14142895 0.014156382 -0.07189594 0.082821704 0.03570326 0.2105924
-0.055539615 0.118173994 0.027402662 -0.15211824 0.13397102 0.16518943 0.09248199 -0.14374913
0.088340364 0.22214963 -0.47815233 -0.3536464 0.04202651 0.002012082 0.07726007 -0.010328455
-0.01769167 0.1549865 -0.06519302 -0.08963044 -0.009688479 0.07506452 -0.2385484 -0.17609598
0.15189168 0.026985783 -0.16127464 -0.014088168 0.06819099 0.1661307 0.21050581 0.10317774
-0.0880245 -0.2094405 -0.21871015 -0.1023686 -0.011392437 -0.03556409 -0.065483056 -0.043277483
-0.2040283 -0.012827969 0.0071648704 -0.058208786 -0.23357879 -0.17562965 -0.059943 -0.16052508
0.12485474 0.05125861 -0.033429626 0.04643034 0.22919205 0.26756284 0.01652015 -0.09407515
0.05821026 -0.06449237 -0.22739357 -0.62523824 -0.1310094 0.23223503 0.13465042 -0.20859657
-0.33705193 -0.16954006 -0.06987822 0.2821367 -0.20985018 -0.016221479 -0.031915557 0.040993035
0.016602932 0.072676 0.065064505 -0.11058302 0.10530918 -0.01905717 -0.057872117 -0.16313308
-0.10437429 -0.24524947 -0.027188288 0.31112126 0.054543745 -0.028789703 0.019613625 0.36041903
0.3095708 -0.026431585 0.019821668 0.053136714 0.11116806 0.050338984 -0.07716466 0.008739094
-0.23369561 -0.10105947 -0.09797421 -0.044405513 0.27312973 0.14435172 -0.051931825 -0.20482977
-0.10044575 -0.05926829 -0.2190066 -0.18905433 0.24206729 0.22578658 0.14718567 -0.0999719
0.022195715 -0.029945012 -0.16538309 0.14127526 -0.072904035 0.23563239 -0.074755415 -0.106739245
-0.41839787 -0.12338998 -0.13631076 -0.424235 -0.059101216 -0.23662841 -0.40513107 0.04764442
-0.11220527 -0.08291663 -0.1542464 -0.27128482 0.10083319 -0.006908751 -0.10356851 -0.03137866
0.4688524 0.42226255 -0.15202466 0.059919134 0.03580766 -0.060417347 0.21425255 -0.0155733
0.099363 -0.1042606 0.038879465 0.005536964 0.25179005 -0.081871234 -0.15131849 0.15931796
0.2974747 0.16609617 -0.029984558 -0.024953892 -0.003820524 -0.06881929 -0.082041 -0.03999987
0.049367297 0.020474508 0.22538988 0.083585516 0.44387382 0.111150004 -0.18669713 0.1131901
0.09904803 0.050324302 -0.21035811 -0.19328636 0.11891451 0.20178337 0.20608729 -0.025012862
-0.20067215 -0.37586677 -0.39197478 -0.082190834 -0.25258434 -0.1298481 -0.025162872 -0.13409944
0.187057 0.21265158 0.09402792 0.042787164 0.11420332 0.122600324 -0.3375577 -0.09530644
0.21250089 -0.026441816 0.12069225 0.0042595007 0.14213258 0.11307926 -0.07405553 -0.44354928
0.17555977 0.17787376 -0.21072285 -0.088713415 0.26058432 0.15520126 0.07231023 0.12479875
0.09872471 -0.050392777 0.00575117 0.18845011 -0.27082962 -0.0999202 -0.10675449 -0.18045454
0.03908385 0.11269023 -0.14962773 -0.014537558 -0.17087711 -0.2907449 -0.32720986 -0.25723514
00000000: a341 e9ba d996 4cbd 0f87 a4bd 51f7 c3bd
00000010: d62a f6bd 7402 11bd 6515 3abe a0ee b2be
00000020: a8af 91bb 9289 643d 1548 8bbd 5ff6 3fbe
00000030: 8a78 4fbe 210d 75be 2e75 d3be 72b3 83be
00000040: 276a 86be 70f0 afbc 0225 79be 6b6f 1f3e
00000050: 526d e2bd 662a 0ebd 7ca6 8cbe 6e5c 943d
00000060: f6a9 8e3e dd40 893e c0d2 103e 2bf0 673c
00000070: 2e3e 93bd 6d9e a93d 953d 123d 89a5 573e
00000080: 827d 63bd 3505 f23d 8c7b e03c e2c4 1bbe
00000090: b32f 093e 6b27 293e 3367 bd3d f932 13be
000000a0: cbeb b43d 317b 633e 62d0 f4be 2411 b5be
000000b0: fd23 2c3d 22dd 033b 873a 9e3d ae38 29bc
000000c0: 1fee 90bc c8b4 1e3e eb83 85bd 2a90 b7bd
000000d0: 6dbc 1ebc 6dbb 993d 0846 74be 8152 34be
000000e0: 7e89 1b3e 4a11 dd3c 2e25 25be 0fd2 66bc
000000f0: b8a7 8b3d 2b1e 2a3e d68e 573e da4e d33d
00000100: 3046 b4bd 9277 56be 8ef5 5fbe a1a6 d1bd
00000110: 58a7 3abc a7ab 11bd fb1b 86bd bb43 31bd
00000120: cbec 50be 672c 52bc 4ac7 ea3b 566c 6ebd
00000130: 472f 6fbe 42d8 33be cb86 75bd b060 24be
00000140: d8b3 ff3d 8cf4 513d 81ed 08bd bd2d 3e3d
00000150: 52b1 6a3e fffd 883e 4455 873c 79aa c0bd
00000160: e26d 6e3d 9314 84bd dcd9 68be 9d0f 20bf
00000170: 5427 06be 05cf 6d3e cde1 093e 579a 55be
00000180: 1292 acbe e99b 2dbe 501c 8fbd 3974 903e
00000190: f7e2 56be e8e2 84bc e3b9 02bd 50e8 273d
000001a0: df02 883c 28d7 943d 8a40 853d 5a79 e2bd
000001b0: 57ac d73d c81d 9cbc 500b 6dbd 5c0c 27be
000001c0: 30c2 d5bd ad22 7bbe f9b9 debc 494b 9f3e
000001d0: 4369 5f3d 62d8 ebbc c1ac a03c d888 b83e
000001e0: 1080 9e3e 0d87 d8bc 0d61 a23c e2a5 593d
000001f0: 14ac e33d 4030 4e3d 8108 9ebd 6b2e 0f3c
00000200: e74d 6fbe 44f8 cebd b4a6 c8bd 8ee2 35bd
00000210: a9d7 8b3e f0d0 133e 77b6 54bd e5be 51be
00000220: 80b6 cdbd 4ec3 72bd 4443 60be 7597 41be
00000230: 7de0 773e 9934 673e d7b7 163e 11be ccbd
00000240: cad3 b53c 3e4f f5bc 2f5a 29be 76aa 103e
00000250: b64e 95bd 9e49 713e 5e19 99bd 1b9a dabd
00000260: 3f38 d6be e3b3 fcbd 0c95 0bbe 5435 d9be
00000270: 1e14 72bd b84e 72be 576d cfbe cc26 433d
00000280: e0cb e5bd 32d0 a9bd c5f2 1dbe d8e5 8abe
00000290: a281 ce3d ce62 e2bb ba1b d4bd e986 00bd
000002a0: 6c0d f03e cc32 d83e 5aac 1bbe c46d 753d
000002b0: 0eab 123d 2e78 77bd 0565 5b3e 2827 7fbc
000002c0: d47e cb3d 9586 d5bd 1340 1f3d 6c6f b53b
000002d0: a0ea 803e 1bac a7bd 3cf3 1abe 3f24 233e
000002e0: 9b4e 983e 1d15 2a3e 2da2 f5bc 1b6c ccbc
000002f0: c261 7abb 21f1 8cbd 1d05 a8bd e7d6 23bd
00000300: 5d35 4a3d 28ba a73c 9bcc 663e e22e ab3d
00000310: 6e43 e33e 9da2 e33d 882d 3fbe 36d0 e73d
00000320: b2d9 ca3d db20 4e3d 1e68 57be dcec 45be
00000330: 7389 f33d 4da0 4e3e 8c08 533e c6e7 ccbc
00000340: 007d 4dbe 9c71 c0be ebb0 c8be ab53 a8bd
00000350: bc52 81be e6f6 04be 5e22 cebc 5d51 09be
00000360: df8b 3f3e 56c1 593e b691 c03d 9841 2f3d
00000370: 6ee3 e93d e115 fb3d 5dd4 acbe 0630 c3bd
00000380: d599 593e 829c d8bc 802d f73d 4893 8b3b
00000390: 348b 113e 1996 e73d 6daa 97bd e418 e3be
000003a0: f1c5 333e 8a24 363e bbc7 57be 61af b5bd
000003b0: 4f6b 853e 14ed 1e3e 6317 943d 7d96 ff3d
000003c0: 2e30 ca3d a868 4ebd 5074 bc3b 11f9 403e
000003d0: 2eaa 8abe f6a2 ccbd 19a2 dabd 13c9 38be
000003e0: 6316 203d 23ca e63d 0338 19be f02e 6ebc
000003f0: 69fa 2ebe 84dc 94be 0d88 a7be 53b4 83be

convnet.4.bias f4 [64]
0.021749647 -0.028674748 0.009597528 -0.03347151 -0.010806134 -0.041834906 -0.020881668 0.036309365
-0.045810748 -0.070358135 -0.13465935 -0.12713717 0.17248778 -0.052414678 -0.043020636 0.072360665
0.14788142 -0.14720123 0.13810752 0.046924375 0.035942167 0.16397338 0.23214793 0.061244402
0.15081963 -0.076673 0.004036199 -0.0065866173 -0.01722311 -0.055592004 -0.04576675 -0.105914816
0.0117906 -0.11083905 0.1559727 -0.0028016348 0.01373348 -0.10520738 0.076704785 -0.060944
-0.08083618 -0.01451982 0.1540761 -0.1824735 0.04215693 0.05263697 0.10147977 -0.05479865
-0.042222176 -0.18404694 0.048919503 -0.025860837 -0.019697415 -0.0040295785 0.021938218 -0.14638528
-0.07802755 -0.07099645 0.027899878 -0.06158015 -0.01274215 0.14966695 0.016955804 -5.1932588e-05
00000000: 512c b23c 4ee7 eabc f33e 1d3c 6c19 09bd
00000010: 360c 31bc 145b 2bbd 0810 abbc 21b9 143d
00000020: 0da4 3bbd ed17 90bd 24e4 09be 3f30 02be
00000030: a3a0 303e c6b0 56bd 6836 30bd d431 943d
00000040: 3a6e 173e ebbb 16be 0f6c 0d3e c633 403d
00000050: 1838 133d a3e8 273e 30b8 6d3e 69db 7a3d
00000060: 7670 1a3e bc06 9dbd 1742 843b 8dd4 d7bb
00000070: 7b17 8dbc 71b4 63bd ea75 3bbd dee9 d8bd
00000080: 5c2d 413c 95ff e2bd 4fb7 1f3e a29b 37bb
00000090: 6402 613c f876 d7bd 6617 9d3d 6aa0 79bd
000000a0: 708d a5bd 8ae4 6dbc 20c6 1d3e 55da 3abe
000000b0: bfac 2c3d dd99 573d a0d4 cf3d 8d74 60bd
000000c0: 29f1 2cbd cd76 3cbe d15f 483d 1bda d3bc
000000d0: 795c a1bc 8e0a 84bb c7b7 b33c 06e6 15be
000000e0: e8cc 9fbd 9666 91bd 498e e43c 783b 7cbd
000000f0: 73c4 50bc 4b42 193e e6e6 8a3c 31d2 59b8

convnet.6.weight f4 [64]
1.128155 0.94169205 0.8748599 0.7815008 0.85922736 0.7211322 0.9306116 1.0556067
0.95019823 1.0192689 0.97199017 1.3381141 0.97645533 1.0997924 0.86962414 1.0026972
1.1463785 1.1744401 0.9949518 1.1684868 0.7030391 0.96278214 1.1098536 1.0816301
0.9160265 0.77808833 1.1513715 0.68844664 0.99708563 1.0436181 1.1149235 1.1307687
0.96526694 1.219641 1.1747221 0.94156325 0.8530748 0.81336534 0.98673177 0.9381717
0.94403726 1.2341858 1.0228347 1.0897675 1.1805291 1.1273966 0.813131 1.0859284
0.8822106 0.97754294 1.0182527 1.0571753 1.112448 0.8876521 1.0249078 1.0519856
1.037073 0.98004544 1.1649761 0.86387694 0.84778154 0.9384512 0.8733192 1.1986985
00000000: 6267 903f bb12 713f d2f6 5f3f 7010 483f
00000010: 53f6 5b3f 1f9c 383f 903c 6e3f 1f1e 873f
00000020: 3140 733f 6777 823f 59d4 783f 5347 ab3f
00000030: faf8 793f ffc5 8c3f b09f 5e3f 6258 803f
00000040: 88bc 923f 0e54 963f 29b5 7e3f fa90 953f
00000050: 5ffa 333f e478 763f af0f 8e3f db72 8a3f
00000060: b680 6a3f cc30 473f 2460 933f 0a3e 303f
00000070: 0141 7f3f 4795 853f d0b5 8e3f 07bd 903f
00000080: bc1b 773f 321d 9c3f 4b5d 963f 4a0a 713f
00000090: 1c63 5a3f b638 503f 749a 7c3f 052c 703f
000000a0: 6dac 713f cdf9 9d3f 3fec 823f 807d 8b3f
000000b0: 941b 973f 884e 903f 5a29 503f b4ff 8a3f
000000c0: 8ed8 613f 4140 7a3f 1b56 823f 8551 873f
000000d0: b264 8e3f 2b3d 633f 2e30 833f 77a7 863f
000000e0: cfbe 843f 42e4 7a3f f01d 953f 0a27 5d3f
000000f0: 3608 593f 563e 703f d991 5f3f f46e 993f

convnet.6.bias f4 [64]
0.029916013 -0.3499176 -0.28168654 -0.3538649 -0.28341874 -0.24931939 -0.2606026 -0.1990068
-0.26187894 -0.01019282 -0.11994408 0.008293103 -0.19771199 -0.16893643 -0.29204753 -0.21866772
-0.23902246 -0.3538105 -0.3041332 -0.21916915 -0.34188932 -0.17263813 0.094542205 0.08826121
-0.45960867 -0.3978142 0.05239834 -0.3542585 -0.33916867 -0.10304784 -0.24391836 -0.17456946
-0.23684867 -0.1663102 -0.24658003 0.013114202 -0.28250536 -0.34290776 -0.32679182 -0.3768931
-0.21899793 -0.05015166 -0.110284336 -0.17401041 -0.075567126 0.044045307 -0.38907716 -0.10098063
-0.17521428 -0.22658049 -0.30588695 -0.04722954 -0.09428901 -0.32466102 -0.2536436 -0.3916706
-0.18316 -0.16639416 -0.1458428 -0.09859809 -0.22551183 -0.34324142 -0.28980303 -0.25286987
00000000: 6d12 f53c 6628 b3be 3839 90be c82d b5be
00000010: 431c 91be 954d 7fbe b46d 85be 70c8 4bbe
00000020: ff14 86be c9ff 26bc 3ea5 f5bd ccdf 073c
00000030: 0375 4abe acfd 2cbe 4187 95be 6eea 5fbe
00000040: 4ec2 74be a626 b5be 59b7 9bbe e16d 60be
00000050: 1e0c afbe 0dc8 30be 589f c13d 4bc2 b43d
00000060: d451 ebbe 4eae cbbe a49f 563d 5f61 b5be
00000070: 84a7 adbe bf0a d3bd bcc5 79be 56c2 32be
00000080: 7588 72be 394d 2abe 7a7f 7cbe f3dc 563c
00000090: 8ba4 90be 9b91 afbe 4251 a7be 22f8 c0be
000000a0: fe40 60be d46b 4dbd c1dc e1bd c92f 32be
000000b0: f0c2 9abd da68 343d 1f35 c7be efce cebd
000000c0: 5f6b 33be b704 68be 379d 9cbe c373 41bd
000000d0: 991a c1bd f839 a6be 93dd 81be 0d89 c8be
000000e0: 4c8e 3bbe 3b63 2abe d157 15be cced c9bd
000000f0: 93ec 66be 57bd afbe 1061 94be 2978 81be

convnet.6.running_mean f4 [64]
-0.5851506 -1.3057274 8.538311 0.29938447 1.8195194 -4.9372587 1.6786896 0.118164405
0.2626027 -1.4320388 -8.088397 0.9517509 0.43697208 1.3029169 1.7127043 -2.5047193
2.4781902 -0.16095673 3.162901 0.47637534 -8.158751 -3.6073568 -0.47133306 -4.231062
-0.21131352 -2.0212572 -2.7406685 -1.6404438 -6.5331492 4.5203805 3.7355165 -1.8741246
-0.012481982 2.5236287 1.4586571 0.038207345 0.4582078 -1.8792236 0.3368544 -3.105476
2.7953 4.033163 -4.7355833 0.20178899 1.9464015 3.2287326 -0.83255726 0.32875827
0.53453636 2.0116303 -0.366429 0.96097136 0.7570966 1.0566604 -1.9095477 5.8572974
0.50645953 -0.5195862 1.444892 -4.823184 -1.4020897 1.5927237 0.29417238 3.3495061
00000000: 6ecc 15bf 1322 a7bf ec9c 0841 ec48 993e
00000010: 03e6 e83f 06fe 9dc0 4ddf d63f 2e00 f23d
00000020: dc73 863e 0c4d b7bf 136a 01c1 f2a5 733f
00000030: ceba df3e fbc5 a63f e539 db3f 524d 20c0
00000040: ab9a 1e40 d7d1 24be f86c 4a40 78e7 f33e
00000050: 3e8a 02c1 efde 66c0 9152 f1be dc64 87c0
00000060: 9262 58be 475c 01c0 1d67 2fc0 10fa d1bf
00000070: 8f0f d1c0 f5a6 9040 b412 6f40 51e3 efbf
00000080: 3a81 4cbc 2283 2140 47b5 ba3f 4e7f 1c3d
00000090: 369a ea3e 668a f0bf 2e78 ac3e 1ec0 46c0
000000a0: 32e6 3240 ac0f 8140 e689 97c0 c6a1 4e3e
000000b0: af23 f93f 8ea3 4e40 7922 55bf 0153 a83e
000000c0: 60d7 083f 8dbe 0040 959c bbbe 3802 763f
000000d0: 15d1 413f a640 873f 0f6c f4bf fb6e bb40
000000e0: 55a7 013f 9a03 05bf 39f2 b83f 8657 9ac0
000000f0: ad77 b3bf 5fde cb3f c39d 963e 4f5e 5640

convnet.6.running_var f4 [64]
17.943827 21.099226 57.28727 15.574563 11.885653 35.583622 19.275866 13.230918
13.301046 29.938557 69.70958 12.329932 11.992867 14.469733 14.426743 33.232616
11.347574 9.348112 22.542078 8.438378 85.17738 29.377977 20.06379 38.493946
14.11626 19.604765 24.821589 23.222115 40.461567 43.83218 25.940575 17.816175
13.347998 21.638481 11.569888 15.811816 15.634743 11.062578 13.036511 27.756975
17.906433 27.11217 47.091362 9.352681 16.632103 17.592281 10.929977 7.3200502
14.439386 13.942398 19.675068 15.767279 11.329778 13.004363 20.676329 40.742455
8.720834 17.110773 18.368622 33.054928 27.406403 12.494744 16.49089 21.018633
00000000: f58c 8f41 37cb a841 2a26 6542 6931 7941
00000010: a22b 3e41 a155 0e42 f934 9a41 d7b1 5341
00000020: 16d1 5441 2a82 ef41 4e6b 8b42 6747 4541
00000030: c9e2 3f41 0784 6741 f0d3 6641 33ee 0442
00000040: aa8f 3541 de91 1541 2d56 b441 9903 0741
00000050: d25a aa42 1906 eb41 a482 a041 cdf9 1942
00000060: 33dc 6141 8fd6 9c41 9d92 c641 e4c6 b941
00000070: a5d8 2142 2754 2f42 4c86 cf41 8787 8e41
00000080: 6691 5541 9c1b ad41 431e 3941 33fd 7c41
00000090: e827 7a41 5200 3141 8d95 5041 490e de41
000000a0: 6040 8f41 b9e5 d841 8e5d 3c42 95a4 1541
000000b0: 8c0e 8541 febc 8c41 30e1 2e41 da3d ea40
000000c0: ba07 6741 1014 5f41 8a66 9d41 c646 7c41
000000d0: c546 3541 df11 5041 1f69 a541 46f8 2242
000000e0: 8988 0b41 dde2 8841 f0f2 9241 3f38 0442
000000f0: 5040 db41 79ea 4741 58ed 8341 2926 a841

convnet.8.weight f4 [64, 64, 3, 3]
-0.14797588 -0.03887851 0.03555785 0.19784087 0.12890732 -0.20456362 0.3370122 -0.058329865
0.09312188 -0.0057321615 0.16694179 0.0087396335 -0.041519456 0.09213152 -0.008607778 -0.07457723
-0.13947223 -0.17522919 -0.001105675 -0.4268188 -0.023608485 0.08734993 0.14480299 0.35465038
0.1994156 0.1361336 0.352934 -0.16190684 0.06998256 0.07192504 0.14723335 0.053111095
-0.18681704 0.15886462 -0.023736997 -0.14027755 -0.0020956486 -0.14022508 -0.027007665 0.23461999
0.08982178 0.113834046 0.16626433 -0.03374171 -0.032375928 -0.23378614 0.06523609 0.27144194
-0.0728847 -0.09842081 0.22870536 0.20687838 0.054425403 -0.13126287 0.18391126 -0.20999987
-0.055206906 0.060665186 0.0089925425 0.12632939 0.027407348 0.03555562 0.01766066 0.085478015
0.060769685 0.14128949 -0.09495568 0.013933115 0.048731945 -0.13958585 0.12558009 -0.08983615
-0.6001858 -0.087735616 0.01843568 -0.020429242 0.48442236 0.11582558 -0.014073244 0.15846173
-0.048420016 0.014028763 -0.19643061 -0.07062587 0.27637324 0.17343847 0.018055977 -0.0069579002
-0.00819834 -0.22652432 -0.30259708 -0.017595934 0.112423375 -0.13298789 -0.00808211 -0.028634012
-0.06196152 -0.070632905 -0.02447245 -0.07314354 -0.06434865 -0.1755005 0.056700226 -0.0917685
0.26192647 0.17093375 -0.051572617 -0.03430567 0.116350934 -0.16115278 0.3454417 0.34904996
-0.23343512 -0.028849747 -0.007921134 -0.05567864 0.044794813 0.05211287 -0.031169826 0.32645175
-0.039082874 0.23064001 0.35414153 -0.017542684 -0.21902005 -0.054511137 0.02171833 0.014529728
-0.08939883 0.07176962 0.20553792 -0.060816515 0.11600924 0.11208843 0.04496883 -0.13163564
0.044080537 0.0017717358 -0.031666715 0.07404092 0.10358218 -0.23764051 -0.18386698 -0.25915748
0.037523158 -0.25572467 -0.10654844 -0.10382726 0.055180088 0.08818032 0.21804067 -0.28540474
-0.030014724 -0.12956123 -0.2613526 -0.24505004 0.052901577 0.06004323 -0.15580462 0.01988932
0.05664576 -0.15259396 0.04492749 0.2710517 0.038141247 0.0145622585 -0.24049655 -0.11028932
0.016830642 0.20065144 0.035972025 -0.17065358 -0.263503 -0.1448543 -0.09351855 0.174823
-0.13458264 -0.09866976 0.3562654 0.13496524 -0.15935989 -0.1518676 -0.16925438 -0.27756062
-0.06176796 -0.105856806 -0.011308641 -0.033244923 -0.19936903 -0.18655623 -0.05512018 -0.13519092
-0.09090691 -0.08278655 -0.0844088 0.09850712 -0.052683026 0.076283544 -0.11956671 -0.43001226
-0.32093585 0.17643265 -0.21086253 -0.3362625 0.20846835 -0.4148845 -0.11993201 0.07677529
0.016589902 -0.14762756 -0.21605934 0.11046012 0.042087562 -0.09597302 0.008001989 -0.22597378
-0.3357676 0.07673416 -0.17442852 0.034719247 0.027663095 0.018797237 -0.0070145964 0.14416216
-0.2192095 0.048538797 -0.22544573 -0.22342779 0.23780636 -0.070792966 0.19818759 0.40843868
0.082069576 0.25002274 -0.0442633 -0.16161399 -0.314674 0.2448144 0.23706982 -0.30110544
-0.116288275 -0.026310842 -0.24376552 -0.09724092 -0.13524671 -0.21710357 -0.012354434 -0.13021284
0.19935304 -0.006672915 0.046585284 0.19410647 -0.07519201 -0.10008792 -0.09296866 0.013277429
00000000: fd86 17be 133f 1fbd 1ca5 113d cc96 4a3e
00000010: 4800 043e 2079 51be dd8c ac3e 4ceb 6ebd
00000020: afb6 be3d dbd4 bbbb caf2 2a3e ae30 0f3c
00000030: 4e10 2abd 73af bc3d a307 0dbc f2bb 98bd
00000040: cfd1 0ebe 486f 33be 4cec 90ba fe87 dabe
00000050: 9566 c1bc 85e4 b23d 3c47 143e bc94 b53e
00000060: 9a33 4c3e 9b66 0b3e c4b3 b43e e8ca 25be
00000070: 0453 8f3d 6f4d 933d 57c4 163e 058b 593d
00000080: f74c 3fbe 68ad 223e 1774 c2bc eba4 0fbe
00000090: 2657 09bb 2a97 0fbe 2e3f ddbc 3940 703e
000000a0: 7bf4 b73d d321 e93d 3241 2a3e bf34 0abd
000000b0: 9f9c 04bd a265 6fbe 809a 853d 70fa 8a3e
000000c0: 9344 95bd da90 c9bd bd31 6a3e edd7 533e
000000d0: 2ced 5e3d c669 06be 3c53 3c3e 350a 57be
000000e0: a320 62bd 0f7c 783d 7555 133c 7e5c 013e
000000f0: 6085 e03c c5a2 113d 17ad 903c 190f af3d
00000100: a2e9 783d 31ae 103e 2078 c2bd b847 643c
00000110: 269b 473d 98ef 0ebe 1198 003e 04fc b7bd
00000120: c7a5 19bf bbae b3bd 6c06 973c 3a5b a7bc
00000130: 3506 f83e f635 ed3d 7793 66bc cb43 223e
00000140: 1154 46bd e6d8 653c 1b25 49be 4ca4 90bd
00000150: cb80 8d3e db99 313e 21ea 933c 19ff e3bb
00000160: 5552 06bc fef5 67be 01ee 9abe 5925 90bc
00000170: 3a3e e63d fa2d 08be d46a 04bc e091 eabc
00000180: 5dcb 7dbd fca7 90bd 737a c8bc 48cc 95bd
00000190: 3ac9 83bd 67b6 33be 7f3e 683d 20f1 bbbd
000001a0: 3a1b 863e 4209 2f3e cf3d 53bd 1a84 0cbd
000001b0: 6649 ee3d 3c05 25be bcdd b03e adb6 b23e
000001c0: 9e09 6fbe 4e56 ecbc a5c7 01bc 490f 64bd
000001d0: c47a 373d 4e74 553d dd57 ffbc af24 a73e
000001e0: 5d15 20bd e52c 6c3e 0a52 b53e adb5 8fbc
000001f0: cb46 60be 1247 5fbd a4ea b13c 190e 6e3c
00000200: bc16 b7bd f3fb 923d 8878 523e bd1a 79bd
00000210: 4196 ed3d 9e8e e53d 3c31 383d 7ecb 06be
00000220: cb8d 343d 9739 e83a f5b4 01bd c4a2 973d
00000230: e522 d43d 0958 73be a047 3cbe 4ab0 84be
00000240: e2b1 193d 58ee 82be 1236 dabd 63a3 d4bd
00000250: 8404 623d e297 b43d 0e46 5f3e 9220 92be
00000260: 70e1 f5bc b3ab 04be 02d0 85be 66ee 7abe
00000270: 53af 583d e4ef 753d 3f8b 1fbe edee a23c
00000280: 6205 683d 9741 1cbe e305 383d 4ac7 8a3e
00000290: ff39 1c3d 8a96 6e3c ba44 76be 5edf e1bd
000002a0: 6ae0 893c 9277 4d3e 6757 133d d0bf 2ebe
000002b0: dde9 86be b054 14be a786 bfbd cd04 333e
000002c0: 08d0 09be 5f13 cabd 6b68 b63e 5434 0a3e
000002d0: 3d2f 23be 2e83 1bbe 0551 2dbe 6d1c 8ebe
000002e0: 6700 7dbd 74cb d8bd e147 39bc d42b 08bd
000002f0: 6527 4cbe 9908 3fbe b3c5 61bd 7d6f 0abe
00000300: 672d babd ff8b a9bd 85de acbd 1abe c93d
00000310: 28ca 57bd 8c3a 9c3d 64df f4bd 912a dcbe
00000320: b451 a4be c3aa 343e 59ec 57be 992a acbe
00000330: ba78 553e be6b d4be ea9e f5bd 5d3c 9d3d
00000340: 8ce7 873c ae2b 17be a93e 5dbe ea38 e23d
00000350: 0264 2c3d 818d c4bd c61a 033c ac65 67be
00000360: bbe9 abbe cd26 9d3d 649d 32be c535 0e3d
00000370: b79d e23c aafc 993c b3da e5bb 3f9f 133e
00000380: 7578 60be 9ed0 463d 3fdb 66be 41ca 64be
00000390: 8383 733e e7fb 90bd b0f1 4a3e e01e d13e
000003a0: 1814 a83d fb02 803e 6f4d 35bd 237e 25be
000003b0: f31c a1be a0b0 7a3e 6ec2 723e 7e2a 9abe
000003c0: 8c28 eebd d689 d7bc ab9d 79be 3f26 c7bd
000003d0: 1d7e 0abe 6650 5ebe 406a 4abc 8456 05be
000003e0: 3423 4c3e 78a8 dabb 36d0 3e3d d9c3 463e
000003f0: 45fe 99bd e5fa ccbd 5a66 bebd 9389 593c

convnet.8.bias f4 [64]
0.04972486 -0.13094835 -0.030488674 0.050521933 0.040274903 0.05793654 0.08748384 -0.16429795
-0.019309906 0.11339707 -0.057185944 0.039873987 0.022262942 0.055356115 0.018529385 -0.07612706
0.070604086 0.12741297 0.08559921 -0.010782216 -0.0029808334 -0.03009935 0.038496614 -0.10822983
-0.110854 -0.16656876 0.04118178 0.07392912 0.09296214 0.013444708 0.01922542 -0.062045444
-0.16790907 0.005531321 0.098075666 0.008402296 0.0051789037 -0.09268328 -0.032523405 0.16637942
-0.13891573 -0.11720966 0.12925929 0.055605672 0.09963284 -0.06349381 0.062742 -0.08500902
-0.01977652 0.0032089758 0.030372204 0.04435574 0.01007522 0.015951764 0.014141676 -0.04464032
0.11848342 0.2337003 -0.09897951 0.15574731 0.05600752 -0.041111685 0.08498855 -0.14297819
00000000: 4bac 4b3d 5317 06be 62c3 f9bc 16f0 4e3d
00000010: 4cf7 243d de4e 6d3d ba2a b33d b93d 28be
00000020: cf2f 9ebc b93c e83d cf3b 6abd e852 233d
00000030: c660 b63c 18bd 623d f0ca 973c 81e8 9bbd
00000040: e098 903d 8c78 023e a34e af3d e4a7 30bc
00000050: 165a 43bb e992 f6bc a0ae 1d3d 9aa7 ddbd
00000060: 6c07 e3bd 0091 2abe 3aae 283d 2768 973d
00000070: ef62 be3d 3147 5c3c a17e 9d3c 5d23 7ebd
00000080: 5bf0 2bbe 1540 b53b e5db c83d c9a9 093c
00000090: cbb3 a93b bbd0 bdbd 4337 05bd 5e5f 2a3e
000000a0: ed3f 0ebe 9e0b f0bd 8c5c 043e c6c2 633d
000000b0: 4d0c cc3d 0b09 82bd e17e 803d 3619 aebd
000000c0: 5e02 a2bc ae4d 523b 21cf f83c 5dae 353d
000000d0: 8912 253c 46ad 823c 7db2 673c c5d8 36bd
000000e0: 6fa7 f23d 224f 6f3e c5b5 cabd 397c 1f3e
000000f0: 2468 653d ba64 28bd 7a0e ae3d e068 12be

convnet.10.weight f4 [64]
1.3338151 1.2217762 1.3038828 1.4308245 1.5301949 1.350937 1.3391526 1.3741752
1.4576918 1.3152266 1.2119824 1.2761546 1.229441 1.3112057 1.3058335 1.3615037
1.6200824 1.3376939 1.1464987 1.2082187 1.3821498 1.2806492 1.297868 1.1995218
1.3477385 1.2802278 1.3324965 1.155313 1.3459197 1.4277989 1.3363883 1.3261435
1.2412916 1.5948651 1.5637106 1.3699356 1.3002968 1.1827136 1.2428716 1.2423476
1.2873061 1.2954586 1.4135928 1.3950169 1.3729721 1.3709266 1.1755064 1.6400263
1.2439644 1.3686689 1.3257407 1.2720438 1.3609666 1.3181765 1.5007972 1.2343758
1.1991036 1.3364971 1.3314652 1.3485951 1.3142803 1.3273594 1.2258238 1.2539891
00000000: 74ba aa3f 2a63 9c3f a2e5 a63f 4225 b73f
00000010: 6ddd c33f 81eb ac3f 5a69 ab3f f9e4 af3f
00000020: a595 ba3f 5859 a83f 3d22 9b3f 0959 a33f
00000030: 535e 9d3f 97d5 a73f 8d25 a73f c145 ae3f
00000040: dc5e cf3f 8e39 ab3f 78c0 923f e9a6 9a3f
00000050: 49ea b03f 50ec a33f 8a20 a63f ee89 993f
00000060: b282 ac3f 81de a33f 3f8f aa3f 4ce1 933f
00000070: 1947 ac3f 1dc2 b63f c60e ab3f 12bf a93f
00000080: a5e2 9e3f 8a24 cc3f ab27 c83f 0d5a af3f
00000090: 2070 a63f 2963 973f 6b16 9f3f 3f05 9f3f
000000a0: 72c6 a43f 96d1 a53f 9cf0 b43f ea8f b23f
000000b0: 8dbd af3f 867a af3f fe76 963f 62ec d13f
000000c0: 3a3a 9f3f 8b30 af3f dfb1 a93f 55d2 a23f
000000d0: 2734 ae3f 02ba a83f 1f1a c03f 0700 9e3f
000000e0: 3a7c 993f 5612 ab3f 746d aa3f c49e ac3f
000000f0: 563a a83f eae6 a93f cbe7 9c3f b782 a03f

convnet.10.bias f4 [64]
0.02804969 -0.08586583 -0.11557394 0.02894483 0.18449037 -0.0567735 0.15228517 0.03990679
-0.08119921 -0.025949387 0.14812392 -0.36318684 -0.13965923 -0.12402838 -0.1889453 0.033377264
0.039265025 -0.12891567 -0.11129974 -0.03684488 -0.028710209 0.11779913 0.13767286 -0.142183
-0.4137866 0.076087944 -0.14490038 -0.071560524 -0.07058075 0.07227593 -0.15907814 -0.00013913096
0.0027382812 -0.021112645 0.21099925 0.06442472 0.047588445 0.054650035 -0.02856804 -0.086884856
0.18932705 -0.008108172 0.16802795 0.17677186 0.1329631 0.00045038326 0.008626648 0.03623697
-0.12876244 0.0024574664 0.061190203 -0.044295475 -0.041007377 0.24245594 -0.044906907 -0.27592337
-0.15813425 -0.06508619 0.05718805 -0.38277504 -0.14351766 -0.026615594 -0.29602656 -0.07437556
00000000: 77c8 e53c 6dda afbd 08b2 ecbd b51d ed3c
00000010: 0beb 3c3e 548b 68bd a5f0 1b3e 4d75 233d
00000020: c54b a6bd cf93 d4bc ccad 173e a0f3 b9be
00000030: d402 0fbe 9702 febd e07a 41be 99b6 083d
00000040: 5dd4 203d 7802 04be 1ef1 e3bd a8ea 16bd
00000050: ac31 ebbc ac40 f13d 1dfa 0c3e 6c98 11be
00000060: d6db d3be ffd3 9b3d c460 14be 538e 92bd
00000070: a48c 90bd 6705 943d 61e5 22be afe3 11b9
00000080: bc74 333b 6df4 acbc 3010 583e 1cf1 833d
00000090: 1aec 423d b7d8 5f3d 8607 eabc b0f0 b1bd
000000a0: f3de 413e 23d8 04bc 850f 2c3e af03 353e
000000b0: 7b27 083e 6b21 ec39 c956 0d3c 386d 143d
000000c0: 4dda 03be 720d 213b 94a2 7a3d 2c6f 35bd
000000d0: 5af7 27bd 5f46 783e 4ef0 37bd d445 8dbe
000000e0: f2ed 21be e94b 85bd 043e 6a3d 17fb c3be
000000f0: 4bf6 12be f208 dabc cb90 97be 3752 98bd

convnet.10.running_mean f4 [64]
-0.101558335 -2.3425987 0.16035931 -0.8063826 -2.8241665 -0.18721738 -3.313282 0.71375793
-2.20559 -0.85428745 -0.77380127 5.168288 3.6120484 5.2097964 -0.15740497 4.960361
2.0615768 1.6698784 4.59957 -2.8428955 0.45251104 -5.9658914 -2.036102 -1.1000359
-0.38758555 -4.0826893 -1.6723647 -2.9509811 2.9061332 0.06873277 10.824569 4.4150496
-3.2457602 -1.6329802 -5.0826726 -2.7931757 3.6340182 8.496407 -0.86309797 -0.73025185
-1.1623138 2.4361384 -1.8766248 -2.6991396 -1.8612188 -2.176074 2.5561628 -3.841585
2.5347135 2.2062187 -1.5602334 1.2431867 0.12981331 -0.83063567 1.6075591 -1.261793
-1.9170594 -5.499237 0.36541647 1.2127498 1.0076287 -3.3936238 -1.1215032 6.5320334
00000000: d1fd cfbd 23ed 15c0 3b35 243e 176f 4ebf
00000010: 25bf 34c0 eab5 3fbe d00c 54c0 d7b8 363f
00000020: 6328 0dc0 95b2 5abf d717 46bf 9e62 a540
00000030: cd2b 6740 a7b6 a640 c52e 21be 47bb 9e40
00000040: e0f0 0340 93be d53f ad2f 9340 00f2 35c0
00000050: 87af e73e 95e8 bec0 7f4f 02c0 facd 8cbf
00000060: 9d71 c6be 64a5 82c0 0c10 d6bf e0dc 3cc0
00000070: 16fe 3940 c4c3 8c3d 6f31 2d41 1648 8d40
00000080: 89ba 4fc0 7f05 d1bf 41a5 a2c0 64c3 32c0
00000090: c193 6840 48f1 0741 fdf3 5cbf c9f1 3abf
000000a0: b3c6 94bf b1e9 1b40 3e35 f0bf b4be 2cc0
000000b0: 6b3c eebf cc44 0bc0 2c98 2340 87dc 75c0
000000c0: bf38 2240 b032 0d40 bab5 c7bf be20 9f3f
000000d0: c8ed 043e 8aa4 54bf 7fc4 cd3f 6f82 a1bf
000000e0: 3462 f5bf c0f9 afc0 de17 bb3e 633b 9b3f
000000f0: faf9 803f 2231 59c0 6b8d 8fbf 6b06 d140

convnet.10.running_var f4 [64]
5.609416 7.8150363 4.9387755 6.750442 7.3639574 5.446849 5.4323516 5.4702525
7.689341 7.008642 10.707897 15.501837 10.9103365 12.013436 5.8107123 15.372719
11.9755 6.016759 8.706043 7.548468 5.9703383 8.8274765 4.4974685 6.0034556
7.8941755 11.743334 7.351265 6.954037 7.2716756 6.9781775 19.49695 9.114873
10.993979 6.7311926 6.300566 4.7898564 23.15467 19.825653 5.9820385 4.9982986
6.386726 6.0413194 5.4242296 6.6267595 6.8477554 3.9662507 11.340934 9.024112
7.960199 9.211498 11.151829 11.7114 5.464457 8.925483 7.346035 8.965739
20.209475 6.253847 5.1573706 5.9159503 4.2456713 11.293167 5.3950796 17.692087
00000000: 5680 b340 c714 fa40 730a 9e40 9f03 d840
00000010: 8aa5 eb40 964c ae40 d3d5 ad40 4f0c af40
00000020: 150f f640 cc46 e040 8c53 2b41 8607 7841
00000030: bd90 2e41 0937 4041 5bf1 b940 a8f6 7541
00000040: a69b 3f41 4a89 c040 f44b 0b41 0d8d f140
00000050: 030d bf40 583d 0d41 43eb 8f40 4f1c c040
00000060: 169d fc40 b2e4 3b41 903d eb40 7987 de40
00000070: 91b1 e840 3b4d df40 c1f9 9b41 85d6 1141
00000080: 57e7 2f41 ee65 d740 3d9e c940 8146 9940
00000090: c43c b941 f09a 9e41 dc6c bf40 10f2 9f40
000000a0: 0f60 cc40 7d52 c140 4a93 ad40 6a0e d440
000000b0: d020 db40 0dd7 7d40 7774 3541 c362 1041
000000c0: f3b9 fe40 4c62 1341 e46d 3241 e561 3b41
000000d0: d5dc ae40 c7ce 0e41 b812 eb40 ab73 0f41
000000e0: 01ad a141 841f c840 2e09 a540 774f bd40
000000f0: 8adc 8740 d0b0 3441 7ea4 ac40 6589 8d41

fcnet.0.weight f4 [128, 1024]
-0.27640778 0.04482092 -0.39192384 -0.30550888 -0.050280742 -0.043214947 0.17470276 -0.06409492
-0.12232889 -0.021553727 0.029009912 -0.022696683 0.06696491 0.04218538 -0.024892218 -0.20987737
-0.04979465 -0.061614934 -0.05959431 -0.23166318 0.09417733 -0.15516485 0.12204035 -0.026057335
0.02542316 -0.06941238 -0.04327062 0.20172265 0.2145963 0.0006501615 0.059089854 -0.20581238
-0.11943031 -0.2938388 -0.21016745 -0.21699612 -0.19622639 -0.1258086 -0.04337747 -0.1299071
0.021630784 -0.040149778 -0.0077211675 0.09279043 0.134831 0.09461703 0.039077826 0.019029805
-0.0028053904 -0.07834466 0.013830284 0.072169706 -0.27130413 0.012182263 -0.18558225 -0.1163049
-0.20181431 -0.101090714 -0.04264603 -0.15473044 -0.008044489 -0.10766928 -0.016814169 -0.13120964
-0.11299802 -0.02198131 0.047905456 0.122765444 0.077489465 -0.19782753 -0.095706046 0.004818097
-0.06909977 0.04182587 -0.06292057 0.14834182 -0.38352004 -0.075824715 0.1419096 0.03401836
-0.14346497 -0.07842315 -0.13345575 -0.106860675 -0.19554874 -0.015603483 0.007397473 0.09280527
-0.01936977 -0.0046745637 -0.0044272607 0.041720793 0.07753954 0.17174721 -0.019663135 -0.03675582
-0.24034476 -0.024341766 0.09933705 -0.08250738 -0.25074396 -0.1038226 0.0008621071 0.068180025
0.10598883 0.09733839 0.07090613 0.06864086 -0.37191984 -0.39901224 -0.19126983 -0.35652328
-0.099672735 -0.07044384 -0.043422475 -0.109175004 -0.14718275 -0.0972276 -0.031913966 -0.01857045
-0.034934033 0.029319782 -0.06989353 0.037117474 -0.083786875 0.10935786 -0.03125402 -0.17487036
-0.26110083 -0.11679678 -0.04587207 -0.18251714 -0.18974714 -0.13560155 -0.16568656 -0.027983762
-0.1825019 -0.09931711 -0.1397988 -0.23687722 0.16210255 0.051346473 -0.16617844 -0.049743548
-0.030739142 -0.40279245 -0.05571968 -0.21652137 -0.19690117 -0.3782525 -0.07677946 -0.099214956
0.07381791 -0.092504114 -0.21633537 -0.07883265 -0.40711862 -0.025752015 0.060252152 -0.0929367
-0.28140107 -0.06238852 -0.15245123 -0.1340354 -0.32953835 -0.22211517 -0.059174918 -0.044745803
-0.29282433 -0.13789532 -0.025968784 0.1326018 -0.055239834 -0.21174733 -0.059650797 -0.063916564
-0.3120142 -0.013596876 -0.30824748 -0.2023351 0.047489304 -0.19521892 -0.43521369 -0.39792943
0.04855806 0.091588415 0.02965254 0.19055694 0.06285078 0.108642496 -0.018902251 -0.25831276
-0.12027381 -0.22931892 -0.2651623 -0.1878619 -0.30460495 -0.2394093 -0.067308165 -0.12864448
-0.15963367 -0.20659448 -0.2556095 -0.003496938 -0.16061924 -0.07549102 -0.0025721006 0.018661352
-0.24461868 -0.33918276 -0.1427344 -0.049325448 -0.12886141 -0.30036673 -0.2141947 -0.1421094
0.2642154 -0.06352668 -0.03949662 0.013062621 -0.42318043 -0.07993906 -0.2825148 -0.646123
-0.22473365 -0.10153087 -0.22342171 -0.06815086 -0.2846405 0.040969133 -0.10241136 0.0053098053
-0.016179657 -0.044434384 0.03214562 -0.027775902 -0.38625002 -0.19558994 -0.09145187 -0.21163309
-0.28093302 -0.024203256 -0.024451755 -0.047052268 -0.31892857 -0.095567435 0.17508815 0.03945406
0.15181425 0.036094494 0.03860419 0.17722179 -0.38663697 -0.17301704 -0.43613657 -0.110875025
00000000: 5285 8dbe 2496 373d 3eaa c8be a96b 9cbe
00000010: 2ef3 4dbd 2802 31bd 48e5 323e 3344 83bd
00000020: 9287 fabd 7191 b0bc 32a6 ed3c 65ee b9bc
00000030: e624 893d 94ca 2c3d c4ea cbbc 18ea 56be
00000040: 7af5 4bbd f15f 7cbd 2a19 74bd 1d39 6dbe
00000050: 0be0 c03d 89e3 1ebe 4bf0 f93d 3176 d5bc
00000060: 3b44 d03c 1428 8ebd 893c 31bd 6290 4e3e
00000070: 22bf 5b3e 9a6f 2a3a 3408 723d 7bc0 52be
00000080: e197 f4bd 0a72 96be 2336 57be 3b34 5ebe
00000090: 92ef 48be f8d3 00be 93ac 31bd 5e06 05be
000000a0: 0b33 b13c 1874 24bd d901 fdbb e908 be3d
000000b0: 2311 0a3e 93c6 c13d 1210 203d 65e4 9b3c
000000c0: a4da 37bb 2a73 a0bd 6a98 623c b6cd 933d
000000d0: 60e8 8abe 1d98 473c 4609 3ebe 4331 eebd
000000e0: 69a8 4ebe a608 cfbd 9bad 2ebd a871 1ebe
000000f0: 08cd 03bc b681 dcbd debd 89bc d25b 06be
00000100: 826b e7bd 2612 b4bc 8338 443d 736c fb3d
00000110: ccb2 9e3d 4d93 4abe 8801 c4bd 21e1 9d3b
00000120: 2e84 8dbd 9a51 2b3d 80dc 80bd ebe6 173e
00000130: bd5c c4be fd49 9bbd c050 113e d656 0b3d
00000140: 7be8 12be 519c a0bd a0a8 08be c5d9 dabd
00000150: ee3d 48be c0a5 7fbc 8066 f23b b010 be3d
00000160: 5aad 9ebc 152d 99bb 8e12 91bb 6ce3 2a3d
00000170: 0dcd 9e3d 80de 2f3e 9514 a1bc 458d 16bd
00000180: f01c 76be 6268 c7bc 3971 cb3d a1f9 a8bd
00000190: 8361 80be f1a0 d4bd 07ff 613a f8a1 8b3d
000001a0: ac10 d93d 5a59 c73d 3c37 913d 9493 8c3d
000001b0: 476c bebe 554b ccbe 3ddc 43be 388a b6be
000001c0: 3821 ccbd dc44 90bd c4db 31bd 2597 dfbd
000001d0: 13b7 16be 441f c7bd 38b8 02bd 0e21 98bc
000001e0: fd16 0fbd 0a30 f03c 5724 8fbd 7e08 183d
000001f0: 7498 abbd 04f7 df3d 3704 00bd 3711 33be
00000200: 02af 85be 2633 efbd 5ae4 3bbd c6e5 3abe
00000210: 134d 42be 22db 0abe bda9 29be 343e e5bc
00000220: c7e1 3abe c566 cbbd 6b27 0fbe f18f 72be
00000230: 36fe 253e ae50 523d ae2a 2abe e4bf 4bbd
00000240: a7d0 fbbc d03a cebe 523a 64bd c7b7 5dbe
00000250: 76a0 49be 50aa c1be 8d3e 9dbd 3631 cbbd
00000260: d82d 973d cc72 bdbd 0587 5dbe 0373 a1bd
00000270: da71 d0be e4f5 d2bc f6ca 763d 9955 bebd
00000280: cd13 90be 1b8b 7fbd 2d1c 1cbe 9340 09be
00000290: 40b9 a8be 2972 63be 6661 72bd 6047 37bd
000002a0: 12ed 95be 6e34 0dbe 7dbc d4bc c4c8 073e
000002b0: 2a43 62bd 4bd4 58be 6554 74bd b0e6 82bd
000002c0: 53c0 9fbe 6ec5 5ebc 9dd2 9dbe ef30 4fbe
000002d0: 2584 423d 78e7 47be 54d4 debe 68bd cbbe
000002e0: d1e4 463d b592 bb3d e2e9 f23c 5c21 433e
000002f0: e9b7 803d f57f de3d e5d8 9abc 9241 84be
00000300: 1e52 f6bd 94d2 6abe 5ac3 87be df5e 40be
00000310: 2ef5 9bbe b627 75be ddd8 89bd 61bb 03be
00000320: 0277 23be 818d 53be 40df 82be e22c 65bb
00000330: 5f79 24be 099b 9abd b090 28bb b1df 983c
00000340: 527d 7abe 5da9 adbe f728 12be 7b09 4abd
00000350: 3ff4 03be abc9 99be db55 5bbe 2085 11be
00000360: 3e47 873e 471a 82bd 35c7 21bd 9a04 563c
00000370: 1bab d8be 17b7 a3bd c8a5 90be 5168 25bf
00000380: 9420 66be 6bef cfbd a9c8 64be ae92 8bbd
00000390: 66bc 91be 40cf 273d 0cbd d1bd e0fd ad3b
000003a0: 338b 84bc d400 36bd 20ab 033d 4a8a e3bc
000003b0: 90c2 c5be bb48 48be 1e4b bbbd 58b6 58be
000003c0: 74d6 8fbe e845 c6bc 0c4f c8bc e1b9 40bd
000003d0: 9b4a a3be dcb8 c3bd 4f4a 333e 959a 213d
000003e0: 3275 1b3e d2d7 133d 6d1f 1e3d a179 353e
000003f0: 48f5 c5be 612b 31be 4b4d dfbe 7212 e3bd

fcnet.0.bias f4 [128]
-0.038887665 -0.046883617 -0.014614852 -0.0026992036 -0.01666834 -0.019759148 -0.0076599782 -0.08470577
0.017092919 0.007150344 0.00939011 -0.021696666 -0.03338952 -0.012318102 0.0003668857 -0.032319304
-0.031331535 -0.018102271 -0.058870368 -0.017071638 -0.026655214 0.020183105 -0.026894147 -0.06530294
-0.012160266 -0.087995864 -0.016288681 -0.0507472 -0.018337157 -0.017065492 -0.043621793 -0.035398938
-0.024267547 0.005927173 -0.01819178 -0.0805169 0.013738169 -0.033014335 -0.005382582 0.011947868
0.016758157 -0.0036207282 -0.004397055 0.20252313 -0.0029650126 -0.0143121835 0.019118497 -0.01560732
0.07386768 -0.022061326 -0.03563447 0.013898073 -0.01861407 0.008699647 0.019141871 -0.038179033
0.00827929 0.038394235 -0.05688507 -0.043647327 0.15009414 0.02608884 0.011298665 0.019417385
0.049718205 -0.07549976 -0.002107871 -0.009459698 0.008171005 -0.0010275343 -0.034073114 0.0067288126
-0.0023962844 -0.0038289912 -0.05989609 -0.05091469 -0.01885832 0.007856206 -0.022699945 -0.044519894
-0.025004039 -0.009582284 0.017612362 -0.022671666 -0.053883117 -0.031580627 0.01610641 -0.06716137
-0.06427073 0.010312768 0.015085285 -0.036186296 0.002087787 -0.05100232 0.007666263 -0.048306007
-0.06321208 0.00034706437 -0.02887102 0.009347068 -0.058334395 -0.03882439 0.034561012 -0.026300836
-0.016938124 4.064113e-05 -0.025635587 -0.037416507 0.35978946 0.00027815794 -0.035518184 0.024305373
-0.029068137 -0.027803658 -0.003634157 -0.031038232 0.023777831 0.0066840556 -0.027860656 -0.046771746
-0.0066989143 -0.041662555 0.027051397 -0.033599515 -0.0063614557 0.017724052 -0.032455478 -0.032712687
00000000: ac48 1fbd 0909 40bd 2273 6fbc 1fe5 30bb
00000010: 0b8c 88bc f0dd a1bc 8e00 fbbb 387a adbd
00000020: 7306 8c3c 6f4d ea3b fad8 193c 35bd b1bc
00000030: 73c3 08bd ddd1 49bc 915a c039 3f61 04bd
00000040: 7f55 00bd 374b 94bc 0e22 71bd d2d9 8bbc
00000050: 095c dabc 0a57 a53c 1d51 dcbc 8cbd 85bd
00000060: da3b 47bc 2d37 b4bd d76f 85bc 4cdc 4fbd
00000070: ce37 96bc eecc 8bbc c4ac 32bd 7afe 10bd
00000080: bccc c6bc bb38 c23b ee06 95bc 0be6 a4bd
00000090: 0f16 613c 0a3a 07bd 5f60 b0bb fec0 433c
000000a0: 6748 893c bd49 6dbb 2c15 90bb 3962 4f3e
000000b0: a850 42bb a67d 6abc 659e 9c3c d8b5 7fbc
000000c0: f047 973d f4b9 b4bc 73f5 11bd beb4 633c
000000d0: 897c 98bc f788 0e3c 6acf 9c3c 9e61 1cbd
000000e0: dca5 073c 4643 1d3d 5200 69bd 8ac7 32bd
000000f0: 47b2 193e 43b8 d53c 091e 393c 3511 9f3c
00000100: 51a5 4b3d 9e9f 9abd 3524 0abb d9fc 1abc
00000110: aedf 053c 54ae 86ba 4090 0bbd 5f7d dc3b
00000120: fb0a 1dbb d0ef 7abb 9a55 75bd ec8b 50bd
00000130: c37c 9abc 51b7 003c 3cf5 b9bc 7e5a 36bd
00000140: 45d5 ccbc 03ff 1cbc cd47 903c eeb9 b9bc
00000150: 8bb4 5cbd b05a 01bd 97f1 833c e68b 89bd
00000160: 5fa0 83bd e2f6 283c 4528 773c 1538 14bd
00000170: 41d3 083b cfe7 50bd 4635 fb3b 85dc 45bd
00000180: 5675 81bd 31f6 b539 eb82 ecbc 7224 193c
00000190: 0cf0 6ebd 5306 1fbd d98f 0d3d da74 d7bc
000001a0: d2c1 8abc 1576 2a38 b901 d2bc 0d42 19bd
000001b0: 5336 b83e bad5 9139 847b 11bd 101c c73c
000001c0: 4d20 eebc 7fc4 e3bc 092b 6ebb e443 febc
000001d0: bac9 c23c ec05 db3b 083c e4bc bb93 3fbd
000001e0: 9182 dbbb 5ba6 2abd e49a dd3c a59f 09bd
000001f0: c273 d0bb 0832 913c 09f0 04bd bdfd 05bd
